torch_model/model_save/cnn1-2023-05-02-21-41-18.pth (torch_old, 542865 bytes, 24 tensors)

layer1.0.weight f4 [64, 1, 7]
000000 2c de 06 3d f1 76 e2 3d c2 d6 ea 3d eb a0 0c be
       0.032926723 0.110578425 0.11466743 -0.1373326
000010 67 87 31 bb 83 f9 b8 bc 9a d5 63 3e 8f 66 9f 3e
       -0.0027088763 -0.022579914 0.22249451 0.31132933
000020 98 53 a5 be 69 ee 98 3e ff df 8e be 45 19 b4 3e
       -0.3229034 0.29869393 -0.2790527 0.3517553
000030 7b 5a 6a be 00 a2 ef bd 2e d1 10 be 88 21 88 3b
       -0.22886078 -0.11700821 -0.14142296 0.004154388
000040 59 d3 90 be b8 79 ba 3e 82 98 fd 3d ca 27 00 3e
       -0.28286245 0.3642099 0.12382604 0.12515178
000050 ba 39 65 be 08 28 28 3e d3 82 bc be c3 13 96 3e
       -0.22385302 0.1642152 -0.3681856 0.29311952
000060 79 89 a6 3e 55 97 30 3e c8 bc 01 3e c4 2d 91 3e
       0.32526758 0.17245229 0.1266967 0.2835523
000070 8a 53 a1 3e 58 ac 2a be 4c 74 65 bd 67 95 5a 3c
       0.31509048 -0.16667306 -0.056019112 0.013341284
000080 be bd 0e be 86 a1 bb 3e e4 56 bb be 60 27 0b 3e
       -0.13939568 0.3664667 -0.3658973 0.13589239
000090 25 96 86 3e 31 82 94 3e af 95 cc bd 05 18 a5 3e
       0.26286426 0.29005578 -0.099894874 0.32244888
0000a0 52 a8 50 3e f7 5b 3f 3e 9e 24 87 3e d2 42 b6 3e
       0.20376709 0.18687426 0.26395124 0.35597855
0000b0 62 47 95 3e ff 5c f9 bb 37 21 c0 3e 41 d2 d1 3e
       0.29156023 -0.007609963 0.3752534 0.40980724
0000c0 46 44 97 3e e0 49 80 be 5c cf df bd 36 e8 57 3e
       0.29544276 -0.25056362 -0.109282225 0.21084675
0000d0 80 e6 98 be e2 a2 42 be de ec 40 3e c9 1c 0b 3e
       -0.29863358 -0.19007447 0.18840358 0.135852
0000e0 fb 57 ba 3e e5 9c 9d 3e ab f1 12 3d 92 96 b2 be
       0.3639525 0.30783764 0.035875004 -0.348805
0000f0 44 c0 02 be 98 84 12 3d 30 76 39 3e 53 06 0c 3c
       -0.12768656 0.035770983 0.18111491 0.00854643
000100 aa c6 e6 3d 7f 2e 9e 3e d2 7c c4 be cc e6 7d be
       0.11268361 0.3089485 -0.3837648 -0.24795073
000110 dc 65 f9 bd 10 51 4c 3d b1 2d e9 3d 5d 98 2e 3e
       -0.12177631 0.049881995 0.11385668 0.1705031
000120 1b 8d 0c be 97 7a 53 3e 7d 42 b5 be be 09 2c be
       -0.13725702 0.20652233 -0.3540229 -0.16800591
000130 62 98 73 3e f4 1c a3 bc 80 12 a8 be b2 9c 4a 3d
       0.23788598 -0.019911267 -0.32826614 0.049465843
000140 0a 1c c0 bd 9e fa ae be 66 3c 25 be e8 07 12 be
       -0.09380348 -0.3417558 -0.16136321 -0.14260828
000150 02 f8 d1 be 9a 97 d7 be 3d 5f ab be 17 45 81 bd
       -0.41009527 -0.4210785 -0.334711 -0.06312006
000160 cf d0 94 3e c3 54 b3 3d 59 92 86 be f9 a9 08 3d
       0.29065558 0.087564014 -0.2628353 0.033365224
000170 66 1e 95 3e 01 cb 63 be 49 80 a1 bd 73 59 9b bd
       0.29124755 -0.22245409 -0.078857966 -0.075854205
000180 e7 e4 9c bd 57 2c 2b 3e a1 03 75 bc ff e7 7e 3a
       -0.07660847 0.16716133 -0.0149544785 0.0009723901
000190 79 97 a9 bd 83 4c ac 3e 7d 22 aa be 8c 06 99 3e
       -0.08280844 0.33652124 -0.33229437 0.29887807
0001a0 91 3e 66 be fc ba 83 3e 01 fa 8c bc b4 f4 cc 3d
       -0.22484805 0.25728595 -0.017209055 0.10007611
0001b0 68 d7 0e 3e 72 ab 80 be b5 6e 8c be 65 eb 1c 3e
       0.13949358 -0.25130802 -0.27428213 0.15324171
0001c0 ee 0f 52 be fd fa 8a 3d d5 f6 b2 3c 55 53 99 3e
       -0.20513889 0.067861535 0.021846214 0.2994639
0001d0 03 93 30 3e 1d ca 08 be 4e 26 54 be b3 54 c2 3e
       0.1724358 -0.1335835 -0.20717737 0.37955245
0001e0 b3 0a 97 3d bd 82 9c be bc f4 9f bd cb 7e 8c 3d
       0.073750876 -0.30568495 -0.07810351 0.06860121
0001f0 5a dc 25 3d 39 94 f4 bd 0b 87 5e 3d 2b ff b6 be
       0.040493347 -0.11942334 0.054328006 -0.35741553
000200 04 4a dd bd 9e d3 c6 bc 2e dd 6f be 2b 0b a0 be
       -0.10805133 -0.024270829 -0.23424217 -0.3125852
000210 25 6b bb be 59 6d fa 3d 30 b3 e6 be 79 8b 49 3e
       -0.36605182 0.12227888 -0.45058584 0.19682111
000220 a1 69 ad be 28 aa 63 3e 07 68 aa 3b d0 d7 99 3e
       -0.3386965 0.22232878 0.0052003893 0.30047464
000230 e2 90 ff bd e8 ad ed bc 87 fc a6 3e 4a 54 42 3d
       -0.12478806 -0.029013589 0.32614538 0.047443666
000240 9f e9 09 bd d7 ca 8d be 76 a9 d6 3d e5 f6 36 be
       -0.033670064 -0.27693817 0.10481541 -0.1786762
000250 c0 ba f7 bc 77 1e 5e be 03 0e 03 3e ca 63 fd 3d
       -0.030240417 -0.21691309 0.12798314 0.12372549
000260 2e 29 60 3e 9b 5b 28 3d e3 f6 bb 3e 6b f5 10 be
       0.21890709 0.041102987 0.36711797 -0.1415612
000270 14 e9 03 be 95 34 62 3d 26 d7 77 3d 6f 42 a0 3c
       -0.12881881 0.055225927 0.060507916 0.019562928
000280 46 d7 57 be 7c f8 0b 3e 24 b5 90 bd 21 e2 7c 3e
       -0.21078214 0.13669008 -0.070658 0.24695636
000290 6a 1c b9 be 47 b9 bd be 62 6b 37 be 03 da 04 be
       -0.3615449 -0.37055418 -0.17912057 -0.1297379
0002a0 b2 14 b3 bd 6f f3 e8 bd f9 2a b0 bd a3 02 26 bc
       -0.08744182 -0.11374556 -0.086019464 -0.010132465
0002b0 44 58 47 be 28 cf 16 3e 9a f9 40 be 27 8b 5d 3e
       -0.19467264 0.14727461 -0.18845215 0.21635114
0002c0 ac a0 3c 3e 80 5f 96 be ca 89 15 be de f3 54 3e
       0.18420666 -0.29369736 -0.14603344 0.20796153
0002d0 bc bf 3b bd e0 42 29 3d eb 70 3d bd 0b 5c 98 3e
       -0.04583715 0.041323543 -0.046250265 0.29757723
0002e0 2b f2 a6 be 12 ba fe 3d 5a ed bc be db 90 86 3d
       -0.32606634 0.12437834 -0.36899835 0.06570598
0002f0 8e ad a1 3e 6a 51 4e be c0 24 22 be 4f d8 83 be
       0.31577724 -0.20148245 -0.15834332 -0.25750968
000300 fb 02 1b 3c a0 0b 55 be 35 a4 b3 3e 8c 3d cc 3e
       0.00946116 -0.20805216 0.35086218 0.39890707
000310 e2 f7 83 bc d8 88 aa be 8f 0b 47 be 45 cd 7a 3e
       -0.01610941 -0.33307528 -0.19438003 0.24492367
000320 94 b6 ac 3e c9 1b 0e bd 42 71 5d 3e 06 13 cb 3c
       0.33733046 -0.034694467 0.21625236 0.024789345
000330 dd fe c8 bd b1 d2 ad 3d aa ea 09 3e 34 74 60 3e
       -0.09814236 0.08487452 0.13468423 0.21919328
000340 84 35 71 be 8a 2d b5 bd 78 09 1b 3c 4b e4 90 3d
       -0.23555571 -0.088465765 0.009462707 0.070747934
000350 7a 0e 8f be 1c 0b 98 bd 3d 19 b8 3e 6c 83 0d 3e
       -0.27940732 -0.07423994 0.35956755 0.13819665
000360 98 d4 70 be d0 08 5d be 65 1d 16 3d 02 c5 1d be
       -0.23518598 -0.21585393 0.036649127 -0.15407184
000370 32 ba 95 3e 0d d6 05 be be f5 0d be 0b eb be 3e
       0.29243618 -0.13069935 -0.13863274 0.372887
000380 28 83 27 be 71 8f 86 be f7 f0 71 be 0e 85 fd 3d
       -0.16358626 -0.26281312 -0.23627077 0.12378894
000390 30 d0 ba be 2a 83 9b 3e 86 1d ac be 61 84 9e 3e
       -0.3648696 0.30373508 -0.33616275 0.30960372
0003a0 e5 05 1e 3c cd 9b 52 3e 8a 64 91 3e 22 ac b9 be
       0.00964496 0.20567246 0.28397018 -0.3626414
0003b0 3d 15 b7 bd 49 6c ad be c4 ff 55 3e bc ca d3 3d
       -0.08939598 -0.33871678 0.20898348 0.10341403
0003c0 d2 2b 83 bd 7a 8b 82 be 58 28 dc bd 40 0e a9 be
       -0.064048424 -0.25497037 -0.107498825 -0.33018684
0003d0 eb f0 be 3e 0b fe 3a bd cc f6 a7 bd b6 a8 6b 3e
       0.3729318 -0.04565243 -0.0820137 0.23013577
0003e0 24 b6 a6 3e 06 88 4a be 72 7c 57 3e 90 43 c6 be
       0.32560837 -0.19778451 0.21043566 -0.3872342
0003f0 51 0c 91 3e 76 94 a0 3e 25 1b a5 bd 04 91 bb be
       0.2832971 0.31363267 -0.08061818 -0.36634076

layer1.0.bias f4 [64]
000000 35 4e 52 be ac 79 3f 3d bd 45 2d 3d 05 f2 da 3d
       -0.20537646 0.046746895 0.042302836 0.10690693
000010 23 78 c1 3d 7f c9 c0 be 32 7d ae 3c eb 68 e2 be
       0.094467424 -0.3765373 0.021299932 -0.4422067
000020 b9 58 a5 be 0c f0 ce be 62 1d 72 be 2a 57 8f bd
       -0.32294253 -0.40417516 -0.23644021 -0.06999047
000030 8b 4c 2c 3c 0f 8c 8a 3e 00 33 61 be 93 23 8e 3e
       0.010516296 0.2705998 -0.21992111 0.27761516
000040 2f 38 e0 3d 09 bb 5b 3e 77 3c 85 bd 79 3e 81 3e
       0.10948216 0.21458067 -0.065056734 0.25242975
000050 5c c5 29 3e 77 1f 6c 3e 00 74 4b be a7 17 03 be
       0.16579193 0.23058878 -0.19868469 -0.12801991
000060 1f 52 a0 3e 8b e5 d0 be 3c 60 a8 be 14 84 61 3e
       0.31312653 -0.40800127 -0.3288592 0.2202304
000070 40 cc 93 3d 8c ec 2e 3e 55 7f 0a 3e e6 fb 26 be
       0.07216692 0.17082423 0.13525136 -0.16307029
000080 fc 18 bc bd 43 a3 d2 3d c5 f7 b8 3d 08 f7 9f 3e
       -0.09184453 0.10285046 0.09031633 0.31243157
000090 c7 5a 66 3d 5b 82 a4 bd 52 53 d9 be 94 0e e9 3d
       0.056238916 -0.08032676 -0.4244638 0.11379734
0000a0 61 7c f8 bc 6a 69 6b be 6b 00 fb 3d 20 ba a0 be
       -0.030332746 -0.22989431 0.12255939 -0.31392002
0000b0 27 d2 d2 3e ab 33 4d be 77 c6 a7 3d d2 77 7d 3e
       0.4117596 -0.20039241 0.08192151 0.24752739
0000c0 65 d0 a5 be 67 b1 b1 3e 8a c4 d8 be 2d e4 c9 be
       -0.32385555 0.3470566 -0.42337447 -0.39431897
0000d0 4a ca 8d bc c8 2c 44 bd a5 93 01 3e fa 19 59 3e
       -0.017308373 -0.04789427 0.12653978 0.21201316
0000e0 ab 82 63 be 84 3b c4 bd e3 0e 4c be 4f 0f ba 3e
       -0.22217815 -0.09581664 -0.19927554 0.36339805
0000f0 03 71 aa bd 4a f9 37 be 60 7f 0c 3d 19 55 01 bf
       -0.083223365 -0.1796619 0.03430116 -0.50520474

layer1.2.weight f4 [64]
000000 6a cd 79 3f 07 42 90 3f 37 ab 94 3f 57 15 6b 3f
       0.9757906 1.127015 1.1614751 0.91829437
000010 64 a0 85 3f ab 08 61 3f 97 34 61 3f 45 1a 8d 3f
       1.0439572 0.8790385 0.8797087 1.1023642
000020 dc 4d 86 3f f0 2e 86 3f 08 3d 89 3f c0 b8 5b 3f
       1.0492511 1.0483074 1.072175 0.8582878
000030 11 b3 62 3f 5f 03 8a 3f bf 9d 83 3f 6b 00 5e 3f
       0.88554484 1.0782279 1.0282515 0.8671939
000040 1a 64 8c 3f b6 3f 81 3f a4 40 63 3f 06 99 83 3f
       1.0968049 1.0097568 0.8877051 1.0281074
000050 e2 05 89 3f a8 df 7f 3f b6 7c 7f 3f c1 bc 61 3f
       1.070492 0.9995065 0.9979967 0.8817864
000060 3d f3 5b 3f 77 e2 85 3f cd 9e 8b 3f 8f a5 8f 3f
       0.8591803 1.0459737 1.0907837 1.12224
000070 4c 97 7e 3f 85 43 83 3f 47 cf 86 3f 48 e1 85 3f
       0.9944961 1.025498 1.0532006 1.0459375
000080 6f 4a 5b 3f fa f8 8f 3f d6 ec 8a 3f 5c 63 83 3f
       0.8566045 1.1247857 1.0853527 1.0264697
000090 59 fc 81 3f 88 8e 61 3f f3 29 86 3f d0 c1 83 3f
       1.0155135 0.8810811 1.0481552 1.0293522
0000a0 ad 98 62 3f e6 15 6d 3f df 45 62 3f 63 92 83 3f
       0.88514215 0.9261154 0.88387865 1.0279049
0000b0 f1 62 5f 3f 52 25 68 3f 9b da 87 3f 30 98 7d 3f
       0.8726035 0.90681946 1.0613588 0.99060345
0000c0 61 14 8f 3f c6 fe 65 3f 4d c4 88 3f df b5 8b 3f
       1.1178094 0.8984188 1.0684906 1.0914878
0000d0 99 bb 5e 3f f3 62 7a 3f 58 55 5d 3f 69 03 63 3f
       0.87005 0.97807235 0.8645835 0.8867708
0000e0 14 a6 79 3f d0 71 66 3f 64 4a 8c 3f fc 57 5b 3f
       0.9751904 0.90017414 1.0960202 0.8568113
0000f0 5a b2 5c 3f 90 9b 79 3f ea dc 90 3f fe 38 84 3f
       0.8620964 0.97502995 1.1317418 1.0329893

layer1.2.bias f4 [64]
000000 77 46 f8 3b eb fa e1 3c 21 cb ce bc 26 4c 03 bd
       0.0075767594 0.027585467 -0.025243344 -0.032055043
000010 df d4 91 3d ce c6 81 3b 31 14 cc 3a fc 29 b4 bc
       0.0712068 0.003960467 0.0015569982 -0.021992676
000020 a5 a2 f8 bc d7 81 64 3c 15 64 11 3c 2a 29 22 3d
       -0.030350992 0.013946972 0.008873959 0.03959004
000030 9b 77 5e bd 19 d8 2f 3d 6d e1 8a bc b8 60 1e 3c
       -0.054313283 0.042930696 -0.016953195 0.009666614
000040 be 07 28 3d 52 91 8c 3d b0 38 0c bc b9 36 97 3b
       0.04102301 0.06863655 -0.008558437 0.0046146777
000050 40 9c 8e 3d f6 2a 60 3b ee 0a aa bb 40 4b db bc
       0.06963396 0.0034205294 -0.005189291 -0.02676928
000060 62 25 41 3b 77 aa fe bc 23 07 bb 3d 0b 3a 72 bd
       0.0029471745 -0.031087143 0.091322206 -0.059137385
000070 32 0a 3b bc bb 46 15 3d 09 3a 31 3d 21 fb 27 bd
       -0.011416005 0.036444407 0.043268237 -0.04101098
000080 3e d8 72 3b 03 b9 72 3d ea 06 b6 bc ab c7 f2 3c
       0.003705516 0.059258472 -0.022220094 0.029636225
000090 a6 f9 14 3d ac 2d 42 3b 83 04 a7 bb 03 74 ee 3c
       0.036370896 0.0029629273 -0.0050969734 0.029108053
0000a0 bb 8b f1 bb 88 e4 a2 bc cf 1c 6d 3c f1 d8 bf bc
       -0.0073713935 -0.019884363 0.014472201 -0.023418875
0000b0 33 1c a7 3c 45 ae 46 3b 71 be 2b 3d 41 5a 5e bc
       0.020399189 0.0030316275 0.041929666 -0.013571323
0000c0 8e 84 d5 bc d0 fe ca bc 7f 25 7c bd 0a 23 29 bd
       -0.026064184 -0.024779707 -0.061559197 -0.04129318
0000d0 a1 b4 76 bb 23 59 99 bc ab d4 8a bc 11 50 df 3c
       -0.0037644284 -0.018719262 -0.016947111 0.027259858
0000e0 fe c9 2c 3d dc 71 26 bd 1f ba 64 ba d1 ba 8d 3c
       0.042184822 -0.04063593 -0.0008725244 0.017300995
0000f0 51 58 1e 3c 5f de 36 bd bb 31 33 3c 69 c7 bf bc
       0.009664611 -0.044645663 0.01093715 -0.023410516

layer1.2.running_mean f4 [64]
000000 86 04 09 3c 83 4b 77 3d 02 35 68 3d 1c 06 4b 3e
       0.008362895 0.060374748 0.056691177 0.1982655
000010 2a f1 e0 3d c3 cf e9 3d 95 5b a5 3e 7f 42 76 3c
       0.109834984 0.114165805 0.32296434 0.015030502
000020 b0 cc 93 3c a6 a8 8b 3c c1 d1 ab 3b fb 8a 8b 3e
       0.018041939 0.017048191 0.0052435105 0.2725447
000030 28 f4 b2 3e ed 66 8a 3e 38 78 b2 3a 79 71 8b 3e
       0.349519 0.2703165 0.001361615 0.2723501
000040 1b 68 e9 3d b1 53 5d 3e 49 73 bd 3e c2 f2 85 3e
       0.1139681 0.21613957 0.37002018 0.26161772
000050 6f 76 2a 3e 9b 66 71 3e 15 ef 08 3c a2 f6 1b 3e
       0.16646741 0.23574297 0.008357783 0.15230802
000060 48 97 d2 3e eb d8 10 3a 62 d1 1b 3b a8 a6 8d 3e
       0.41131043 0.00055254874 0.0023775925 0.2766621
000070 8e cb be 3d d2 bf 29 3e fb a8 0c 3e 3d 33 5a 3c
       0.09316169 0.1657708 0.13736336 0.01331788
000080 0a 83 64 3e 4a 8f 16 3e 05 b7 fc 3d c1 68 9d 3e
       0.22315612 0.14703098 0.12339596 0.30743983
000090 fc 8a 9f 3d 3e d8 57 3e 86 56 7d 3c 42 19 ee 3d
       0.07790181 0.21078584 0.015462523 0.11625911
0000a0 88 11 08 3e a3 1e e7 3d 24 2a 22 3e 72 6c f9 3b
       0.13287938 0.1128514 0.15836388 0.0076118046
0000b0 82 6a bf 3e a4 62 78 3c 26 31 09 3e 2f 72 84 3e
       0.37385947 0.0151602365 0.13397655 0.25868365
0000c0 16 bc c4 3b c6 05 f4 3e 93 09 2d 3a 5d dd 0d 3c
       0.006003867 0.47660655 0.0006600853 0.008658734
0000d0 22 8c ea 3d 19 05 b2 3d b6 a5 13 3f fa f9 86 3e
       0.114525095 0.086923786 0.5767473 0.26362592
0000e0 d6 58 ac 3b 36 7d 64 3e 4a 78 12 3d dc 23 a6 3e
       0.0052596135 0.22313389 0.035759248 0.32449234
0000f0 7a 18 11 3e 31 56 e2 3c 35 5f 47 3d 1a f6 ae 3c
       0.14169493 0.02762899 0.04867478 0.021357585

layer1.2.running_var f4 [64]
000000 7e 68 d5 3a e2 84 fc 3b ca e4 aa 3b 14 d2 11 3e
       0.0016281751 0.0077062706 0.005215262 0.14240295
000010 eb 1d 0f 3c a2 26 ca 3d 1a 7a dc 3e d4 44 4c 3c
       0.00873516 0.0987065 0.43061906 0.012467582
000020 b4 79 f8 3b 5d 66 95 3c 4e cd 2f 3b 3f 9d 31 3e
       0.0075828675 0.018237287 0.0026825252 0.17345141
000030 87 e3 77 3e 22 32 c6 3b 3b 05 ef 39 8d 27 ac 3c
       0.24207889 0.0060484568 0.0004558953 0.021014953
000040 fa d7 f1 3b d7 bb 74 3c 0b db 96 3e 07 3f b4 3c
       0.0073804827 0.014937363 0.29463992 0.02200271
000050 34 a4 93 3b 95 43 ad 3c 8f 85 3a 3b af 58 f9 3d
       0.0045056585 0.02115039 0.0028460955 0.12175118
000060 b4 39 a0 3d 06 bb 4f 39 89 b2 99 3a 81 fd 8c 3d
       0.07823506 0.0001981073 0.0011726181 0.068842895
000070 6d 28 f9 3c d6 0e bd 3b c4 b0 56 3b ab 8e 86 3b
       0.030414784 0.005769591 0.003275917 0.004106363
000080 fa 2c 02 3e 42 25 80 3d d7 b0 c0 3c c9 c3 8d 3c
       0.1271247 0.06257106 0.023521824 0.017305272
000090 64 63 dd 3c 8d ed 08 3e fd 6a 91 3c 5e 01 08 3c
       0.027024932 0.13371868 0.017751211 0.008301107
0000a0 8c 53 a5 3d 75 5b a2 3d ba fa d9 3c 13 5c 6b 3b
       0.08072576 0.079276 0.026608814 0.0035913035
0000b0 08 8d 31 3d 05 8f 24 3c 0c 6d 4e 3d 4d 53 89 3b
       0.04334739 0.010043864 0.050396964 0.0041908384
0000c0 9c 5c 04 3b d7 03 19 3e 87 02 0b 39 43 b8 8b 3b
       0.00201968 0.14942871 0.00013257015 0.004263909
0000d0 17 5e 84 3d e1 70 2b 3d 6e 28 f3 3e 71 6f 49 3d
       0.06463259 0.041855697 0.47491783 0.049178544
0000e0 76 4b e5 3a db ef 6d 3e 8d ed da 3c 3e 54 3f 3d
       0.0017493803 0.23236029 0.026724601 0.0467112
0000f0 24 b4 d3 3d 40 1b 06 3c 31 20 68 3b e1 fe e2 3c
       0.103370935 0.008185208 0.0035419578 0.027709426

layer2.0.weight f4 [128, 64, 7]
000000 92 20 53 bb 9c e7 62 3d 24 15 11 bd 6a b0 84 3c
       -0.0032215458 0.05539666 -0.035420552 0.016197402
000010 93 b7 c0 bb a0 59 dd 3c 5a 95 7d 3d 7a 53 83 bc
       -0.0058812588 0.027020276 0.06191001 -0.016031016
000020 8f 5d 9a 3b 46 8c ad 3c d6 bf 1f bd e0 7a c0 bb
       0.00471086 0.021185052 -0.03900131 -0.005874023
000030 13 54 97 bb 64 69 4e bc 0d c0 bd bd 1f 40 78 bd
       -0.0046181767 -0.012598369 -0.092651464 -0.060608026
000040 71 67 7c bd b4 65 08 bc 26 72 27 3c f8 a8 94 3c
       -0.061622087 -0.008325029 0.010220086 0.018146977
000050 8c 7d a8 3c ea 91 ca 3b 73 ea 1e bd a9 87 95 bc
       0.020567678 0.006181945 -0.038797807 -0.018253164
000060 ce 2b 9f 3c 53 d9 2f bd 45 22 26 3d 63 29 8f bb
       0.019430067 -0.042931866 0.040560026 -0.0043689474
000070 30 8d a1 bb e3 cc e7 3c 3a 98 40 bc 0e be 91 bd
       -0.004930161 0.02829594 -0.011755044 -0.07116328
000080 a1 90 5d bd c6 ca 7a bd 78 b0 41 bd 3f ef c5 bc
       -0.054093007 -0.061228536 -0.047287434 -0.024161933
000090 14 9a 4e 3c fd 38 3c 3d 90 92 96 bb 91 c9 b1 3c
       0.012609977 0.045952786 -0.0045951083 0.02170256
0000a0 ce 9b 0c bd bf 86 a1 3c a7 10 cf 3b f8 0b 27 bd
       -0.034328274 0.019717572 0.006319124 -0.0407829
0000b0 8b 00 59 3a 39 8f 90 3c 0a 7b 4e b9 b7 fa 44 bd
       0.0008277974 0.017646419 -0.00019691527 -0.048090663
0000c0 c7 c3 05 bc 05 8d 2a 3c 9f 62 f9 bc cf 49 49 3d
       -0.008164353 0.010409598 -0.030442534 0.049142655
0000d0 95 66 24 3d fd d0 ed 3d a8 aa 26 3c d2 a2 ac 3c
       0.040136892 0.11612127 0.010172524 0.021073733
0000e0 5c d1 58 bc 58 39 c8 b9 b2 50 ee bc 80 18 3a 3d
       -0.013233509 -0.00038189697 -0.029091213 0.04543352
0000f0 2f b0 9d 3d 58 bc c4 bc c1 06 b5 3b c8 ef 8a 3c
       0.0769962 -0.02401559 0.005524487 0.01696004
000100 37 01 b7 3c fb b9 ab bb 40 db bb 3c 9f 23 39 3b
       0.022339446 -0.0052406765 0.022931695 0.0028249992
000110 ff 59 e8 bb 56 28 bf 3c 60 dc 29 3d 96 09 0e bd
       -0.0070908065 0.023334663 0.04146993 -0.03467711
000120 21 a2 41 bc 00 fb 42 3d 2f 9f 38 bc db 16 22 3b
       -0.01181844 0.047602654 -0.011268421 0.0024732861
000130 3b b9 1a bd dc ab d2 bc 2e f5 35 bb 71 27 8f 3d
       -0.037774306 -0.025716715 -0.0027764547 0.06989945
000140 16 5f b0 3c 10 d4 2c 3d 68 f6 c5 3a 78 50 6a 3c
       0.021529716 0.042194426 0.0015103342 0.014301412
000150 ab 1d fe 3c 09 b2 3e 3d 00 16 2b 3d 34 72 95 3d
       0.031020006 0.046556506 0.041769028 0.07297173
000160 82 2d 8d 3d 1c 54 d1 bc dc 43 11 bc 6a cf 6b 3d
       0.068934456 -0.025552802 -0.008866277 0.057570852
000170 9e 79 41 bc 97 3f 43 bd 11 7f a6 bc 3f 9a a1 bb
       -0.011808781 -0.047668066 -0.020324262 -0.0049317176
000180 b9 f5 20 bd 65 f6 52 bd 42 ea da 3b 46 95 c2 3c
       -0.03929684 -0.05150451 0.0066807577 0.02375282
000190 35 c7 5a 3d 74 eb cd 3c d9 05 65 bd 27 00 13 bc
       0.053412635 0.025136687 -0.05591378 -0.008972204
0001a0 d7 9d 8b bd 0f 2b 14 3b 8e e5 fa bb a0 35 8f bd
       -0.06817215 0.0022608673 -0.0076567596 -0.0699265
0001b0 f5 bc e5 3c ec ea ff 3c a1 31 13 3d bf e0 02 3d
       0.028044203 0.03123995 0.035936 0.031952616
0001c0 6c 43 04 bd be 2a 75 bd 91 40 cb bb a5 f1 2b 3c
       -0.03229086 -0.059855215 -0.0062027653 0.010494624
0001d0 b4 1d 1b bd 90 b7 8d bb 2a 90 a4 3c 49 04 df 3b
       -0.037870124 -0.004324861 0.020088274 0.0068059308
0001e0 54 80 23 bd f7 35 1d bd 77 a7 e4 ba c2 ea b9 bc
       -0.039917305 -0.038381543 -0.0017444928 -0.022694949
0001f0 0a 88 b1 3b d3 5c d3 bc 7e 8d 2c 3c 1a 31 b2 3c
       0.0054178284 -0.025801098 0.010531781 0.02175193
000200 6c 89 a6 3d e6 e9 41 3d 44 69 e5 3c 2b 61 47 bd
       0.0813168 0.047342204 0.028004296 -0.04867665
000210 f5 08 1c 3b 81 a6 8f bd 86 80 10 bc 79 c2 c0 3c
       0.002380905 -0.0701418 -0.008819705 0.023530232
000220 56 4e 04 bd 72 4c 17 3d 07 b4 87 3d fc 34 3c 3d
       -0.03230127 0.03693814 0.06626134 0.045948967
000230 53 ba 1a bc 0b 42 e3 bd 39 b7 c2 3c 4b 60 8e bd
       -0.009443837 -0.11096581 0.023769008 -0.0695196
000240 91 a7 01 bd 42 e4 79 bd 4e b8 18 bd de cf 77 bd
       -0.031653944 -0.0610087 -0.03728514 -0.060500972
000250 35 a2 f2 3c e8 13 05 bd 11 78 1f bd 8d 29 f7 bb
       0.029618362 -0.032489687 -0.038932864 -0.007542795
000260 86 7a 15 3d 2a c0 46 3d ce fc 41 3d 20 86 9c bc
       0.0364938 0.048523106 0.047360234 -0.019106925
000270 13 46 3a 3c 46 22 a8 3c 14 a1 27 bd f5 1c 91 bd
       0.011369246 0.020524155 -0.0409251 -0.07085601
000280 cb 0e 56 bd 84 04 48 3d c8 c0 69 3c 86 6f 73 3d
       -0.0522602 0.04883243 0.014267154 0.05943253
000290 17 d9 80 3d 3d 93 e9 3c ef 73 01 3d 05 7a 12 bd
       0.062914066 0.028512591 0.031604704 -0.0357609
0002a0 47 01 b1 3b 96 6b c6 bb 3d 29 69 3d bf c7 fb 3c
       0.0054017636 -0.0060553057 0.056924094 0.030734895
0002b0 73 48 80 3d 27 57 44 3d ea e8 83 bd 2f 6b 5d bb
       0.062638186 0.047934677 -0.06440909 -0.003378581
0002c0 0a 0a ab bb ec 64 4a 3c c7 06 07 3d fe ec 51 bc
       -0.0052197026 0.012353163 0.032965448 -0.012812851
0002d0 03 be 55 3c bd 87 86 bc 18 97 40 bd 79 e5 32 3c
       0.013045791 -0.016422147 -0.047019094 0.010918968
0002e0 be 5b 61 3c 91 2f 6b 3d a5 39 31 3d 81 24 39 bd
       0.013754783 0.05741841 0.043267865 -0.04520083
0002f0 17 59 ed 3c c0 b7 a2 bc 80 5e 26 bd b7 89 f0 3c
       0.028973145 -0.01986301 -0.040617466 0.029362543
000300 0d ed 5f 3d 5c db 09 3e 0e 65 2a 3d 74 7a cd 3d
       0.05466943 0.13462585 0.04160028 0.10033122
000310 be 19 df bc bf cd 88 3c 77 92 84 3b 59 ad 87 bd
       -0.027233955 0.01669967 0.0040457803 -0.0662486
000320 9d a0 30 bd 4b 54 07 3d c3 73 b0 bc 8f 5f 84 bc
       -0.043121923 0.033039372 -0.021539574 -0.016158847
000330 ac ee 8e bd b2 d4 e4 bc 1c ea 8b 3c 42 2c 44 bc
       -0.06979117 -0.027933452 0.017079405 -0.0119734425
000340 b8 f1 c8 bb 69 d6 ed 3c 2c f2 df bd bb e7 a2 bc
       -0.0061323307 0.029032903 -0.109348625 -0.019885888
000350 7b 1c 9f bd dc 02 18 bd f3 2a 23 bd dc 30 7e 3d
       -0.07769104 -0.037112102 -0.03983588 0.062058315
000360 18 1e 43 bd 1b 57 92 bd 68 a9 01 3d c4 8e c4 3b
       -0.04763612 -0.0714552 0.0316557 0.0059984643
000370 09 e1 11 3d b0 c9 ac 3d 98 a4 68 3d 22 f9 d9 3c
       0.035615 0.08436906 0.056797594 0.026608054
000380 f0 d1 7f 3d 9d e0 dd bb 5b 5d 74 3d 19 75 32 3c
       0.06245607 -0.0067711608 0.059659343 0.010892176
000390 5e 9d 45 3c 6c ed 35 3c 64 d2 4c bd 50 b9 7c bd
       0.012061445 0.011103969 -0.05000533 -0.061700165
0003a0 b9 21 c4 bc e3 68 48 bd 8f 32 ed bc 47 48 27 bd
       -0.023941861 -0.048928153 -0.028954772 -0.040840413
0003b0 98 81 30 3a 74 7d a9 bd bf b0 09 3d 98 e8 47 ba
       0.0006733178 -0.082758814 0.033615824 -0.0007625907
0003c0 22 44 32 bc fb 8d 0c bc 47 16 d7 3c 3d fb 08 3d
       -0.010880502 -0.008578773 0.02625574 0.033442724
0003d0 c2 35 52 bc 77 1f 0f bd 3a dd 6f bd c6 28 3a bb
       -0.0128302 -0.034942117 -0.058560587 -0.002840565
0003e0 f7 71 2d bd 09 02 2f 3c b8 44 85 bd 4b 38 0c 3b
       -0.042345013 0.010681638 -0.06507248 0.0021395858
0003f0 6c ed da bc b4 f8 63 bd 88 55 ee bc 2b ad 8b bd
       -0.02672454 -0.055657104 -0.029093519 -0.068201385

layer2.0.bias f4 [128]
000000 31 75 3d bb 90 77 ef 3c fd 0c e7 bc dc 62 0c bd
       -0.0028908963 0.029231817 -0.028204435 -0.034273967
000010 f7 db 92 3d 58 67 03 bd 23 28 07 bb 7b 1d 37 bd
       0.07170861 -0.03208098 -0.0020623289 -0.04470585
000020 e6 76 16 3d 31 1f 30 bd 0b c2 7d bd 44 09 af 3c
       0.036734484 -0.042998496 -0.061952632 0.021366723
000030 53 e8 47 bd d8 3e 0a 3c 95 20 02 3d c0 44 a0 bd
       -0.048805546 0.008437835 0.031769354 -0.07825613
000040 86 a6 14 bd 14 9c bb 3d 9f 14 0e 3d 5a 99 c5 3b
       -0.03629162 0.09160629 0.034687635 0.006030244
000050 28 ae 64 3a 32 ed 3d 3c 6d 52 aa bc c6 df fa 3c
       0.0008723461 0.011592196 -0.020791257 0.030624282
000060 6d 0c 2e bd 91 bc 39 bd e1 aa c7 bc 1c 07 e4 bd
       -0.04249232 -0.045345847 -0.024373474 -0.111341685
000070 20 3b 77 3b f2 4a 8c bc ab b9 c8 3c c6 6c ae bc
       0.003772445 -0.01712558 0.024502596 -0.021292102
000080 2a ee 68 bd 6b ad 9a 38 63 4b 74 bd 53 65 bc 3c
       -0.056867756 7.375594e-05 -0.059642207 0.022997534
000090 4c 7a 34 bd 37 8c 9f bc 18 dc 81 3d 4b f7 fa bc
       -0.044061944 -0.01947604 0.06340808 -0.030635497
0000a0 06 11 87 bc f9 73 03 bd 60 01 27 b9 9b 91 21 3d
       -0.01648761 -0.032093022 -0.00015926873 0.0394455
0000b0 01 32 6f bc 33 08 cb bc e3 2c f4 bb 7a 6b 7c 3d
       -0.014599324 -0.024784183 -0.00745164 0.061625935
0000c0 6d 91 de 3c 8e c6 53 bc 3d 91 4c bd 74 1c c6 3c
       0.027168954 -0.012925757 -0.049943198 0.02418349
0000d0 c4 31 c3 3c 20 58 a8 3d a4 44 a1 bc 00 39 a7 3c
       0.023827441 0.082199335 -0.01968605 0.020412922
0000e0 00 64 bb bc f0 fd 93 bc 96 0e 88 3b 46 19 71 3d
       -0.022874832 -0.018065423 0.0041521294 0.058861993
0000f0 56 d6 3c 3d 0e b8 c8 3b f3 b9 4e bd 56 94 32 bd
       0.046102844 0.0061254567 -0.050470304 -0.043598495
000100 18 45 16 3b 74 d8 c1 3b 32 d8 81 bc 6d 3c 9c bd
       0.0022929367 0.005915696 -0.01585016 -0.07628713
000110 f2 2f af 3c e9 b5 0c 3d bc 75 8b bc 8a b2 8f 3b
       0.021385167 0.03435317 -0.017023914 0.004385297
000120 79 8f f9 bc 49 f8 6b bd 58 f8 06 bd 00 e2 32 bd
       -0.03046392 -0.05760983 -0.032951683 -0.04367256
000130 b1 aa b2 bc 1f e6 90 bd 71 27 73 bd a7 12 9b 3d
       -0.021809908 -0.07075142 -0.059363786 0.07571917
000140 6e fc a0 bb 8b 62 05 bd a1 39 37 3d e8 26 70 bd
       -0.0049129045 -0.03256468 0.044732694 -0.058630854
000150 46 1c 98 3d 34 47 cf 3d 3d 22 b2 3c 05 0a 7c bc
       0.07427268 0.10121003 0.021744842 -0.015383248
000160 ce 07 51 3c da 4c 29 bc b8 97 b2 bc b5 fe f7 ba
       0.012758208 -0.010333264 -0.02180086 -0.0018920513
000170 03 ea 20 3d 56 14 f8 3c aa 00 33 bd 2d 65 26 bd
       0.03928567 0.030283134 -0.043701805 -0.040623832
000180 6e 01 72 bd 7a bd 77 bd ad d8 9e 3c 90 24 ba 3c
       -0.059083395 -0.060483433 0.019390428 0.022722512
000190 57 09 0e 3d c6 dc c3 3d 18 52 9f 3d 32 f4 f0 3c
       0.034676876 0.095635936 0.0777933 0.029413316
0001a0 a8 48 fa 3c a8 e4 84 3d f0 1f d1 bc 51 53 78 bd
       0.030552223 0.06488925 -0.025527924 -0.06062633
0001b0 16 a8 c1 3c 76 d0 90 bd 48 1d 96 3b e7 f0 5f bc
       0.02363972 -0.07071011 0.0045811273 -0.013668275
0001c0 56 df 8c 3b 7d 09 9b 3d 4b b7 d2 3d e4 bb cc 3c
       0.0042990847 0.07570169 0.102888666 0.024991937
0001d0 21 3e 8f bd ee 5f 62 3d 15 2d 2f 3d 1e f0 ab bd
       -0.06994272 0.055267267 0.042767603 -0.08395408
0001e0 2b f5 82 bd 2c 5c 81 3d b6 70 dc bc f3 e8 74 3d
       -0.06394418 0.063164085 -0.026909214 0.05979247
0001f0 f4 7e af 3c ff 23 1f bd 00 ac 67 3b b3 8f a8 bc
       0.02142284 -0.038852688 0.0035350323 -0.020576334

layer2.2.weight f4 [128]
000000 30 02 7e 3f 9d 89 84 3f ba 65 77 3f 83 6a 78 3f
       0.9922209 1.0354496 0.966396 0.97037524
000010 04 3e 6f 3f 8c be 70 3f cb 82 7c 3f 40 0c 8d 3f
       0.93454003 0.9404075 0.98637074 1.1019363
000020 da ce 85 3f 7e 84 6c 3f 1a 1a 74 3f 47 2e 8b 3f
       1.0453751 0.9238967 0.9535233 1.0873498
000030 ff 4c 73 3f 53 6d 82 3f 8c 4b 8e 3f 48 01 70 3f
       0.9503936 1.0189613 1.1116805 0.93751955
000040 60 65 75 3f 89 b7 89 3f 75 4a 6f 3f 38 ea 78 3f
       0.9585781 1.0759135 0.9347299 0.9723239
000050 84 b6 89 3f 05 4b 8a 3f c4 df 7a 3f 86 56 7e 3f
       1.0758824 1.0804144 0.9799769 0.99350774
000060 97 90 82 3f b7 45 6b 3f f4 a7 81 3f 25 f5 70 3f
       1.0200375 0.9190325 1.012938 0.9412406
000070 27 2e 7b 3f b2 a6 85 3f f5 9f 87 3f 9f c5 81 3f
       0.981173 1.0441496 1.059569 1.0138434
000080 3e d5 7d 3f 40 7a 8b 3f 13 ed 70 3f eb 76 71 3f
       0.99153507 1.0896683 0.94111747 0.9432208
000090 8d 76 7e 3f 4e d4 80 3f 35 3c 86 3f 3a ad 80 3f
       0.99399644 1.006479 1.0487124 1.0052865
0000a0 e3 84 5f 3f 54 a3 7c 3f 2d 88 74 3f 8c a7 70 3f
       0.87312144 0.9868672 0.9552029 0.94005656
0000b0 8a 9e 85 3f 8d 16 80 3f 22 16 7e 3f 17 2f 88 3f
       1.0439007 1.0006882 0.9925252 1.0639371
0000c0 27 e8 70 3f ef 64 7f 3f 9b 00 7f 3f 3b 1c 77 3f
       0.94104236 0.9976339 0.996103 0.9652745
0000d0 3a 62 6f 3f e3 68 85 3f 6a d5 7d 3f bf 1d 87 3f
       0.93509257 1.0422634 0.9915377 1.0555953
0000e0 56 3d 66 3f aa 1b 76 3f 17 4b 89 3f ee a3 84 3f
       0.8993734 0.9613596 1.0726041 1.0362527
0000f0 40 a3 7f 3f 11 d7 81 3f da 82 80 3f 48 29 74 3f
       0.99858475 1.0143758 1.0039933 0.9537549
000100 bf 0b 83 3f 03 e6 78 3f 26 3b 74 3f 28 59 72 3f
       1.023796 0.9722597 0.95402753 0.9466729
000110 07 66 88 3f 98 3d 83 3f 76 bf 77 3f 7b 81 86 3f
       1.0656136 1.0253172 0.9677652 1.0508264
000120 44 b5 7b 3f fa 71 87 3f 69 42 6c 3f 38 f9 7d 3f
       0.98323464 1.0581658 0.92288834 0.992084
000130 ff 0a 83 3f aa 90 70 3f a4 6c 77 3f ad dc 86 3f
       1.0237731 0.9397074 0.9665015 1.0536095
000140 36 80 70 3f 74 49 79 3f b1 46 7d 3f e0 27 6f 3f
       0.93945634 0.97377706 0.9893599 0.9342022
000150 1d de 86 3f 1a ff 7e 3f 23 eb 86 3f ba 6c 67 3f
       1.0536534 0.99608004 1.0540508 0.9040028
000160 91 f8 81 3f 5f 2a 8a 3f 63 d3 73 3f 4c db 84 3f
       1.0153981 1.0794181 0.95244426 1.0379424
000170 0d 14 8b 3f 78 df 87 3f ef 85 75 3f 08 56 89 3f
       1.0865494 1.0615072 0.9590749 1.072938
000180 a8 b9 80 3f 0c 91 68 3f 6b f2 6d 3f f5 29 78 3f
       1.0056658 0.90846324 0.92948025 0.9693902
000190 31 c8 87 3f 62 45 87 3f 6a 8f 87 3f 27 45 8b 3f
       1.0607969 1.0568049 1.0590641 1.0880479
0001a0 e3 d9 6a 3f a7 e3 85 3f 0f f7 6e 3f d3 f0 72 3f
       0.9173872 1.0460099 0.9334573 0.9489872
0001b0 94 0d 81 3f 9d 10 80 3f 7f 1c 84 3f 2d d3 74 3f
       1.0082269 1.000507 1.0321196 0.9563473
0001c0 7c f4 84 3f 5c 8e 8a 3f 90 b2 7e 3f d4 65 8e 3f
       1.0387111 1.0824695 0.99491215 1.1124825
0001d0 59 9a 7d 3f 1c f1 6e 3f 3d 22 80 3f 8d c9 87 3f
       0.9906364 0.93336654 1.0010449 1.0608383
0001e0 49 08 73 3f 6c df 7c 3f 59 26 74 3f f6 85 80 3f
       0.9493452 0.98778415 0.95371014 1.0040882
0001f0 52 46 86 3f 4d 1b 76 3f e8 da 80 3f 92 3f 77 3f
       1.049021 0.9613541 1.0066805 0.96581376

layer2.2.bias f4 [128]
000000 15 a4 a6 3c 69 c6 82 3d 0d 39 ad 3d e6 66 21 bc
       0.020341912 0.063855 0.08458147 -0.009851193
000010 39 a9 d0 3d 4c 13 86 3d 9a e1 42 3d 13 f5 6e 3d
       0.10188527 0.06546649 0.04757843 0.05833919
000020 ec f1 2b 3d c8 42 0d 3d b1 24 5c 3d 56 a2 d9 bb
       0.04197876 0.034487516 0.05374593 -0.0066416664
000030 50 c5 68 3d ab 8a 48 3d f0 5e 4d bd 87 16 b6 3d
       0.056828797 0.04896037 -0.050139368 0.088910155
000040 13 ac 18 3d 10 e4 53 bc c9 97 a3 3d c3 cb 66 3d
       0.037273478 -0.012932792 0.07987935 0.056346666
000050 60 8c 43 bb 4e 66 84 3d 1f 94 08 3d f2 98 9f bb
       -0.0029838309 0.064648256 0.033344384 -0.0048705274
000060 74 42 2f 3d a5 b9 4f 3d 53 90 8f 3c 46 8e 99 3d
       0.042787984 0.050714154 0.017524874 0.0749784
000070 18 29 e2 3d 0c 0d 49 3d f8 e4 52 3d fc 16 3d bc
       0.11042994 0.049084708 0.051487893 -0.011541124
000080 ef e3 dc 3d 90 fb a5 3b 06 66 0d bc fd 7c bf 3d
       0.107856624 0.005065389 -0.008630281 0.093500115
000090 2a 29 26 3d c8 30 68 3d a1 71 07 3d ac bf 93 3d
       0.0405666 0.056687146 0.03306735 0.07214293
0000a0 60 96 31 3d 87 89 14 3d 55 26 34 3d 66 bb 90 bd
       0.0433563 0.03626397 0.04398187 -0.070669934
0000b0 fa 3d d2 3d be d4 96 3b 7e ad c2 3c f1 69 95 bd
       0.10265727 0.0046029976 0.023764368 -0.07295597
0000c0 6b 72 c8 3d ab 9d 7c 3d 13 df 7c 3d 59 d9 8b bd
       0.097874485 0.0616738 0.061736178 -0.06828565
0000d0 cd 75 04 3d 0c 58 19 3d 82 d0 87 3c cc 53 9e 3d
       0.032338906 0.037437484 0.016578916 0.07730827
0000e0 21 0c ec 3c 0a bf 75 3d e1 10 5e ba 5d 2f 1c 3d
       0.028814377 0.059996642 -0.0008471143 0.038131107
0000f0 4f 25 30 3d 26 78 9e 3c f0 a3 99 3d f3 2e b9 3d
       0.04300433 0.0193444 0.07501972 0.09042158
000100 f7 e1 d0 3c 03 35 b8 3d 0d 1f ae 3d 71 c7 7d 3d
       0.025498373 0.08994486 0.08502016 0.06195778
000110 5a cb a2 3d 66 af 8d 3d f5 84 17 bd b4 df 7d 3d
       0.079489425 0.0691822 -0.036992032 0.061980918
000120 87 79 15 3d 36 2f 23 3c 25 95 a9 3d 78 51 2e bb
       0.03649285 0.009959986 0.082804 -0.0026598852
000130 df 5b 03 3d 47 c1 b8 3d 8a 8c 49 3d 76 30 96 bc
       0.032070037 0.0902124 0.049206294 -0.018333655
000140 0b 54 27 3d 09 90 be 3b 3f 14 05 3e ef 2d e9 3c
       0.040851634 0.00581551 0.12996005 0.028464286
000150 76 85 70 3d 99 c7 b2 bc 08 2c 95 3d 01 3d 95 3d
       0.05872103 -0.021823691 0.07283789 0.07287026
000160 71 19 92 3d 16 67 b5 3d 5a 21 dc 3d fe 85 86 3d
       0.07133759 0.08857553 0.10748549 0.06568526
000170 5e 4d 89 39 3a 3b f6 bb ec 6f da 3c 01 85 c9 3c
       0.0002618832 -0.0075143846 0.026664697 0.024599554
000180 ef 9e e9 bc 0f 45 5b 3d 53 e5 97 3b e3 ec 8a 3c
       -0.028518168 0.053532656 0.004635492 0.01695866
000190 6b 40 71 3d 22 8d 0a 3d 65 b6 cb 3c 86 79 72 3a
       0.058899324 0.033826 0.024867246 0.0009249676
0001a0 54 a5 0e 3d 86 a7 3c 3d 01 24 c9 3c 6d cf 57 3d
       0.034825638 0.0460582 0.0245533 0.05268805
0001b0 f1 b5 04 3e 31 e0 12 3c 7f 86 67 3c eb 0c 5f 3d
       0.1296003 0.008964584 0.014131187 0.05445568
0001c0 e8 20 ec 3b 87 03 55 3c 0f 63 49 bd 0b 11 ad 3b
       0.007206071 0.013001329 -0.049166735 0.0052815727
0001d0 ba 2d 1f 3d 20 7d 87 3d f0 4b 2b 3d 23 e5 82 3d
       0.038861968 0.066156626 0.041820467 0.063913606
0001e0 5c eb 4e 3d 52 47 0d 3c 6a 0b 64 3d 7a 39 e1 3a
       0.050517425 0.008622961 0.055674948 0.0017183267
0001f0 7e 94 6a 3d d3 95 97 3b c1 82 1b 3d 15 20 a6 3d
       0.05727052 0.0046260147 0.037966494 0.08111588

layer2.2.running_mean f4 [128]
000000 32 2a 44 3f 57 bc 53 3f d4 54 00 3f 84 36 80 3f
       0.76626885 0.8270926 0.5012944 1.0016637
000010 1f ca 71 3f 66 b4 2c 3f 49 50 19 3f 37 27 1f 3f
       0.9444904 0.67462766 0.5988813 0.6216921
000020 c9 9a 61 3f 64 ab aa 3e d1 aa 5b 3f 44 ac 4b 3f
       0.8812681 0.33333886 0.8580752 0.7955973
000030 87 91 08 3f 07 ea c9 3e e5 71 72 3f 1e 25 3b 3f
       0.5334706 0.3943636 0.9470504 0.7310351
000040 55 cc ad 3e 16 8d 9b 3f f6 95 a2 3f cf db 33 3f
       0.33944955 1.2152431 1.2702014 0.70257276
000050 63 98 37 3f 85 55 4b 3f c5 a1 a5 3f 44 8c ae 3f
       0.717169 0.7942737 1.2939993 1.3636556
000060 34 57 05 3f ba 81 2e 3f 86 f8 48 3f 7b a8 1c 3f
       0.52086186 0.681667 0.78504217 0.6119458
000070 ac b6 8a 3f fe 3e 5f 3f 30 a5 46 3f f8 54 4e 3f
       1.0836997 0.87205493 0.77595806 0.805984
000080 7a 7f 2b 3f d4 47 22 3f 1d b9 1e 3f fe 97 21 3f
       0.6699139 0.6339085 0.6200121 0.63122547
000090 8c 59 3e 3f 5f a7 10 3f c8 13 68 3f e1 3b 11 3f
       0.7435539 0.5650539 0.90655184 0.5673199
0000a0 42 83 1b 3f 44 61 74 3f 5c 2d 51 3f 58 f5 5f 3f
       0.6074716 0.95460916 0.8170984 0.8748374
0000b0 97 8b 4d 3f dc 13 33 3f c5 a8 55 3f a5 08 a2 3f
       0.8029112 0.6995218 0.83460647 1.2658888
0000c0 96 00 48 3f de b6 32 3f 73 cf 0e 3f e2 fa 1e 3f
       0.78125894 0.69810283 0.5578529 0.62101567
0000d0 9d bb 87 3f ab 6b 2f 3f 9d 3e 09 3f 08 0f 2d 3f
       1.060413 0.68523663 0.53611165 0.6760106
0000e0 6c 4f ae 3f d6 92 f8 3e 6a 1d 47 3f ea 2e 6b 3f
       1.3617988 0.48549527 0.7777926 0.9186846
0000f0 83 de 46 3f be ed 22 3f 89 5e 22 3f a2 23 56 3f
       0.77683276 0.63644016 0.634255 0.8364812
000100 4c 37 58 3f ae 9d 44 3f fe e1 2d 3f f4 53 d8 3e
       0.84459376 0.768031 0.6792296 0.4225155
000110 2c 4c 2b 3f 55 2e 1c 3f 3d 64 06 3f 00 82 10 3f
       0.66913104 0.610082 0.524967 0.56448364
000120 23 ff b8 3e 3c e3 4a 3f 14 ac 21 3f c5 99 3d 3f
       0.36132154 0.7925298 0.63153195 0.7406276
000130 2f 74 74 3f 2c 21 c9 3e 60 4e 11 3f 9c 52 a8 3f
       0.9548978 0.3928312 0.56760216 1.315021
000140 8e 72 79 3f 6e 30 6e 3f 5c 91 45 3f e5 ea 73 3f
       0.9744042 0.9304265 0.77174926 0.95280296
000150 23 09 81 3f 49 92 7c 3f 95 f1 3e 3f c5 18 41 3f
       1.0080913 0.98660713 0.74587375 0.7542842
000160 4f 4d 74 3f 89 cc 2f 3f 2c 1b 30 3f c8 49 40 3f
       0.95430464 0.6867147 0.6879146 0.7511258
000170 d5 d9 98 3f d8 3a 98 3f 5b fa 03 3f 40 61 45 3f
       1.1941477 1.1892958 0.5155389 0.77101517
000180 56 43 55 3f ef e3 fb 3e 6d 73 10 3f 50 85 89 3f
       0.8330587 0.49197337 0.56426126 1.0743809
000190 47 a8 76 3f 36 75 80 3f 38 ab 4d 3f 0c b9 87 3f
       0.9635052 1.003577 0.80339384 1.0603347
0001a0 09 bd 49 3f c0 71 84 3f 06 ac 41 3f 55 6a 02 3f
       0.7880407 1.0347214 0.7565311 0.509435
0001b0 74 ce 6e 3f f0 d8 46 3f 23 37 39 3f bd ee 01 3f
       0.9328377 0.7767477 0.72349757 0.5075491
0001c0 aa b1 65 3f 1b 5f b0 3f bf 71 3d 3f c9 9b 57 3f
       0.8972422 1.3779024 0.7400169 0.84222084
0001d0 ac da 01 3f 66 00 97 3f 6f 2a 39 3f 9a 51 23 3f
       0.5072429 1.1796997 0.72330374 0.6379639
0001e0 dd ad ec 3e 81 63 43 3f 20 95 14 3f d2 38 6b 3f
       0.46226397 0.76323706 0.58040047 0.91883576
0001f0 6f 0d 8e 3f 04 6c 39 3f b7 e0 11 3f dc 77 1a 3f
       1.109785 0.72430444 0.5698351 0.6033914

layer2.2.running_var f4 [128]
000000 59 05 d8 40 03 78 fa 3f 2b 92 e0 3f d4 ba b8 40
       6.750653 1.9567875 1.7544607 5.772806
000010 73 5b 10 40 c2 87 4e 40 99 fd d6 3f d7 08 14 40
       2.2555816 3.227036 1.6796142 2.3130395
000020 6b 1c 3e 3f b4 85 d3 3f a8 99 01 41 43 c3 4c 40
       0.7426211 1.6525178 8.100014 3.1994178
000030 ae 6a ba 3f 61 2f 98 3f ee 6a a2 3f 47 e1 b7 40
       1.4563806 1.1889459 1.2688882 5.7462497
000040 18 aa 01 40 79 86 07 40 ea c2 f8 40 41 4c 83 40
       2.0260067 2.1175826 7.773793 4.1030583
000050 89 75 c8 3f 64 74 2f 40 ef 23 2b 41 ee 1d 84 3f
       1.5660869 2.741479 10.696273 1.0321634
000060 14 e5 a3 3f c0 7d e8 40 c0 e7 d4 3f 39 fa 17 41
       1.2804284 7.2653503 1.6633224 9.4985895
000070 15 fd e5 3f 9b b3 4e 3f b0 d9 4c 3f 5c f1 b6 40
       1.796786 0.80742806 0.80019665 5.716963
000080 92 ff fc 3f bd 3c b1 3f 34 a5 af 3f b0 75 15 41
       1.9765494 1.3846661 1.3722291 9.341232
000090 81 12 0b 40 8b 85 e0 3f 4d 4d 9e 3f 8f eb f3 3f
       2.1730044 1.7540754 1.236734 1.9056262
0000a0 d1 c0 9f 3f 07 59 d6 40 51 e5 79 3f 29 4a f5 3f
       1.2480718 6.6983676 0.97615534 1.9163257
0000b0 8e f0 25 40 54 e7 c6 3f a6 77 be 40 09 bd c9 3f
       2.5928073 1.5539346 5.9521055 1.5760814
0000c0 af 7c 10 41 4b 6a 6a 40 ed 1e cf 3f c4 92 e6 3f
       9.03044 3.6627376 1.6181313 1.8013539
0000d0 c5 56 9f 40 71 3f 08 40 d1 ed 76 3f 3f 5d 04 40
       4.979342 2.1288722 0.9645663 2.0681913
0000e0 64 95 16 41 e7 9c 5f 40 ad 0b 1f 40 08 1c 17 40
       9.411472 3.4939516 2.4850876 2.361086
0000f0 4f 4c 5a 40 94 aa b5 3f e7 1b 03 3f af d6 8f 40
       3.4109075 1.4192681 0.5121445 4.4949565
000100 d4 81 3e 40 d6 59 09 41 02 a4 ea 40 05 a3 86 40
       2.976674 8.584433 7.3325205 4.2074
000110 f8 88 13 40 64 b2 db 3f dc 9a 29 3f c6 a4 b7 3f
       2.305235 1.7163815 0.6625192 1.434716
000120 81 13 93 3f 79 4f e2 3f 82 36 87 40 98 8b 21 40
       1.1490327 1.7680503 4.225404 2.5241451
000130 f7 11 10 40 b5 16 10 40 e8 59 70 40 2d 90 cb 3f
       2.2510965 2.251386 3.7554874 1.5903374
000140 14 f5 dd 40 2a c6 fe 3f f5 2b 26 40 f3 1d a7 40
       6.936167 1.9904225 2.596433 5.222406
000150 ae 65 02 40 08 44 c1 3f e4 89 d9 3f 37 c8 e9 40
       2.037456 1.5098886 1.6995206 7.3056903
000160 2d d2 95 40 6c c8 27 40 60 26 48 40 0f f4 af 3f
       4.681906 2.6216078 3.1273422 1.3746356
000170 c6 d6 4a 40 b7 70 a9 3f d9 55 93 3f af 44 7f 3f
       3.1693587 1.3237523 1.1510574 0.9971418
000180 32 2e 75 3f 4c f5 2f 40 0f c7 32 40 4a 20 92 40
       0.95773613 2.7493467 2.7933996 4.5664415
000190 21 85 a9 3f c0 f2 22 40 46 31 c6 3f 75 41 89 3f
       1.3243753 2.5460663 1.5483787 1.0723101
0001a0 52 5b 05 40 db 52 90 3f c3 ff 35 40 20 1b ef 3f
       2.0836987 1.1275285 2.8437355 1.8680153
0001b0 e5 8a 72 40 60 b1 a3 40 fc 87 9a 3f ed 74 cb 3f
       3.7897274 5.115402 1.2072749 1.5895058
0001c0 e8 be d8 3f 7c 3c b5 3f 4c b0 7b 3f 7b 4f 33 3f
       1.693326 1.4159083 0.9831588 0.7004315
0001d0 33 d9 4a 40 73 a2 8d 40 f1 a8 53 40 c0 6b 48 40
       3.1695068 4.42608 3.3071864 3.1315765
0001e0 29 93 10 40 cb 75 56 40 e2 4f cf 3f 91 ff f0 3f
       2.258982 3.3509395 1.6196253 1.8827993
0001f0 f5 97 57 3f 76 40 91 40 8a dc 01 40 8c f0 cf 40
       0.84216243 4.539119 2.0290856 6.4981136

layer3.0.weight f4 [64, 128, 7]
000000 7e b4 b9 bc 79 ec b0 bc 57 09 4f bb b1 36 cc 3b
       -0.022669073 -0.021597134 -0.003159126 0.0062321057
000010 cf 9e bc 3d fc 8b 9c 3d b6 07 2f 3d d7 34 16 bd
       0.09209978 0.076438874 0.042731963 -0.036671486
000020 80 6b 49 bd f2 50 1d bd 51 02 ca bc 6a 5a 62 bd
       -0.049174786 -0.038407274 -0.024659308 -0.055262007
000030 f6 4a 3e 3b 80 28 92 3b ee ef 0b bc 66 5d 97 bd
       0.002903638 0.0044603944 -0.00854109 -0.07390861
000040 89 3b 0c bd ef bf 1b 3d 2a e2 4a bb 48 90 94 3c
       -0.034236465 0.03802484 -0.0030957558 0.018135205
000050 0c b3 6b bd 3d 1d 87 3d 90 22 f3 3b 77 95 d2 3c
       -0.0575438 0.06597374 0.0074198917 0.025706036
000060 12 33 89 bb b4 59 bb 3b df 36 e2 bb 42 1b 05 bd
       -0.0041869963 0.0057174806 -0.006903514 -0.0324967
000070 ad 70 23 3d 0f 73 45 bb 55 19 5b 3b b9 a2 03 3d
       0.039902378 -0.0030128395 0.0033431847 0.032137606
000080 12 15 73 3c a8 be 81 bd 01 dc 48 bd 1b 93 07 3c
       0.0148365665 -0.06335193 -0.049037937 0.008274819
000090 f6 b0 34 bd 08 7c 52 3d cd 7b 41 3d 39 45 6b 3d
       -0.044114076 0.051387817 0.047237206 0.057439063
0000a0 35 1a ad bc f0 df c2 bc df 86 c2 bb b9 e2 da bc
       -0.02113066 -0.023788422 -0.005936488 -0.026719438
0000b0 94 aa 15 3d f9 f0 1c bd ae 2c 2b bd ed 9a 5d bd
       0.03653963 -0.038315747 -0.041790657 -0.054102827
0000c0 2e 10 2a bd 5d 55 ff bc d9 e1 e5 bb 29 6e 80 bd
       -0.041519336 -0.031168634 -0.0070154485 -0.062710114
0000d0 48 64 08 3d cf 73 6b 3d bb fa 2a 3d 52 72 ba bc
       0.03329876 0.05748349 0.04174302 -0.02275959
0000e0 61 b1 e9 bc cb 78 3d 3c 1c e2 32 3d c6 40 0c 3d
       -0.028526964 0.011564444 0.043672666 0.03424146
0000f0 ad 90 7f 3b cf 98 98 bc 1b a9 8b bc 99 40 56 3c
       0.0038996146 -0.018627552 -0.01704841 0.013076925
000100 c1 f0 37 bd 72 52 0e bd 6d 3a 75 3c 43 a4 27 3c
       -0.044907335 -0.034746595 0.014967543 0.010232034
000110 cd d7 4f 3d a7 dd 0a 3d d6 23 01 3c c6 66 98 bc
       0.050742913 0.03390279 0.007882079 -0.018603694
000120 db 71 46 bc 8a c3 d9 3c cc c6 8c 3c df 8a d6 3c
       -0.012112106 0.026582498 0.017184637 0.026189266
000130 8d 53 94 ba 05 9f 96 3c f5 7f 81 bd 18 ff 11 bc
       -0.0011316404 0.018386373 -0.06323234 -0.008910917
000140 31 6d f1 bc 86 61 03 3d 42 a2 9f 3d 4e 7e 6a 3b
       -0.029471012 0.032075427 0.0779462 0.003578085
000150 3b 36 c1 bc 77 22 94 3c fb 0f c8 3c 24 c3 7f 3c
       -0.02358543 0.01808284 0.024421683 0.01561049
000160 ca c7 3b bd 8f 03 16 3d ba f6 56 bc 6f 0a c3 bc
       -0.04584483 0.036624487 -0.013120348 -0.023808686
000170 f2 65 af bb eb 18 9a bd 41 e3 98 bc 15 91 2d 3c
       -0.005352729 -0.07524284 -0.01866305 0.010593672
000180 21 00 1f 3d 0a 44 f8 bb 30 0d bb 3c a9 7d 98 3b
       0.038818482 -0.0075764703 0.022833437 0.0046536517
000190 49 47 70 bc fe f8 56 bc 6a 74 98 bc 0a 21 35 bc
       -0.014665433 -0.013120888 -0.018610198 -0.01105524
0001a0 bf 40 fd 3b e2 18 0a bb 39 23 43 bb 1b c4 34 3d
       0.0077286656 -0.002107196 -0.0029775633 0.044132333
0001b0 5c 78 1d 3d 1c 92 c1 3c ad 5b 7b bd 51 bd b6 bd
       0.03844486 0.02362924 -0.061366726 -0.08922828
0001c0 ac 59 2d 3d ef b4 fa 3c 95 2e 13 3d ef 2a 88 bd
       0.042321846 0.030603854 0.035933096 -0.06648814
0001d0 8d 56 c3 bc ea 8f 44 3d 4d 12 a3 3d 4b 46 cf 3c
       -0.023844982 0.04798881 0.07962475 0.025302073
0001e0 11 52 e9 3c 66 62 a7 bc 76 7d 19 bc 79 7e b0 3c
       0.028481515 -0.020432662 -0.009368291 0.021544682
0001f0 b9 1a 2f 3d fb a9 6a 3d d8 e5 3d 3c 85 ab 79 3c
       0.042750094 0.057291012 0.011590444 0.015238647
000200 d7 43 d6 3c a1 44 50 3d 23 e8 29 3d 13 d8 19 bd
       0.026155395 0.0508467 0.04148115 -0.03755958
000210 c3 89 5a bc 99 f6 77 bc 1a 46 cd ba 0b ac 77 3d
       -0.013338509 -0.015134477 -0.0015661151 0.060466807
000220 f4 0a a2 3b 5f 3b e1 bc 32 1c 4d bd f4 9a 32 bd
       0.0049451534 -0.02749413 -0.050075717 -0.043604806
000230 84 59 4c bc 86 b3 6e bc 71 ca 83 ba e3 01 22 bd
       -0.012472514 -0.014569169 -0.0010054839 -0.03955258
000240 1c 30 df bc 5b aa 35 bb 8f 5d 49 3c 68 05 35 3c
       -0.02724462 -0.0027719948 0.0122903725 0.011048652
000250 47 df c0 bc 93 36 27 bc 40 e6 0e bd 50 7f f5 3c
       -0.023543967 -0.010205883 -0.034887552 0.029967934
000260 ff 4e 39 3d 06 1f e5 bc 23 a9 f9 3c 9f 60 89 3c
       0.045241352 -0.027968895 0.030476158 0.016769705
000270 14 20 ac 3c 24 b9 f8 3c 78 b6 02 3c 67 62 58 3c
       0.02101139 0.03036172 0.007978074 0.013207055
000280 01 9c aa 3b 93 4f e3 3c 0c b1 27 3d 0b f5 e2 3c
       0.0052065854 0.027747905 0.04094033 0.027704736
000290 bf 23 13 3d e2 79 48 3d d4 eb 9b 3d 07 e3 b8 3c
       0.035922762 0.04894436 0.0761334 0.022569193
0002a0 35 ec 1f bc b5 ed 8c bd 05 b7 00 bd 5c 22 11 3d
       -0.009760906 -0.068812765 -0.03142454 0.03543316
0002b0 2c c2 9a 3d 15 7c 57 bc 72 ec 94 bd c7 78 0c 3b
       0.075565666 -0.013152142 -0.07271661 0.0021434294
0002c0 3c 97 3e bd 51 5a c0 bc 22 02 57 bb 0c 2e eb 3b
       -0.046530947 -0.023480566 -0.0032807668 0.00717712
0002d0 28 38 ce 3b 4f 6d fc 3c f3 fd 7f bc 2d 10 a6 bb
       0.0062933154 0.030813841 -0.015624511 -0.0050678463
0002e0 06 ba d7 ba d0 87 0f 3d 56 ed 04 3d a6 b4 07 bd
       -0.0016458638 0.03504163 0.032452904 -0.033131264
0002f0 72 d4 73 3c ca 02 e3 bc ed 0c 11 39 6d 56 39 3d
       0.014882194 -0.02771129 0.00013833093 0.045248438
000300 69 64 76 3d 62 29 bc bb 06 13 ba bb ef db 02 bd
       0.060154352 -0.005742238 -0.0056785373 -0.031948026
000310 29 36 5a bd 43 47 b4 bc bb 96 80 3b 63 c9 0c 3d
       -0.053274307 -0.022006636 0.0039242185 0.034371745
000320 62 04 47 3c ca d4 6f 3c 66 1a 47 bc 8f 61 18 bb
       0.012147041 0.014638135 -0.01215229 -0.0023251509
000330 09 9d 28 3d 96 34 80 bc 5e 3e 8c bc 58 27 21 bb
       0.041165385 -0.015650075 -0.017119583 -0.00245901
000340 97 35 b9 bd c3 7e 11 bd 0d 21 aa bc 83 ac 59 3c
       -0.090434246 -0.03552128 -0.020767713 0.013285759
000350 13 fc 1d 3c fc 22 08 bd e2 e2 88 3a f7 69 5a 3c
       0.009642619 -0.03323649 0.0010443593 0.013330928
000360 54 57 48 3d b2 66 6c bc 86 89 30 bb ef b6 5a bb
       0.048911408 -0.014428781 -0.002693744 -0.0033373197
000370 10 a8 d7 3b 54 ce ad 3c a2 3d 37 3d b9 7c 87 3c
       0.006581314 0.021216549 0.044736512 0.016538965
000380 7e f3 61 3c 54 a1 9d bd 70 3a 55 bd 3d b5 68 bb
       0.013790963 -0.076967865 -0.052057683 -0.0035508417
000390 a1 40 58 3d 2d 5a cd bb 83 17 99 bd 29 a1 0c bd
       0.05279601 -0.0062668533 -0.07475188 -0.03433338
0003a0 4b 25 af 3d e4 3b eb bc 81 99 8e bc d7 80 1c bc
       0.08552035 -0.028715082 -0.01740718 -0.009552202
0003b0 e7 e2 31 bd c1 09 15 3c 4a 3e 93 3b d8 ed f3 bc
       -0.04342928 0.009096564 0.0044935094 -0.029776499
0003c0 ce a0 84 3c e3 69 74 bc 47 6b 19 3d 2e 77 c2 3d
       0.016189959 -0.0149178235 0.037455823 0.09495388
0003d0 cf 64 c4 3d c7 d6 5a bc 65 3d 45 bc e7 16 13 bc
       0.0958954 -0.013356871 -0.012038563 -0.008977628
0003e0 c6 bc 4e 3c 7a ed 5d 3d 7c c5 e6 bc 38 27 de bc
       0.012618249 0.054181553 -0.02817034 -0.02711831
0003f0 64 5e 98 bb 3b 78 fa 3c 9e d0 d4 bb 5f 33 22 3c
       -0.004649924 0.030574908 -0.0064945957 0.009899943

layer3.0.bias f4 [64]
000000 97 77 80 bd e1 1e b5 3c 80 9e ce 3c 37 10 01 3d
       -0.0627281 0.02210945 0.025222063 0.031509604
000010 91 a0 35 bd c7 9e 98 3c df 9c bb bd 0e 2a 55 3d
       -0.04434258 0.018630398 -0.0916078 0.05204206
000020 fb f5 2a bb b2 79 fc 3b 6b 72 d0 bb 52 cb f4 3c
       -0.0026086557 0.007704937 -0.006361296 0.029882107
000030 5c f5 0f bd ce 9d 5b 3c 2f 7f 59 bc a6 c5 af bc
       -0.035146102 0.013404323 -0.013274952 -0.02145655
000040 50 bf 46 bd 78 7b 70 bc f1 07 dc bc 54 05 41 bd
       -0.048522294 -0.014677875 -0.026859256 -0.047124222
000050 e7 e1 aa bc e1 03 1d bc 64 c7 27 3d 44 f8 21 3c
       -0.020859672 -0.009583444 0.040961638 0.009885851
000060 5c c0 7d bd e5 03 ab bd c6 8d b1 bd 72 19 66 3b
       -0.061951026 -0.08350352 -0.08669619 0.0035110381
000070 3a ea 65 bd cd 8a 00 bd bc 60 b4 bc 57 22 d7 3b
       -0.05613158 -0.03138237 -0.022018783 0.006565373
000080 22 f3 6f bc 6b c3 7b bd f3 25 0a 3d 5b 92 d5 bd
       -0.01464537 -0.061465662 0.033727597 -0.10428306
000090 bb bd e1 bc fa e3 a6 bc 9e f4 b5 3c 44 e5 b7 3c
       -0.02755629 -0.02037238 0.02221137 0.02244819
0000a0 fd 91 15 bd 04 f9 06 bd 17 b8 91 bc c1 8b e2 3c
       -0.03651618 -0.032952324 -0.017787976 0.02765453
0000b0 76 88 f9 bb 56 54 b7 bc 04 58 2d bd 14 48 c0 bb
       -0.0076151444 -0.022379082 -0.042320266 -0.0058679674
0000c0 32 5a 18 bd c8 16 39 bd f3 5a 61 bd 0e d3 29 bd
       -0.037195392 -0.04518774 -0.055018377 -0.041461043
0000d0 7d a2 44 bc 8d db a0 bd d2 81 c5 bd 00 f8 5b bd
       -0.012001631 -0.07854376 -0.09643902 -0.053703308
0000e0 fa b2 11 bd be 44 17 bd 54 d9 22 3b 27 d7 9b bd
       -0.035571076 -0.036930792 0.0024848776 -0.076093964
0000f0 f7 59 62 bc 46 58 12 3d 98 7a 19 3c 19 2b 8f bd
       -0.013815395 0.035728715 0.0093676075 -0.06990642
