torch_model/model_save/cnn1-2023-05-01-15-57-33.pth (torch_old, 542865 bytes, 24 tensors)

layer1.0.weight f4 [64, 1, 7]
000000 3f 16 7b 3e 77 68 11 3e 91 84 80 3d 61 ed 64 be
       0.24520205 0.14200006 0.06275285 -0.22356178
000010 40 c2 88 be 40 f3 aa 3e 22 8f 86 be 99 50 81 be
       -0.267107 0.3338871 -0.26281077 -0.25256804
000020 06 7a 6a be 07 90 36 be 16 b2 fa bd ac 7e e5 bd
       -0.22898111 -0.1782838 -0.122409984 -0.11205801
000030 18 65 d4 bd f4 66 c8 3d f3 5e 28 bd 7f 19 82 be
       -0.103708446 0.09785262 -0.041106176 -0.25410077
000040 6f 52 7b be 53 d3 51 be 38 ca 4b 3e b3 0f ec 3e
       -0.24543165 -0.2049077 0.19901359 0.46105728
000050 56 2b 06 bd 88 46 54 3d 0b b3 ea 3d 8b 37 e0 3c
       -0.032756172 0.051825076 0.11459931 0.027370235
000060 c5 0f c4 be c7 e6 dc 3d a2 78 d0 3d da 3d 1c 3d
       -0.3829328 0.10786205 0.10179259 0.038144924
000070 5d 18 9c 3e e4 e1 5f 3d 2a 59 8c bd 89 42 7c 3e
       0.30487338 0.054658785 -0.06852944 0.24634756
000080 2a 34 75 be 74 ac 0f 3e 9d 7a ae be dc d9 b5 bc
       -0.2394568 0.1403063 -0.34077922 -0.02219861
000090 d0 00 b5 3e 57 79 9b 3d 59 b5 d0 bd 1b d3 e5 bd
       0.35352182 0.07591503 -0.10190839 -0.11221906
0000a0 29 08 01 3e c5 1c fa bd 13 62 97 be a2 8d 33 be
       0.12600769 -0.122125186 -0.29567012 -0.17534497
0000b0 33 64 72 3e c1 f4 ad 3e e7 9b 88 3e 7e 32 80 be
       0.23671035 0.33975795 0.26681444 -0.25038522
0000c0 4f 53 11 3e 8d 9e 36 3d 16 03 62 3e e0 6e 8f be
       0.14191936 0.0445848 0.2207149 -0.28014278
0000d0 25 2b 64 be 5e 9b 96 3b cb 23 ef bb 02 ea 8f 3e
       -0.22282083 0.004596158 -0.007297968 0.2810822
0000e0 5c 25 48 be 53 39 8b 3e 2c a1 6a 3c 17 80 49 3e
       -0.19545501 0.27192172 0.014320653 0.19677769
0000f0 80 1f a4 be 3c b2 65 bd b5 0d 4e 3e 82 2e 0c be
       -0.32055283 -0.05607818 0.20122416 -0.13689616
000100 95 bf 7c be ef f5 d4 bd dd e8 c5 3c e1 55 88 3e
       -0.24682458 -0.103984706 0.02415889 0.2662802
000110 d2 5a 0e bd b5 de 97 3e 97 3c a5 bc 00 f1 57 be
       -0.03475458 0.296621 -0.020170493 -0.21088028
000120 67 a8 48 be 9d 03 1d be 9f c9 10 3e d7 fb 50 3e
       -0.1959549 -0.1533341 0.14139412 0.2040857
000130 87 34 43 3e f7 79 5e 3e 95 f5 50 3e 50 58 c5 bd
       0.19063006 0.21726213 0.20406182 -0.09635985
000140 34 4b 44 3e 4d 16 b5 bd 0f 35 c8 3e 96 5d 56 3d
       0.19169313 -0.08842144 0.3910298 0.052335344
000150 5b 99 cd 3d b2 ab 8f be b6 dd 69 bd 4e f6 aa be
       0.10039016 -0.2806068 -0.057096206 -0.3339104
000160 6f eb fe 3d fa bc 95 3e 36 dd 4c bd 90 86 82 3e
       0.12447249 0.2924574 -0.05001565 0.25493288
000170 29 35 02 3e f4 f9 85 3e c1 7b 83 3e 89 09 c3 be
       0.12715591 0.26167262 0.25680354 -0.38093212
000180 9b 4c cc be 9f 09 31 be 76 9a d0 bc cc d8 88 bd
       -0.39902195 -0.17288826 -0.025464278 -0.06681976
000190 e8 26 5f be 66 1b 84 3d d2 ab 7a be 9b fb b2 3e
       -0.21792185 0.06450538 -0.24479607 0.34957585
0001a0 0e ab 4c bd 13 f1 1d 3e 8b 69 c8 be ca 91 07 be
       -0.049967818 0.15423994 -0.39143023 -0.13239208
0001b0 1c 89 cc bd 6e 56 82 3e 2e 94 08 be 9d 23 8e 3e
       -0.09987089 0.25456566 -0.13337776 0.27761546
0001c0 36 2a f6 3d 86 27 a2 be 1f 8f ae be 00 3a 92 bc
       0.1201977 -0.3167078 -0.34093568 -0.017849922
0001d0 d5 5d 99 3e 1d 71 a7 3e c6 6b fc bd 58 7e 3f be
       0.299544 0.32703486 -0.12325244 -0.1870054
0001e0 9b 99 a0 be 2e 38 16 be 0a 0b 77 3d d4 fd f8 bd
       -0.31367192 -0.14669868 0.060313262 -0.12157789
0001f0 36 95 23 3c b1 68 d0 bd a7 0f 14 be 71 7a 6a 3e
       0.009984305 -0.10176218 -0.14459096 0.2289827
000200 a3 70 d0 3e 36 8c 69 3e 67 a5 9a be 56 e8 a8 3c
       0.40710935 0.22807392 -0.30204317 0.020618599
000210 8e cc 57 3e b5 ab c3 bd 60 8f 9d 3e 0c d4 0a be
       0.21074125 -0.09554235 0.3077345 -0.13557452
000220 96 15 1e bd 34 c2 ff bd ea fb d3 bd 5e c1 e8 3d
       -0.038594805 -0.12488213 -0.10350783 0.11365007
000230 cd 39 9b bd 2b 66 98 3d 5d 47 84 3b db b9 b3 3d
       -0.07579384 0.07441362 0.0040368275 0.087756835
000240 09 3f b5 be e2 dd b7 3b d3 1a 80 3e ed 9a 2e 3e
       -0.35399655 0.0056111673 0.25020465 0.17051287
000250 b4 c1 4d 3e ad 02 2a bd 89 fd d2 3e f8 04 a2 bd
       0.20093423 -0.041506458 0.41209057 -0.07911104
000260 6b 38 a9 3d 94 94 85 3e bd b0 85 3e 08 0b 4e 3e
       0.08262714 0.2608992 0.26111403 0.20121396
000270 6b e1 af be ab e1 be 3e a3 64 55 be 3f 7d b3 be
       -0.34351668 0.37281546 -0.20839171 -0.35056493
000280 96 25 d3 3c e7 95 8a be ea 59 3a be 0f b6 d3 3b
       0.025774758 -0.2706749 -0.18198362 0.006460912
000290 00 2f 87 be f8 ff 27 3d 40 b1 7f 3e 22 30 85 be
       -0.26403046 0.041015595 0.2496996 -0.26013285
0002a0 46 ce 70 3d 18 12 4d 3e b7 a2 fa 39 e9 ad 16 3e
       0.058790468 0.20026433 0.00047804948 0.14714779
0002b0 3c df 3b be 32 8b 6d 3d 0d aa 91 be 4a 04 39 3c
       -0.18346876 0.057994075 -0.2845005 0.0112925265
0002c0 c6 4a 81 be 98 c9 70 be 47 44 64 be 74 14 96 3e
       -0.2525236 -0.23514402 -0.2229167 0.2931248
0002d0 db a0 03 bd 3f c1 cc 3e 58 4d 67 3e c8 9d a0 3e
       -0.032135826 0.39991185 0.22588098 0.31370378
0002e0 cd 44 6a 3b 01 c3 c6 bd 6c ac 6c be f0 02 58 bd
       0.0035746575 -0.09705163 -0.23112649 -0.052737176
0002f0 65 00 bb 3e 4a 78 4c 3e fb 14 77 3e e4 83 79 be
       0.36523739 0.19967762 0.24129097 -0.24366719
000300 89 91 0c 3e 07 b5 91 be 58 28 8a be 0a 69 63 be
       0.13727392 -0.28458425 -0.26983905 -0.22208038
000310 d1 7b ca 3e 61 0b 86 3e e6 50 4f be 27 07 43 be
       0.3954759 0.26180556 -0.20245704 -0.19045697
000320 78 de 8e be ad 76 02 3d 9c 2b 5c be 08 8a fe 3d
       -0.27904105 0.03185146 -0.2150101 0.12428671
000330 24 7b 14 3e ed bf 64 3e b1 20 b9 3e fb c6 8e 3d
       0.145001 0.22338839 0.36157754 0.06971546
000340 2f cc 9a 3e 2a 0a 99 be 58 4f 8e be f9 db b2 bd
       0.30233905 -0.29890567 -0.2779491 -0.08733363
000350 48 a1 b1 be 8f 1e 54 be 41 6b 7e 3d 8a f3 f9 3d
       -0.3469336 -0.20714782 0.062114004 0.122046545
000360 a7 39 15 bd 5a ce a3 be c3 bd b2 be 24 ac be 3e
       -0.036431935 -0.3199337 -0.34910402 0.37240708
000370 be cf 42 be 20 39 0b 3e e6 91 23 be 39 f4 02 bd
       -0.1902456 0.1359601 -0.15973625 -0.03197119
000380 ec 70 ca bd 93 c0 ac be 7b 73 57 3e 39 27 aa 3e
       -0.098848194 -0.33740672 0.21040146 0.3323305
000390 d3 f0 ca 3c d2 62 17 3d 17 3f 6e 3d e8 81 a8 be
       0.024773037 0.036959477 0.058165636 -0.3291161
0003a0 5b d1 50 3e 8a 6b 79 be 78 4c a9 3e e1 d3 2d be
       0.20392363 -0.24357429 0.33066154 -0.16975357
0003b0 27 b9 b8 bc 3b 3e c6 3e 65 4e 36 3e f7 27 e3 bd
       -0.022549225 0.38719353 0.17803343 -0.11091607
0003c0 f8 c4 a8 be f6 43 5d 3e 79 d1 c0 3e 55 64 2c 3e
       -0.32962775 0.21607956 0.37659815 0.16835149
0003d0 35 c7 a8 3e 84 90 5c be 8d 26 8b 3e 37 e7 ad be
       0.32964483 -0.21539503 0.2717785 -0.33965465
0003e0 21 d6 ac be 12 ab 54 3e c1 e4 60 3e 0b 73 d6 3e
       -0.33757117 0.20768383 0.21962263 0.41884646
0003f0 eb af 94 be 7e 8e ee bd 01 d3 34 bd 55 e7 29 be
       -0.29040465 -0.11648272 -0.04414654 -0.16592152

layer1.0.bias f4 [64]
000000 cc e4 42 3e ff 4e 7d be 16 a9 b6 3e 79 fa 0b be
       0.19032592 -0.24737166 0.35675877 -0.13669766
000010 bc fa 86 3e f0 07 c1 bc 3e c8 bc be 95 18 1e 3e
       0.2636317 -0.023563355 -0.36871523 0.15439065
000020 8f fb 81 3e 1f f8 fe 3b 4e 04 28 3e 56 f1 34 3c
       0.25387236 0.007781043 0.16407892 0.011043867
000030 a0 8f a8 be e5 f6 7e be 44 b8 de be 07 03 51 3e
       -0.32922077 -0.2489887 -0.4349996 0.20411311
000040 3a 36 70 3e 20 2a 79 be 50 6c 2c 3d dc 45 55 be
       0.23458186 -0.24332476 0.042095482 -0.2082743
000050 ae 6c f8 3d 1d 0e b2 3a ee 04 1c be f2 e5 b6 3e
       0.12130104 0.0013584528 -0.15236256 0.3572231
000060 b7 40 ce be ad ed 44 3e 86 e5 af be 07 cd b5 3e
       -0.40283749 0.19231291 -0.343548 0.35507986
000070 c7 5b 7c 3e 0e 68 26 3e e9 74 4f be b1 98 97 3e
       0.24644385 0.16250631 -0.20259441 0.29608682
000080 3d 6b 0c be 4d 2f 0d be b4 f2 be be 72 56 48 be
       -0.13712783 -0.13787575 -0.37294543 -0.19564226
000090 92 7c b9 3e 91 a3 9f be 56 fb a4 be 37 a8 b7 3e
       0.36227852 -0.3117948 -0.32223004 0.35870525
0000a0 77 e5 8b bd ed 00 b5 bb 42 ce 3a 3e 9d b1 82 be
       -0.06830876 -0.005523792 0.18242744 -0.25526133
0000b0 f5 66 2c 3e 84 ef 08 be d9 00 8f 3e bd 75 70 3e
       0.1683615 -0.13372618 0.27930334 0.23482414
0000c0 47 78 81 3e 32 9e 88 be 44 9a a6 be 48 bf a4 3e
       0.25287077 -0.26683193 -0.3253957 0.32177186
0000d0 48 70 e6 3c db ef 60 3e e9 aa 4f 3e b3 29 3d be
       0.028129712 0.21966498 0.20280041 -0.18472938
0000e0 9e b0 74 3e 9c 23 84 3d d6 c0 dc be e9 c0 bb 3b
       0.23895499 0.064521044 -0.43115872 0.005729784
0000f0 be 12 af 3e df 32 43 be f7 e3 a9 bd 90 84 ce 3e
       0.34193987 -0.19062375 -0.08295434 0.40335512

layer1.2.weight f4 [64]
000000 1b 0b 84 3f 7a f4 62 3f 17 b5 7a 3f 9a f6 72 3f
       1.0315889 0.8865429 0.9793257 0.94907534
000010 bb dd 7f 3f 94 a6 7f 3f c9 6f 8c 3f 36 3c 88 3f
       0.9994771 0.99863553 1.0971614 1.0643375
000020 8f b3 5e 3f f1 e4 89 3f 32 c7 93 3f f5 87 6b 3f
       0.86992735 1.0772992 1.1545165 0.9200433
000030 1f 80 8d 3f dc 90 87 3f 8f c0 84 3f f2 f5 86 3f
       1.1054724 1.0591083 1.0371264 1.0543807
000040 b6 92 82 3f d1 e9 69 3f 62 0b 68 3f a5 b1 7c 3f
       1.0201023 0.913724 0.9064237 0.98708564
000050 f4 4b 88 3f fb 2d 76 3f 47 74 73 3f e8 ec 55 3f
       1.0648179 0.9616391 0.950993 0.83564615
000060 00 2f 8e 3f 04 35 91 3f 28 39 83 3f e9 7a 4a 3f
       1.1108093 1.1344304 1.0251818 0.79093796
000070 41 5f 61 3f 23 08 6a 3f e6 7d 62 3f 2f 17 5e 3f
       0.8803597 0.91418666 0.88473356 0.86754125
000080 74 56 89 3f 76 89 88 3f a0 6d 68 3f c3 c2 89 3f
       1.0729508 1.066695 0.90792274 1.0762562
000090 c4 7a 42 3f 30 81 71 3f f3 17 5c 3f c7 ca 8b 3f
       0.75968575 0.9433775 0.85974044 1.0921258
0000a0 b7 db 7e 3f c4 12 5d 3f 89 6c 87 3f 3d dd 81 3f
       0.9955401 0.8635676 1.0579997 1.0145642
0000b0 4b 27 8b 3f 2a be 97 3f 49 c2 85 3f c2 86 83 3f
       1.0871366 1.1854908 1.0449916 1.02755
0000c0 72 7a 8c 3f ea 8c 8a 3f 35 0f 82 3f 71 15 86 3f
       1.0974867 1.0824254 1.0160891 1.0475293
0000d0 e1 a6 96 3f ad 6d 5e 3f 64 25 82 3f 72 09 65 3f
       1.1769677 0.868861 1.0167661 0.8946754
0000e0 96 50 6c 3f 83 cb 85 3f 66 6e 89 3f c7 47 7b 3f
       0.92310464 1.0452732 1.0736816 0.981564
0000f0 69 c9 54 3f 78 6d 87 3f 96 6e 78 3f b1 fc 81 3f
       0.8311983 1.0580282 0.9704374 1.015524

layer1.2.bias f4 [64]
000000 cb 14 6b 3d a6 a6 d9 bc 30 f7 8a bd ac ab 29 3d
       0.057392877 -0.026568722 -0.067854285 0.041423485
000010 d3 f9 ea 3c c5 ef 83 3d 24 84 9f 39 07 62 bd bc
       0.028683579 0.06442217 0.00030425296 -0.023118032
000020 da d4 09 3c 7e 82 41 bc 16 3c 36 bd 59 d7 6f 3d
       0.008412564 -0.011810897 -0.044490896 0.05855498
000030 61 94 b2 3c 44 64 87 3d e9 9f 41 bd a9 8e 1b bc
       0.021799268 0.06610921 -0.047271643 -0.009494462
000040 46 dc 08 bd a1 de 85 3c c4 0a 5b 3d b8 e7 6a 3b
       -0.033413194 0.01634151 0.053477064 0.0035843682
000050 7b 2d 32 bc 78 eb 9b 3c ae 36 29 3d 5c f5 c0 bc
       -0.010875101 0.019033179 0.041311912 -0.023554496
000060 63 54 b0 3c ef a1 24 bd 84 bd 57 3d bb 94 e5 ba
       0.021524614 -0.040193494 0.05267097 -0.0017515639
000070 1d cf 02 3d dc 51 05 3c 9c 8d 26 3d 6d 6f 6b 3a
       0.0319358 0.008137193 0.040662393 0.00089811423
000080 92 64 f1 3c b6 35 6c 3d 10 d5 d3 bb 8e df f5 3b
       0.029466901 0.05766841 -0.006464608 0.0075034564
000090 48 23 c7 3c b3 2d f0 3c fb f1 2c 3d bb ea b8 bc
       0.024308816 0.029318666 0.042222958 -0.022572866
0000a0 33 db 8f ba 1a f2 bb bc e2 c7 6b 3d 21 a7 13 bc
       -0.0010975361 -0.022942591 0.05756367 -0.009012015
0000b0 3c 5b 8d 3d 02 17 f0 bb 85 bf d1 bc b9 e3 bb bc
       0.06902167 -0.0073269615 -0.025604019 -0.022935735
0000c0 d7 1d 1f 3d ac da e6 3c ac 97 13 bb 5c fe ff ba
       0.038846817 0.028180443 -0.0022520823 -0.0019530761
0000d0 28 ba 2a 3d 3d ab 01 bb 91 87 33 bd 88 80 73 bb
       0.04168144 -0.0019785904 -0.043830458 -0.0037155468
0000e0 96 62 0d 3c 83 73 02 3d 99 0d 6f 3c 78 76 a0 ba
       0.008629462 0.03184844 0.014590644 -0.0012242338
0000f0 8a b1 20 bd 75 f8 e0 bc 82 ea fe 3c d8 d3 61 3c
       -0.039231814 -0.027462224 0.031117681 0.013783418

layer1.2.running_mean f4 [64]
000000 15 a4 4d 3e 4c ef 01 3e da d9 c9 3e 23 f8 01 3b
       0.20082124 0.12688941 0.3942402 0.001983174
000010 5f f9 86 3e fe 5c 0d 3d b5 18 2b 3c f7 fa 23 3e
       0.2636213 0.034512512 0.010442902 0.16013704
000020 75 20 76 3e 3a 49 73 3d b7 e6 4b 3e ec 6d 0c 3e
       0.24035819 0.059396006 0.1991223 0.13713807
000030 1f ba 4f 3c 0b 93 30 3d 04 11 d0 3b ed 00 6d 3e
       0.012678652 0.04310898 0.0063496847 0.23144884
000040 c0 1d 83 3e d2 e2 c3 3d 02 f0 ec 3d 9a 7e a8 3b
       0.25608635 0.09564747 0.11569215 0.005142045
000050 45 ed 02 3e b3 b3 1f 3e 9f 1b c7 3c 88 45 fc 3e
       0.12785824 0.15595894 0.024305163 0.49271798
000060 d6 6e f3 3b bf 83 6d 3e 64 4d 78 3c 5f db e7 3e
       0.007428984 0.23194788 0.01515517 0.45284554
000070 d1 24 a0 3e 6a 4c 51 3e e8 e2 e9 3d 1f a8 cd 3e
       0.3127809 0.20439306 0.11420232 0.4016733
000080 1a aa b2 3c 6c e7 be 3c 46 26 59 3d 65 cf 06 3d
       0.021809626 0.02330371 0.053015016 0.03291263
000090 71 9a 15 3f ae 04 c9 39 3a 92 2f 3e 28 cc cf 3e
       0.58438784 0.00038341194 0.17145625 0.40585446
0000a0 f0 86 7c 3c 34 36 84 3e 87 0c 45 3e f0 42 60 3c
       0.015413031 0.25822604 0.1924306 0.013687834
0000b0 74 73 2d 3e dd a5 35 3c af 87 9e 3e 0b 24 90 3e
       0.16938573 0.011086908 0.30962893 0.281525
0000c0 ff 30 86 3e 8e a0 b3 3c 15 b5 79 3a 82 5a a7 3e
       0.26209256 0.021927144 0.00095255795 0.3268624
0000d0 ab df 05 3d 42 b6 90 3e 18 c7 6b 3e c4 2c aa 3d
       0.03268401 0.28264052 0.23025167 0.083093196
0000e0 64 a6 6c 3e 1c 5d 83 3d 87 9a 90 3a 57 3c 9b 3d
       0.23110348 0.064142436 0.0011032381 0.07579868
0000f0 35 c7 cd 3e 60 ac 51 3c 81 7b a3 3b 13 6a cc 3e
       0.40191045 0.012797445 0.004989088 0.39924678

layer1.2.running_var f4 [64]
000000 74 e0 b3 3c f4 be ec 3d 38 b4 49 3d ac a9 34 3a
       0.021957614 0.11559859 0.049244136 0.0006891738
000010 55 0f 00 3d ec 83 0b 3c 9b b6 58 3b a9 ac 17 3c
       0.03126462 0.008515339 0.0033067826 0.009257474
000020 46 cc b1 3b d5 48 d6 3c 8a b5 fa 3c 65 b1 a2 3d
       0.0054259626 0.026157776 0.030604143 0.079439916
000030 f3 1d 2e 3c 44 b0 65 3d 94 38 62 3b 3b 7b b7 3c
       0.010627258 0.056076303 0.0034518586 0.022397628
000040 56 ff c4 3c c6 88 9b 3d c0 73 5e 3d 41 e3 20 3b
       0.024047535 0.07594447 0.054309607 0.0024549516
000050 8d 82 73 3b e8 88 d7 3d d7 95 94 3c d5 35 fe 3d
       0.0037156672 0.1052416 0.018137855 0.124126114
000060 bc 60 87 3b cf 95 2c 3d 87 ca 9d 3b 1a 10 f8 3d
       0.0041314047 0.042135056 0.004815403 0.12112446
000070 db cf a5 3d 6e b2 15 3e e8 ec c4 3d cd 60 a2 3d
       0.08096286 0.14618847 0.09615499 0.079286195
000080 f6 f3 cf 3b b6 2d fd 3b 25 1d 07 3d c6 80 88 3c
       0.006346221 0.0077263964 0.03298678 0.016662966
000090 4e 62 69 3e 10 d5 df 38 6e 55 3e 3e 08 a3 95 3d
       0.22791407 0.000106731546 0.18587276 0.07306486
0000a0 e6 12 b9 3b 96 09 0f 3e 08 10 d9 3b 7e 47 4d 3c
       0.005648005 0.139685 0.0066242255 0.012529252
0000b0 3d 6a 1f 3c a0 50 63 3b 1d 8a 1b 3d 5e 9f 3a 3d
       0.009729919 0.0034685507 0.037973512 0.04556214
0000c0 31 40 d9 3c 6e 9c 48 3c 71 b0 8a 39 eb 39 a6 3c
       0.026519867 0.012244327 0.0002645287 0.02029129
0000d0 18 c6 b3 3b 42 ae 3f 3d f1 8c 14 3d 09 93 76 3d
       0.005486261 0.046797045 0.036267225 0.060198817
0000e0 06 eb 9d 3c 88 5f b0 3b 78 1b f9 39 0c 6a 3c 3d
       0.019277107 0.005382482 0.00047513447 0.04599957
0000f0 80 ef 27 3d 36 aa 09 3c f1 c6 b6 3a d4 d0 ba 3b
       0.04099989 0.008402398 0.0013944787 0.005701164

layer2.0.weight f4 [128, 64, 7]
000000 84 93 a5 bd 88 8e 33 bd 36 51 ff bc fa 40 54 bd
       -0.08084777 -0.0438371 -0.031166654 -0.05181978
000010 d2 ab 33 bd a0 e2 2e 3d fc b4 72 3d 42 52 85 3b
       -0.043865032 0.042696595 0.05925463 0.004068644
000020 62 39 31 bd c2 c0 63 bd 14 c3 ad bd 24 dc 12 bc
       -0.043267615 -0.05560375 -0.08484474 -0.008963618
000030 2f 02 43 bd 24 fc 63 3c fb a2 83 3c 37 5a 31 3d
       -0.047609504 0.0139150955 0.016068926 0.043298926
000040 75 61 48 3c 13 4e a7 3b e4 ff 78 bc fe cd 8b bb
       0.012230267 0.0051057427 -0.015197728 -0.0042664995
000050 1b 02 dd 3b 9e 49 29 bd bc 3d c6 bd be a3 a4 bd
       0.0067446358 -0.041329972 -0.09679744 -0.08039044
000060 fa 76 d6 bb dc 78 2c 3c 5f e9 b5 bc dc d4 4f bc
       -0.006544945 0.010526862 -0.022206007 -0.012685027
000070 b1 14 05 bd 42 9b 8a bd fd a9 10 bd 59 aa e9 bc
       -0.032490436 -0.06767894 -0.035318363 -0.02852361
000080 61 f6 43 bc 78 e4 28 3d 62 60 04 bb 67 97 b0 bb
       -0.011960597 0.04123351 -0.002019905 -0.0053891423
000090 11 9b c7 bc a5 12 43 bd d6 95 1f bc 71 b0 0f bd
       -0.024365934 -0.047625203 -0.0097403135 -0.035080377
0000a0 3f e7 8d bc 72 90 70 bc 06 94 ad bd d4 11 cc bc
       -0.01732218 -0.014682876 -0.08475499 -0.024910845
0000b0 c2 de 38 bd a7 2b 96 bc a9 8f 21 bd 8f 35 66 3d
       -0.045134313 -0.018331362 -0.039443646 0.05620342
0000c0 03 d4 19 bc a9 cb c3 3b 9f 39 2b bd 96 3f 21 bd
       -0.009388926 0.005975206 -0.041803 -0.03936728
0000d0 65 4b 9b 3d 87 cd 24 bd 66 cc aa bc 89 80 6c bd
       0.0758274 -0.04023507 -0.020849418 -0.05773977
0000e0 dd 0e 60 bd c6 e6 be bb 32 9b c6 3b 35 c8 19 bc
       -0.054701675 -0.00582585 0.006060981 -0.009386112
0000f0 63 fd 43 bd fa de 2d 3b 10 5f 54 3d 8a e5 de bc
       -0.04784907 0.002653061 0.05184847 -0.027209062
000100 5f 0d b7 bc 28 bc 42 bd 41 cd c3 bc 6f 9e 46 3a
       -0.022345243 -0.04754272 -0.023901584 0.0007576709
000110 2f a6 54 3d a8 96 34 bd 35 b5 b8 bb f3 d8 f3 3c
       0.051916298 -0.04408899 -0.005636836 0.029766535
000120 c7 c7 4a 3d 5a 4c ca 3b 81 f1 b8 3d e8 e1 30 bd
       0.04950693 0.0061736526 0.09030438 -0.04318419
000130 8f 97 a1 bd 13 72 bd bc e2 aa f9 3b b6 64 5e bd
       -0.07890236 -0.023125684 0.007619248 -0.054295264
000140 2d 01 38 bd c3 0c ab bc e5 1e 09 3d 13 7a 67 3d
       -0.044922996 -0.020880109 0.03347673 0.056512903
000150 9e f2 ad 3b 5b 53 21 bd 3a 52 53 bd 09 a3 c1 bb
       0.0053084632 -0.039386135 -0.05159209 -0.005909328
000160 13 bd 66 bc 24 2c eb 3c 3c 6e 2a 3d 46 28 12 bc
       -0.014083165 0.028707571 0.041609034 -0.008920735
000170 fd 3f 19 3a c6 d8 5c bd 1c ca 9f ba 01 58 c7 3c
       0.0005846022 -0.05391767 -0.0012190971 0.024333956
000180 7a 6b 6d bd a5 73 b7 bc d8 ed 3a bc 1b f4 a8 bd
       -0.057963826 -0.02239401 -0.011409245 -0.082496844
000190 db c0 c5 bd 3e 12 69 bd 79 d9 00 bd 3c 05 d8 39
       -0.09655925 -0.056902163 -0.031457398 0.0004120263
0001a0 b4 46 49 bd 1c 15 c6 bb f0 55 b8 ba 7b c2 9d 3c
       -0.049139693 -0.006044997 -0.0014063697 0.019257775
0001b0 40 e0 66 3d 1a 05 71 3c 74 4e 0e bd f3 66 a9 bc
       0.056366205 0.014710689 -0.034742787 -0.020678973
0001c0 95 54 2a 3d ce f9 a7 3c d6 b9 5a 3c 9f 90 4b 3d
       0.04158457 0.020504858 0.013349971 0.04969847
0001d0 0c f9 a2 3d 71 68 47 bc 0a 20 71 bd 8e 51 81 bd
       0.07957658 -0.012170897 -0.058868445 -0.063143834
0001e0 fb 1a 40 bd 6c b1 96 bc 52 04 a2 bb 5c 94 9b bc
       -0.04690073 -0.018395148 -0.0049443627 -0.018991642
0001f0 50 01 1d bc 3f f4 aa 3c d6 6f 79 bd 98 52 7e bd
       -0.009582832 0.020868419 -0.06089767 -0.062090486
000200 97 6b 0d bd 9e 04 78 3c 0a 7e c2 ba 58 88 33 3c
       -0.034526434 0.01513782 -0.0014838588 0.0109578
000210 a4 04 15 3d 25 81 d3 bc d3 f7 18 bd 31 ef 1e 3c
       0.03638138 -0.025818417 -0.03734572 0.009700582
000220 06 8e 7f bc a7 25 c7 bc 8d ae 84 3d 3b dc 18 bd
       -0.015597826 -0.024309946 0.064786054 -0.037319403
000230 49 8f 21 bd 50 9a 81 bd ed b1 40 bd fb e4 2b 3d
       -0.039443288 -0.06328261 -0.047044683 0.04196642
000240 2e 73 80 bd 99 b3 28 bb 85 06 5f bd fd 07 d6 bc
       -0.06271969 -0.0025741814 -0.054449577 -0.026126856
000250 2a 8f 91 bd b9 46 00 bd f6 54 9c bc 3f 60 5e 3c
       -0.071073845 -0.031317446 -0.019083481 0.013572752
000260 7b 12 b2 bc d5 a2 27 3b b7 15 83 3c c1 69 a0 bd
       -0.021737328 0.0025579233 0.016001565 -0.07832671
000270 a5 88 9c bb fa 61 bb bb bd 48 7e 3b f6 17 0f bd
       -0.0047770315 -0.005718467 0.003880068 -0.03493496
000280 90 56 91 bc dc 1c d9 bc 23 75 10 3c 4c 3e 49 3b
       -0.017741472 -0.026503019 0.00881699 0.0030707298
000290 d2 ed 91 bc 16 fc 98 bc bb 77 8d bd 87 73 07 3c
       -0.017813597 -0.018674891 -0.069076024 0.00826729
0002a0 0d 56 ae 3c 0d 58 36 3d 04 a8 1e bc 42 ea 2c 3d
       0.021281267 0.044517566 -0.009683613 0.042215593
0002b0 cb 88 8a 3d a4 4b 51 bb 31 44 14 3b 8f 1a fa bc
       0.067643724 -0.0031935954 0.0022623653 -0.030530242
0002c0 38 66 81 3d 2a 36 03 bd 1c b9 da 3c 2b 8c 53 3c
       0.06318325 -0.032034077 0.026699595 0.012911837
0002d0 38 4b 17 bd 45 91 2d bd e7 b3 43 bc cd 9a bf bd
       -0.03693697 -0.042374868 -0.0119447475 -0.09355698
0002e0 96 71 8d bc 2c 18 14 bd ec 71 d9 bd bd ce aa bd
       -0.017266076 -0.036155865 -0.10617432 -0.083402134
0002f0 f6 91 90 bc 20 36 5a bc 74 8e 91 bc 72 bd 37 bd
       -0.017647725 -0.0133185685 -0.017768122 -0.044858404
000300 eb b9 e1 bc c3 46 81 bd 5e 69 41 bc 6f 1e a3 3b
       -0.027554473 -0.06312325 -0.011804907 0.004977993
000310 9a f5 89 bc 5f c0 93 bb 37 87 85 bd ea 55 92 bd
       -0.016840745 -0.0045090164 -0.06519931 -0.07145293
000320 cc 25 d9 bc 53 ee 66 bc 6a 18 a2 3c 80 fe 24 bd
       -0.02650728 -0.014094907 0.019787032 -0.040281773
000330 73 7c bb bc db b9 fe bb 82 7c 72 bd 14 2c 98 bc
       -0.02288649 -0.0077736205 -0.05920077 -0.018575706
000340 04 34 8d 3d b7 a9 4c 3d a0 63 e5 ba d2 d9 77 bd
       0.06894687 0.04996654 -0.0017501004 -0.060510464
000350 c5 86 09 bd a6 1a 96 bc e3 48 4d bd 53 61 7f bd
       -0.033575792 -0.018323254 -0.05011834 -0.062348675
000360 df 46 0e bc d2 67 4b 3c fd 18 1d bd 81 22 8f 3c
       -0.008683889 0.012414889 -0.03835391 0.017472507
000370 7d bd 4d bd fd 4e 8e bd b6 90 8b bd ff ed 35 bd
       -0.05022954 -0.069486596 -0.06814711 -0.044416424
000380 e6 cd d5 bd 0e c0 59 bd 30 b1 71 bd 61 7c 83 3c
       -0.10439663 -0.053161673 -0.05900687 0.01605052
000390 5a 78 c8 3c bb 58 90 3d ce 80 a1 bb 1f 7d 85 bd
       0.02447145 0.07048174 -0.004928685 -0.065180056
0003a0 2b 50 9a bd 0b 42 67 bd 54 74 16 bd 7d 83 cf bc
       -0.07534822 -0.056459468 -0.036732033 -0.025331253
0003b0 5c c0 a6 3d 0c 46 4e 3d 4c 9e 65 bb 59 94 87 bd
       0.081421584 0.05035977 -0.003503698 -0.06620092
0003c0 79 4d e1 bb 00 ea a3 3c 86 f0 ca bc df d5 6a 3a
       -0.0068756905 0.02000904 -0.024772894 0.0008958261
0003d0 ce 72 51 3d 75 2c af bd 19 1f 09 bd 28 c3 c3 bc
       0.051134877 -0.085534014 -0.033476923 -0.023896769
0003e0 7e 3e 2b bd ca d6 fd 3c df 8c f6 bc 80 4f 63 3d
       -0.041807644 0.030986208 -0.03009647 0.05549574
0003f0 96 d5 24 bd 9b ba 39 bc 20 3c 29 bd 2a a6 96 bd
       -0.040242754 -0.011335994 -0.041317105 -0.07355912

layer2.0.bias f4 [128]
000000 a4 e2 19 bd ee cf 64 3c 09 4d c1 3c 52 f0 04 bd
       -0.037569657 0.01396559 0.023596304 -0.03245575
000010 a3 40 51 bd 06 21 5d 3c 70 50 39 bc ba 3b ed bb
       -0.051087033 0.013496643 -0.011310682 -0.007239786
000020 57 8c c4 3c d5 d5 22 bd b4 74 40 3c 49 5b 47 3c
       0.0239927 -0.039754707 0.011746574 0.01216776
000030 4a 48 4c bd 5a eb 61 3c 63 17 b8 bb c8 1a dd 3c
       -0.049873628 0.013789022 -0.0056180223 0.02699031
000040 75 6c 29 be a5 f9 be bc 73 7f ec 3c 11 48 a4 bd
       -0.1654528 -0.0233124 0.028869366 -0.08021558
000050 85 5c ab bd 96 8a a9 bc 7a fa 12 bc 80 a1 0e 3c
       -0.08367256 -0.020695966 -0.008970851 0.008705497
000060 69 8e 16 bd df 89 32 3d 1b 05 18 bd ab 3d eb bc
       -0.036756907 0.043588515 -0.037114244 -0.028715929
000070 4c 85 bb 3d c6 d2 80 bd 33 24 3f bd 76 f2 9b bc
       0.09156284 -0.06290202 -0.04666538 -0.019036513
000080 11 65 a6 bb c2 bb 8c 3d 1f 67 e3 3c 00 60 b3 3b
       -0.005077966 0.068717495 0.027759133 0.0054740906
000090 9e 03 e0 bc 43 ac 7a 3d 29 f9 3c bc 5b c5 ac 3c
       -0.027345475 0.061199438 -0.011534014 0.0210902
0000a0 5a 37 54 bd b1 05 0a bd 25 01 81 bd c3 60 8b bd
       -0.0518106 -0.033696834 -0.062990464 -0.06805565
0000b0 91 67 ba 3c 14 7f 46 3c 3b 0f 0a 3d 5a 9f 84 bd
       0.022754462 0.012115259 0.03370593 -0.064757064
0000c0 f8 fd 05 bd d9 4a 96 3d df 49 68 3c 6d fa 8a 3d
       -0.032712907 0.07338495 0.0141777685 0.06786046
0000d0 65 ea 90 bc 9c 60 80 3d 18 cb cd bc 7a d0 34 3d
       -0.017689893 0.06268427 -0.025121257 0.04414413
0000e0 df 90 fd 3b a6 a6 83 bb 83 ae 2c bd 60 b2 8e bd
       0.0077382172 -0.004017669 -0.042158615 -0.06967616
0000f0 4d 1d 0b be 0a 87 04 3d 00 2f ab 3d 7e 52 cc 3b
       -0.13585396 0.032355346 0.08358574 0.00623542
000100 aa a5 86 bd 5f b4 a2 bd 0d 13 28 3d 83 e0 9c bd
       -0.06574567 -0.07944559 0.041033793 -0.0766001
000110 29 bb 87 bd c2 8f e7 3b 3f 07 6f bc 66 45 47 bd
       -0.06627495 0.007066698 -0.01458913 -0.048650168
000120 08 10 2c 3d 3b b2 98 3d 93 34 f6 bd 35 6a 84 3d
       0.042007476 0.0745587 -0.120217465 0.0646557
000130 4c 03 f6 3a 7b 20 01 bd 65 b3 84 bd 0a 22 b7 3b
       0.0018769293 -0.031525116 -0.06479529 0.0055887746
000140 68 f9 69 3d ae ad c7 3d 44 86 25 3d 57 a2 68 bd
       0.057122618 0.09749924 0.04041125 -0.056795444
000150 4a 74 3e bd ca e2 9d 3b 83 9f 4f bd 1d e2 ce 3c
       -0.04649762 0.004818295 -0.05068923 0.025254304
000160 c6 22 c6 bc 20 e7 83 3d 89 4a cc bc 85 9a 52 3d
       -0.024186503 0.06440568 -0.024937885 0.051416893
000170 75 e1 2b 3d 2c 9e c4 bc 53 98 a7 bc 0a 09 d2 3b
       0.04196306 -0.024001203 -0.020458376 0.006409769
000180 dc cf 68 bd 83 09 1a bd 92 3d c9 bd 18 45 9f bc
       -0.056838855 -0.037606727 -0.09826197 -0.019442126
000190 35 5b b8 bc 29 f6 a3 bd 2f 98 71 3b a6 f5 a6 bd
       -0.022504428 -0.08005936 0.003686439 -0.081523225
0001a0 6a a9 ea 3c fe 7d 15 3c 1d a9 10 bd ea 0a f2 3c
       0.028645236 0.009124277 -0.03531753 0.02954622
0001b0 be 4a dc 3c 89 33 91 3c a8 3b bd bc 97 35 df 3c
       0.026891109 0.01772477 -0.023099735 0.027247233
0001c0 e3 ed 1b bd 17 e6 13 3d 2c 09 ae bd 5e d9 77 bd
       -0.038068663 0.036108103 -0.08497843 -0.060510032
0001d0 6b 26 3b bd fb 07 84 bd 3a c7 e5 bc 5b b7 b7 3c
       -0.045690935 -0.06446835 -0.0280491 0.022426298
0001e0 04 de 63 bd 7a 56 ad 3d 0e b1 36 3c 67 a3 99 bd
       -0.055631652 0.0846376 0.011150612 -0.0750187
0001f0 74 6e 75 bc 04 cf 56 bc 33 dd 2c bd 24 93 9f bc
       -0.014979947 -0.01311088 -0.04220314 -0.019479342

layer2.2.weight f4 [128]
000000 60 15 87 3f 9e f4 80 3f 72 57 81 3f 76 d1 7a 3f
       1.0553398 1.0074651 1.0104811 0.9797586
000010 80 1f 6f 3f 47 f5 70 3f 97 6e 7d 3f 60 e5 81 3f
       0.9340744 0.94124264 0.9899687 1.0148125
000020 79 1c 85 3f 15 f0 6c 3f 9c 7b 83 3f 62 70 79 3f
       1.0399314 0.92553836 1.0272098 0.9743711
000030 f2 24 84 3f 1c a3 82 3f 61 91 6d 3f 78 34 80 3f
       1.0323775 1.0206027 0.92799956 1.0016012
000040 96 8f 84 3f 77 3e 7f 3f 41 28 86 3f 48 fb 78 3f
       1.0356319 0.9970469 1.0481035 0.97258425
000050 aa 41 77 3f c8 1d 7a 3f 72 5d 83 3f 11 d5 86 3f
       0.9658457 0.9770169 1.0262892 1.0533773
000060 40 15 81 3f 81 a2 8c 3f 39 da 80 3f f4 3a 7a 3f
       1.008461 1.0987092 1.0066596 0.97746205
000070 d5 98 82 3f 40 eb 84 3f 51 ed 7c 3f 66 41 81 3f
       1.0202891 1.0384293 0.98799616 1.0098083
000080 9c 0e 65 3f 67 b8 7a 3f 5f f1 81 3f 62 86 6e 3f
       0.8947542 0.97937626 1.0151786 0.931738
000090 ed 75 77 3f 57 7a 81 3f 38 40 87 3f 67 97 86 3f
       0.96664315 1.011546 1.0566473 1.0514954
0000a0 e9 43 80 3f 45 96 86 3f f6 17 7a 3f 4b f4 79 3f
       1.0020725 1.0514609 0.9769281 0.97638386
0000b0 af 4f 80 3f cd 1a 85 3f 8d 61 79 3f ab b3 77 3f
       1.0024318 1.0398804 0.97414476 0.96758527
0000c0 8e bc 80 3f af 79 80 3f 0f ef 82 3f 32 3e 83 3f
       1.0057542 1.0037135 1.0229205 1.0253356
0000d0 b9 7f 76 3f 46 34 7a 3f 63 2a 70 3f 39 e0 88 3f
       0.9628864 0.9773601 0.93814677 1.0693427
0000e0 6e 1e 86 3f 98 8a 82 3f 7f 3c 77 3f 6a 5d 7a 3f
       1.0478036 1.0198545 0.96576685 0.9779879
0000f0 39 54 86 3f 6d 9a 82 3f 32 e7 80 3f 14 8d 78 3f
       1.0494453 1.0203377 1.0070555 0.9709027
000100 d5 95 79 3f f2 e3 77 3f d9 fd 82 3f a1 fa 81 3f
       0.9749425 0.9683219 1.0233718 1.0154611
000110 bc 57 87 3f 9a 19 70 3f c8 97 72 3f 9f 11 82 3f
       1.057365 0.93789065 0.9476285 1.0161628
000120 26 1a 85 3f 42 10 88 3f 94 09 6b 3f 4b de 74 3f
       1.0398605 1.0629961 0.9181149 0.9565169
000130 11 02 80 3f 63 e9 71 3f d8 b2 81 3f f0 fc 81 3f
       1.0000631 0.94496745 1.0132704 1.0155315
000140 03 44 7e 3f 72 27 86 3f f3 05 81 3f 88 a0 73 3f
       0.9932253 1.0480788 1.007994 0.95166826
000150 32 ba 7d 3f 26 56 85 3f 3e 08 71 3f 23 ab 7f 3f
       0.99112236 1.0416915 0.941532 0.9987051
000160 e2 54 7a 3f c1 c7 85 3f ca 5f 84 3f 93 df 77 3f
       0.9778577 1.0451585 1.0341733 0.9682552
000170 79 63 80 3f 2c 68 82 3f 85 f8 6e 3f 83 2e 7f 3f
       1.0030357 1.0188041 0.9334796 0.99680346
000180 c8 53 80 3f 8e c7 7c 3f 54 5c 8b 3f f7 6a 7c 3f
       1.0025568 0.98741996 1.0887551 0.98600715
000190 d5 9b 6b 3f 2e 90 7a 3f 5a 11 82 3f 97 17 7b 3f
       0.92034656 0.9787625 1.0161545 0.9808287
0001a0 98 18 79 3f a4 a8 7c 3f 0c 56 73 3f e1 8e 71 3f
       0.9730315 0.98694825 0.9505317 0.9435864
0001b0 61 40 8b 3f fb 2f 77 3f fc 22 84 3f 20 d5 84 3f
       1.0879022 0.9655759 1.0323176 1.037754
0001c0 27 4c 75 3f 56 69 7e 3f f1 4e 85 3f 4b d3 78 3f
       0.95819324 0.9937948 1.0414716 0.9719741
0001d0 db 0c 90 3f 8b 18 7e 3f 28 b9 73 3f 88 ab 7f 3f
       1.1253923 0.992562 0.952044 0.9987111
0001e0 1d f5 74 3f ce 83 7d 3f 01 81 7a 3f 90 8a 7f 3f
       0.95686513 0.99029243 0.97853094 0.99820805
0001f0 2a 93 74 3f 82 e0 76 3f 92 bd 6a 3f 5d 17 82 3f
       0.95537055 0.9643632 0.9169551 1.016338

layer2.2.bias f4 [128]
000000 c5 37 d4 3b 6e 5c 18 3d 77 f3 14 3b 50 5e 8d 3c
       0.006476375 0.037197523 0.0022728124 0.017256886
000010 ff 2e f3 3d 35 2b 16 3e 3f 34 23 bd c3 99 d1 3c
       0.11874198 0.1466492 -0.039844748 0.025586015
000020 4c 25 fa 3d 7e 0d b9 3c 77 f0 41 3d 9d 80 09 3e
       0.12214145 0.022589441 0.047348466 0.13427968
000030 0d 67 b9 3d 7c 33 e4 3d d0 f3 8f 3d e6 5c 34 3d
       0.090528585 0.11142632 0.070289254 0.044033907
000040 31 2a 92 3d df 40 4c 3d 83 bb 40 3c 6a 85 48 3d
       0.071369536 0.049866553 0.011763456 0.04895536
000050 cd 9b 9c bc 4f a5 c2 3c 7e 0a ad 3d 93 89 f3 3c
       -0.01911726 0.023760466 0.08449267 0.029728686
000060 3e 7b 8a 3d 2c 8a 5e 3d 75 ec bd 3d 5d dd 20 3e
       0.06761788 0.05433099 0.09273616 0.15709443
000070 df 13 d0 3d 69 7b ad 3d 29 69 09 3e b1 bb 84 3d
       0.1016004 0.08470804 0.13419022 0.06481112
000080 89 eb a7 3d 6e 2e 77 3d da 92 75 3d c2 42 7f 3d
       0.08199222 0.060347013 0.0599545 0.062319525
000090 fd 3d 2d bd 52 f6 93 3b 93 c2 a3 3d e7 80 08 3e
       -0.042295445 0.0045154477 0.079960965 0.13330422
0000a0 32 6a 9f bb a1 fe 72 3b a8 d9 e9 3c ac d8 47 bd
       -0.0048649544 0.003707804 0.02854617 -0.04879062
0000b0 da 36 fc ba ed ff 22 bd 57 5c 08 bd 34 5d d4 3d
       -0.0019242421 -0.03979485 -0.033291187 0.103693396
0000c0 54 13 75 3d 15 67 99 3d ce 41 fc 3c 22 cb a9 3d
       0.059832886 0.074903645 0.030793097 0.08290698
0000d0 eb 7a 74 3c 81 23 1e 3c e0 df 60 3d 00 ef 24 bc
       0.014921884 0.0096520195 0.054901004 -0.010066748
0000e0 6f ba c3 3d 49 6f 4f 3d 1d 7b e0 3d 08 b8 cc 3d
       0.09557044 0.05064324 0.10960982 0.09996039
0000f0 8b df e6 3d 4b 46 e4 3d c2 b1 45 3d 9e bd 91 3c
       0.11273106 0.1114622 0.048265226 0.017790612
000100 9a 7f 12 3e 29 b1 9e 3d fc cb 5f 3c 17 1c b8 3d
       0.14306489 0.07748634 0.0136594735 0.08989733
000110 ae e7 85 3d 30 0b 9c 3d 86 fc c7 3c 5a 2f d6 3d
       0.0653833 0.07619321 0.024412405 0.1045825
000120 cb 6a 8b bb 4f cd 7e 3d e8 c9 97 3d dd fe cc 3d
       -0.004254674 0.062207516 0.074115574 0.10009549
000130 53 7a 27 3c 1a 41 90 3c fd b8 1b bd a6 98 4c 3d
       0.010222035 0.017609168 -0.038018215 0.049950264
000140 7a 0c c8 3d 0a 48 42 3d a8 c7 19 bb a2 58 05 3e
       0.09768005 0.047431983 -0.0023464952 0.13022092
000150 e1 63 d4 3d 94 46 a9 3d c7 81 56 3d 1d d7 a3 3d
       0.10370613 0.08265415 0.05236986 0.08000014
000160 8c b0 9d 3c 0f ab c3 3d 75 d1 32 3d fc 6b b1 3d
       0.019249223 0.09554111 0.043656785 0.086631745
000170 61 d2 9d 3d 2c f5 a6 3d 7a cb fe 3c 71 0b 57 3d
       0.07706142 0.081522316 0.031102885 0.052501146
000180 b8 eb 93 bb a6 91 71 3d 5a 63 1d 3e 58 68 82 bd
       -0.004514184 0.05897679 0.15369931 -0.06367558
000190 6d a2 01 bd 06 e7 e7 bb 35 95 96 bb 16 cf d6 3d
       -0.031649042 -0.0070771007 -0.0045954236 0.10488717
0001a0 53 bc bf 3d 66 8a 04 3e f4 d0 4c 3d 9b 9f 72 3c
       0.09362092 0.1294342 0.05000396 0.014808561
0001b0 03 b5 d9 3d a3 da d7 3d 55 09 0f bd 08 60 fc bc
       0.10630228 0.105397485 -0.03492101 -0.03080751
0001c0 40 b7 01 3d a3 9e b6 3c 14 be b4 3d 79 56 25 3d
       0.0316689 0.02229244 0.08825317 0.04036567
0001d0 66 45 a5 bd 5a 3b 4b 3d 34 2c 01 3e 7f 44 8d 3d
       -0.08069877 0.04961715 0.12614518 0.0689783
0001e0 81 64 1b bc b3 be 5e 3d 82 01 77 3d a7 60 aa 3d
       -0.009484411 0.054381084 0.060304172 0.08319216
0001f0 36 f5 aa 3c 2c d9 ae 3d 85 cb d7 3b 5a 39 38 3d
       0.020868879 0.08537516 0.0065855407 0.04497657

layer2.2.running_mean f4 [128]
000000 e2 74 34 3f 51 66 ea 3e 34 59 2f 3f bd 1e 48 3f
       0.7049085 0.45781186 0.6849549 0.781719
000010 0b 87 f1 3e 71 6b 69 3f 50 76 2a 3f 10 8c 8c 3f
       0.47173342 0.9117957 0.6658678 1.0980244
000020 a5 e1 4b 3f ec 83 7a 3f 19 38 1d 3f ea e9 23 3f
       0.7964118 0.97857547 0.61413723 0.640288
000030 0b 56 14 3f 28 c1 51 3f 2c 86 e3 3e 2d 2e 06 3f
       0.5794379 0.8193536 0.44438303 0.5241421
000040 42 de 16 3f 61 97 01 3f 04 19 44 3f 28 5e 1b 3f
       0.5893289 0.5062161 0.7660067 0.60690546
000050 ff 01 3f 3f 71 d7 7a 3f f5 3b 6b 3f 84 c7 52 3f
       0.7461242 0.9798499 0.9188836 0.82335687
000060 cc 63 5a 3f 7f 0d 61 3f 76 e6 12 3f 2a fc 5f 3f
       0.8530853 0.8791122 0.57382905 0.87494147
000070 32 7e 15 3f 06 9f 1a 3f dc 5e 57 3f 48 cf f5 3e
       0.58395684 0.603989 0.8412912 0.48009706
000080 69 97 05 3f 03 f6 59 3f 29 67 9a 3f 1f 70 f1 3e
       0.5218416 0.8514101 1.2062732 0.47155854
000090 79 49 6f 3f bd 64 6e 3f 41 d4 23 3f 8f 9b 64 3f
       0.93471485 0.93122464 0.6399575 0.89299864
0000a0 53 f3 57 3f ca a4 3c 3f 6a 04 37 3f 5d 9b 45 3f
       0.8435566 0.7368895 0.7149111 0.7719019
0000b0 1f b1 5e 3f 31 e4 04 3f 83 9a 4f 3f d8 c2 aa 3e
       0.86989015 0.5191069 0.8109514 0.3335178
0000c0 46 dc 14 3f f5 7b 59 3f ea 1b 60 3f ea 6c 2e 3f
       0.5814861 0.8495477 0.87542593 0.6813494
0000d0 1a fa 21 3f 7b 01 53 3f 84 8c 3b 3f a8 c2 67 3f
       0.6327225 0.82424134 0.73261285 0.90531397
0000e0 96 49 26 3f 6e 50 2a 3f 98 77 11 3f 36 f5 17 3f
       0.64956033 0.66528976 0.5682311 0.5935854
0000f0 0b b4 9a 3e 50 f3 44 3f 88 08 38 3f 30 bc 01 3f
       0.30215487 0.76933765 0.7188802 0.50677776
000100 bc db 44 3f 1a 95 da 3e 09 86 39 3f ec 0f 02 3f
       0.7689779 0.4269188 0.72470146 0.50805545
000110 e4 b1 26 3f 09 27 2f 3f 19 f9 90 3f 50 5e 22 3f
       0.6511519 0.6841894 1.1326019 0.6342516
000120 50 3b 03 3f 96 b2 78 3f 2c 6a 05 3f 41 ab 6f 3f
       0.5126238 0.971475 0.5211513 0.9362069
000130 7f 74 70 3f 40 02 2d 3f c5 b8 16 3f 40 37 75 3f
       0.9392776 0.6758156 0.58875686 0.9578743
000140 01 4a 33 3f a2 38 83 3f 59 e6 4f 3f ec a4 55 3f
       0.70034796 1.0251658 0.8121086 0.83454776
000150 4e e7 3c 3f ff 38 5c 3f 4c bc f7 3e aa ef 7a 3f
       0.7379044 0.8602447 0.48385847 0.9802195
000160 97 db 2b 3f 44 1a 93 3f bb fa 19 3f ee 23 4e 3f
       0.6713194 1.1492391 0.6014821 0.80523574
000170 d3 14 03 3f a1 d7 31 3f 3c 12 38 3f 37 0e 4d 3f
       0.5120365 0.6946965 0.71902823 0.80099815
000180 1a 42 36 3f 91 f0 3a 3f 3e b0 10 3f 46 01 2b 3f
       0.7119461 0.73023325 0.56518924 0.6679882
000190 c5 7c 34 3f 81 0e 82 3f 43 09 f0 3e c1 c9 4c 3f
       0.70502883 1.0160676 0.46882066 0.7999535
0001a0 71 5f 2a 3f 54 44 e9 3e f1 5b 13 3f 94 89 5d 3f
       0.6655188 0.45559943 0.57562166 0.8653805
0001b0 7e 94 44 3f 5c ca 33 3f a1 bf 3d 3f 46 39 3c 3f
       0.7678908 0.7023065 0.7412053 0.7352489
0001c0 7e 2c 5b 3f 50 b0 50 3f 5c 3e 15 3f 44 66 22 3f
       0.85614765 0.8151903 0.5829828 0.63437295
0001d0 89 3d 7d 3f 49 ed e7 3e 81 9a 4f 3f 94 1f 8f 3f
       0.9892202 0.45298222 0.8109513 1.1181512
0001e0 21 02 6e 3f f4 20 13 3f a9 be 53 3f d9 d8 38 3f
       0.92972 0.5747216 0.827128 0.72205883
0001f0 08 9e 38 3f 96 4b dc 3e a6 bf 1b 3f ac 04 70 3f
       0.72116137 0.43026417 0.6083931 0.9375713

layer2.2.running_var f4 [128]
000000 03 e2 35 3f 25 1d 5e 3f 02 18 07 40 06 39 60 40
       0.7104799 0.8676322 2.1108403 3.5034804
000010 bf ec 32 40 8d be a2 3f 65 c9 f9 3f ed d4 4e 3f
       2.7956998 1.2714401 1.9514586 0.8079365
000020 be a0 1a 40 39 c8 de 40 2a 6c bc 3f 55 5e 74 40
       2.416061 6.9619412 1.4720509 3.8182576
000030 80 92 95 3f 2e 40 3c 40 b8 aa 9a 3f 2c 09 bb 3f
       1.1685333 2.9414172 1.2083349 1.4612174
000040 d3 bf 9f 40 c8 80 8d 3f 19 5f 3e 3f 1f 1a 76 40
       4.992166 1.1054926 0.7436386 3.8453443
000050 ef a1 dc 40 8c a8 6a 41 70 c7 11 40 db 8a 6e 3f
       6.8947673 14.666149 2.2777977 0.93180627
000060 4d f6 93 40 a7 34 9c 3f 4f 37 11 40 d8 cd 1e 3f
       4.623816 1.2203568 2.2690008 0.6203284
000070 ba 1a 71 3f 13 74 06 40 e3 02 9d 40 a7 17 1b 40
       0.94181406 2.1008346 4.9066024 2.4233186
000080 43 ba 8e 40 f1 19 b4 3f 1e cd 82 3f a3 78 2b 40
       4.460237 1.4070417 1.0218847 2.679238
000090 66 e4 1a 41 e5 12 3d 40 43 60 2b 3f 50 3e 01 40
       9.680761 2.9542782 0.6694376 2.0194283
0000a0 14 f8 a8 3f 28 96 c0 3f 11 e3 aa 40 73 c5 98 40
       1.3200707 1.5045824 5.340218 4.7741027
0000b0 ea d1 37 3f 03 55 04 3f 0c 6c a6 3f 51 6c ed 3f
       0.7180468 0.5169222 1.3001723 1.854868
0000c0 cd 56 7f 40 cf 7c 25 3f 17 84 03 3f 57 85 94 3f
       3.989673 0.6464357 0.5137343 1.1603192
0000d0 59 50 ff 40 ad d4 37 40 d7 90 80 40 b7 e4 98 3f
       7.978558 2.8723557 4.0176806 1.1944798
0000e0 fc 41 cc 3f 02 e7 01 40 59 8f c0 3f 46 32 c9 3f
       1.5957637 2.0297246 1.5043746 1.5718467
0000f0 4c 89 e5 3f fb b9 42 40 28 38 e1 3f 09 b9 85 40
       1.7932525 3.0426013 1.7595263 4.1788373
000100 18 e2 fb 3f 9b bc a9 3f d6 51 0c 40 22 d2 30 40
       1.9678373 1.3260683 2.1924949 2.7628255
000110 54 94 01 3f 11 e8 d0 3f 3d 3c d7 40 0a a1 77 40
       0.50616956 1.6320821 6.7261033 3.869204
000120 50 51 7e 3f 86 e5 2a 40 88 e5 b0 40 11 f2 f4 3f
       0.99342823 2.670259 5.528019 1.9136373
000130 13 84 84 3f f5 08 31 40 25 b4 de 3e db 96 38 3f
       1.0352806 2.7661717 0.43496814 0.7210519
000140 86 c0 c6 3f fc 06 44 3f 54 ae 05 40 ec f4 84 40
       1.5527503 0.7657316 2.0887651 4.1548977
000150 71 16 10 40 fa 25 81 40 ac 70 fb 3f 5d 9f 64 40
       2.2513697 4.035886 1.964376 3.5722268
000160 34 ec 80 40 f9 96 1a 40 86 ee 04 3f f3 2f 2d 40
       4.0288334 2.4154646 0.5192646 2.7060516
000170 16 a6 fc 3f 2b 41 ab 3f 4a ab a2 40 84 c7 b2 40
       1.9738185 1.3379263 5.0834093 5.586855
000180 57 fb 3f 40 3a 85 9a 40 45 3e 9c 3f a7 1a 55 40
       2.9997156 4.828763 1.2206503 3.3297517
000190 9f c4 b3 40 b7 6d 75 3f 3d bd e2 3f 8a 6d ca 40
       5.6177516 0.95870537 1.7714001 6.3258715
0001a0 4a fb 03 40 65 40 91 3f 9e 90 57 40 86 80 c1 3f
       2.0622125 1.1347777 3.3682017 1.5117347
0001b0 28 cb 29 40 fa 5b a9 40 a2 07 3b 3f fc 3f d1 3f
       2.6530247 5.2924776 0.7305852 1.6347651
0001c0 f6 c6 0c 3f d6 43 00 40 3b c5 7d 40 b2 ab 81 40
       0.5499109 2.0041404 3.965163 4.052209
0001d0 bb d5 b2 3f 5b 0b 0b 40 b0 8c a9 40 c2 07 65 40
       1.3971475 2.172568 5.298424 3.5785985
0001e0 56 da 07 41 b2 60 e9 3f 7c b9 8c 40 f9 87 dc 40
       8.490805 1.8232634 4.397642 6.891598
0001f0 ed 9b 0a 41 e7 f1 b3 3f e6 b0 51 40 a8 cb 35 40
       8.663068 1.4058198 3.276422 2.8405552

layer3.0.weight f4 [64, 128, 7]
000000 e3 10 52 3d 51 78 d6 3c f3 10 3c bd 65 00 24 bd
       0.051285636 0.026180418 -0.0459146 -0.04003944
000010 a4 33 12 bd 9b 10 a7 bd 75 c7 b2 bc d3 e9 b2 3c
       -0.03569378 -0.08157464 -0.021823624 0.021840012
000020 69 71 4a bb 5f ca 99 3d c8 81 81 3d 1a 6b 88 bc
       -0.0030890352 0.07509302 0.06323582 -0.016652633
000030 bc 1b 55 3b 00 6d e2 bc d9 89 4c bc 38 4e 22 3d
       0.0032517752 -0.027639866 -0.012484037 0.039625376
000040 26 e9 b5 3c 7c 25 8e bc fd 1a 02 bd 9d ec 2e bd
       0.0222059 -0.017351858 -0.03176402 -0.04270612
000050 ed e5 8c bc 28 42 3b 3d 96 e8 20 bc 51 ed 02 bd
       -0.01719948 0.04571739 -0.009821078 -0.031964604
000060 b2 7d a2 bc bb 86 0d bd da 9d 44 bd bd bd d2 bc
       -0.019835327 -0.034552317 -0.0480021 -0.02572524
000070 16 ae 49 bc ab 21 d1 3c 55 2c 33 bc 35 11 2c bd
       -0.012309572 0.02552875 -0.010935863 -0.042008597
000080 c5 43 2f bd 82 03 a5 bc fc 47 04 bc 75 7b 2e bd
       -0.04278924 -0.020143274 -0.008073803 -0.042598207
000090 76 65 14 bd de f4 a0 3a df d2 ac bc 7c 8a 21 3c
       -0.036229573 0.0012280007 -0.021096645 0.009859677
0000a0 1a b0 01 3d 01 3a 4e bc 94 d6 a6 3c 9f 91 20 bd
       0.031662084 -0.012587071 0.02036599 -0.039201375
0000b0 55 77 b8 bb b7 54 2d 3d 6a e6 41 bb 01 37 98 bc
       -0.00562946 0.04231712 -0.00295868 -0.018580915
0000c0 30 15 1c bc c9 c2 5a bc 6a 4b 8b bd 3f 69 0e bb
       -0.009526536 -0.013352104 -0.068014935 -0.0021730212
0000d0 da 94 31 3d 78 34 66 3b e0 ec 5a bc b8 4a 12 3b
       0.043354847 0.0035126489 -0.013362139 0.0022322368
0000e0 58 ef 86 3c 2b 16 3b 3d 42 8f a9 3c ac 78 d7 3c
       0.01647155 0.045675438 0.020698193 0.026302658
0000f0 9d 81 ec ba dd 92 5c 3a e7 68 40 bd c2 35 8e bb
       -0.0018043999 0.00084142183 -0.046975043 -0.0043399045
000100 6b ae 0c 3b f9 64 8e 3d 58 1e 35 3d 69 d5 4e bb
       0.0021466266 0.06952853 0.04421839 -0.0031560308
000110 c2 a4 5c 3b a6 67 08 bd 66 3b a3 bb f3 fd 83 3d
       0.003366754 -0.03330197 -0.004981446 0.06444921
000120 d7 9b 46 bc 93 30 9e bc 8a 2e 49 bd 68 8f 7b bd
       -0.012122116 -0.019310271 -0.04911665 -0.06141606
000130 ce 38 b4 3c 53 03 94 bc c7 d2 17 3d 2c fe d4 bc
       0.021999743 -0.018067991 0.037066247 -0.026000105
000140 d9 58 fd bc c6 0d 77 bc 6f 11 1c bd 03 07 7a 3b
       -0.030926155 -0.015078967 -0.038102563 0.0038151152
000150 4a ff 82 3c 97 27 2d bc 31 14 34 3d b5 08 bb 3c
       0.015990872 -0.010568521 0.04396457 0.0228313
000160 4e b6 d9 3c cf c0 e6 3c 5a b1 c2 3c 98 14 48 bc
       0.026576187 0.02816811 0.023766208 -0.012211941
000170 b3 87 4c 3d d6 8b 86 bc 41 33 96 3b df 0a 24 bd
       0.0499341 -0.0164241 0.0045837467 -0.04004943
000180 da 05 49 bd 36 34 2d bd 6b b9 45 3d 84 19 84 3d
       -0.049077846 -0.04228612 0.04827253 0.06450179
000190 48 8c 87 3c 46 16 52 3d a1 74 ee 3c 65 e6 9d 3c
       0.016546384 0.051290773 0.029108347 0.0192749
0001a0 09 08 af 3c 59 5c cb bc 90 b6 f7 3c b4 56 81 3a
       0.021366136 -0.024824308 0.03023842 0.0009867758
0001b0 68 49 81 3c 16 bf cf bc a8 99 4c 3b da 8f 15 3d
       0.015782073 -0.025359672 0.0031219516 0.03651414
0001c0 c8 1b 79 3d 23 9d 9d 3b 9a 03 31 3c 6f f2 9c bc
       0.06081751 0.004809992 0.010804081 -0.01915857
0001d0 50 83 18 bd e9 b6 df bc 66 b2 43 bc d8 15 39 ba
       -0.037234604 -0.027308898 -0.011944389 -0.0007060445
0001e0 f8 d6 d3 bc 7f ab 96 bb a8 1f dc bb bb 6e da 3c
       -0.025859341 -0.0045980806 -0.006717641 0.026664129
0001f0 c0 c3 77 3d 73 ae ad 3c 1b 06 d0 bc 80 63 35 bd
       0.060489416 0.021201348 -0.025393536 -0.044284344
000200 1c 68 14 3c 50 b3 d2 3c 5d d5 9b 3b 05 80 fe bc
       0.009058025 0.025720268 0.0047556595 -0.031066904
000210 84 a9 b5 bc f7 90 2a 3d b1 28 71 bb b7 e5 e4 3c
       -0.022175558 0.041642155 -0.0036797936 0.027941568
000220 f8 ae 96 ba 46 9b b2 bc 04 1d f7 3b 88 04 a3 3c
       -0.0011496237 -0.021802556 0.0075413007 0.019899622
000230 7c 52 6e 3c 09 3e c8 3c 3e 4f 18 bd 9f 64 5a bc
       0.014546033 0.024443643 -0.037184946 -0.013329654
000240 41 a2 85 bd 0a 25 a1 bc b9 e4 12 bd 9a 9c ac bc
       -0.06525088 -0.019670982 -0.03586266 -0.021070767
000250 70 2a 07 3d e8 50 90 3c 29 86 e5 bc 89 aa 5d bd
       0.032999456 0.017616704 -0.028018074 -0.054117713
000260 98 bb 3c bd ce 24 9e bd 91 5e 39 bc 8a b0 b6 3c
       -0.04607734 -0.07721864 -0.01131405 0.022300977
000270 e8 a7 de ba 58 a1 e4 3c f4 aa a9 3b 10 58 6e bd
       -0.0016987296 0.027908966 0.00517785 -0.05818945
000280 65 d5 26 bc fa e4 9d 3c 4f 5b 8e 3d 54 b9 44 3c
       -0.010182713 0.019274224 0.069510095 0.012007076
000290 60 53 fa 3c 98 76 46 bd f8 49 32 bd a2 9a 40 3d
       0.030557334 -0.048452944 -0.043527573 0.04702247
0002a0 3b 55 29 bc cf d1 31 bc b3 45 91 bc 87 72 28 bc
       -0.010335262 -0.010853245 -0.01773343 -0.010281212
0002b0 00 eb af bc 5d 29 ad 39 56 3d aa 3b 80 23 50 3d
       -0.021474361 0.0003302795 0.0051953 0.050815105
0002c0 38 a2 82 3d f4 38 9c bc 41 ad 97 bc 08 a7 cc bc
       0.06378597 -0.019070126 -0.018515231 -0.02498199
0002d0 af e3 46 bd 01 13 ef 3a 17 cf a7 3d 9e df 0d bd
       -0.04855698 0.0018239917 0.08193796 -0.034637086
0002e0 92 02 6f 3c eb 21 65 3c 5c d8 10 bd e8 53 e3 bc
       0.014588015 0.013985137 -0.035362586 -0.02774997
0002f0 36 9c 2b bd 0e bc 53 bd e6 27 67 bc a6 c3 10 bd
       -0.04189702 -0.051693015 -0.014108634 -0.035342835
000300 59 c6 16 bd 01 c1 ea bc be 29 26 bc 8b 31 ed 3c
       -0.036810253 -0.028656485 -0.010141788 0.028954288
000310 d7 8b a7 bd 68 6f 25 3d bb fc 32 3d 95 6d de 3b
       -0.08180969 0.04038945 0.043698054 0.0067879655
000320 31 cb e2 bc 74 da 80 3a d0 17 b2 3c 93 3f a5 3c
       -0.02768478 0.0009830729 0.02173987 0.020171916
000330 66 78 91 3b a9 c7 ad bc ea 82 40 3c da f8 eb bb
       0.0044394014 -0.02121337 0.011749962 -0.0072012963
000340 1a 46 14 3c 20 65 37 bd 3d ea e5 3c 52 fd d3 bc
       0.009049917 -0.044774175 0.028065795 -0.025877628
000350 9a 83 ed bc 15 8e 14 bd 8c 00 1e 3c 7d 6c ee bc
       -0.028993417 -0.036268312 0.009643685 -0.029104466
000360 e7 82 26 bd aa f1 15 bc 1c dc 21 bb a5 43 16 bd
       -0.040652182 -0.0091518555 -0.0024697846 -0.036685605
000370 b9 ff f7 bc 46 3c 4e bd 5f 2b e0 bc c1 7a 0f ba
       -0.030273305 -0.05035045 -0.027364431 -0.0005473309
000380 7e 36 39 bb 4d 8a 8e 3c 02 2d 61 bd c1 71 04 3b
       -0.002826124 0.017399931 -0.054974563 0.0020209404
000390 4f 0e b4 bc 62 f8 d1 bc 91 88 06 3c c9 20 89 bb
       -0.02197948 -0.025631133 0.008211271 -0.0041848165
0003a0 47 a8 02 3d 3a de 62 3d 53 b3 c5 3c b8 cb 5a 3c
       0.031898763 0.055387713 0.02413336 0.013354234
0003b0 ab 08 1d bd f6 15 d7 bb c0 cd ad bc b2 78 a5 bb
       -0.038338345 -0.0065638972 -0.021216273 -0.0050497884
0003c0 0e e5 4c bc 3a 68 bb 3c 71 1e bf bc 12 8e bd bc
       -0.012505783 0.022876848 -0.023329945 -0.023139033
0003d0 0e 63 f7 bc fd 28 6c bd d7 bb 1e 3d 73 d2 2b 3d
       -0.0301986 -0.057656277 0.038753357 0.041948747
0003e0 fa b6 d0 bc 42 35 20 3c 2f e5 2a bc 19 58 bd bc
       -0.025477875 0.009778323 -0.010430618 -0.023113297
0003f0 79 5d 4a bd 1b 6a 3a 3d 52 5c 6b 3b 7f 9b e2 bc
       -0.04940555 0.045511346 0.0035913181 -0.027662037

layer3.0.bias f4 [64]
000000 b4 a8 3b bd 98 06 23 3c 6d 7e 56 3d a5 9c 0c bd
       -0.045815185 0.009950303 0.052366663 -0.034329075
000010 18 ba 22 bd 42 17 4e bc c0 be 0a bd fb 4c 13 bd
       -0.039728254 -0.012578787 -0.03387332 -0.035962086
000020 5f f4 49 3d 05 2c 21 bd f7 f2 8e bc 2f ce 56 bc
       0.049305316 -0.03934862 -0.017449839 -0.013110681
000030 85 91 b9 3d 52 63 1f bd 21 57 d1 3c c6 f3 f1 bc
       0.09060959 -0.03891308 0.025554242 -0.029535186
000040 63 1b 73 bc ba 92 94 bd 15 0e 23 3c da 66 59 3c
       -0.0148380725 -0.07254548 0.009952088 0.013269151
000050 e9 4e 87 3b ec 67 05 be 73 b2 a5 bc 0e cb 70 3c
       0.00412928 -0.13027924 -0.020226693 0.0146968495
000060 75 ca 26 bc b4 54 8f bc 57 f6 9c bd 3f 17 3e 3d
       -0.010180105 -0.017496444 -0.07664173 0.046408888
000070 13 a7 17 3d bc a1 ba bd 92 17 80 bc 27 de 0b bd
       0.03702457 -0.0911288 -0.01563624 -0.034147408
000080 3f 73 b5 bc 68 c0 b3 bb 0e 79 4f bb 9b 6b e4 bb
       -0.02214968 -0.005485583 -0.0031657848 -0.0069708354
000090 0f 6b a9 3c 0b c4 84 3b c9 29 e5 3c 9d bf 09 bd
       0.020680932 0.0040516905 0.027974026 -0.033630002
0000a0 f3 14 59 bd 85 81 ef bd 91 6b c1 bd 16 f5 49 bd
       -0.052998494 -0.11694626 -0.09444345 -0.049305998
0000b0 39 cb 93 3d cb 41 a9 bd e7 ae 73 bd 9a 14 f5 3b
       0.07216496 -0.08264502 -0.05949297 0.0074792625
0000c0 ab 2a 96 3c ad ed e1 bc 17 e6 2d 3d ca 22 20 bd
       0.018330893 -0.027579153 0.04245576 -0.039095677
0000d0 ad 61 e5 bc 0e f2 8e bd c8 b1 b5 3c fe 12 8c bd
       -0.028000677 -0.06979762 0.0221795 -0.0683956
0000e0 99 ff c6 bd d0 65 f7 bd ac a1 9c bd e0 c0 2b bd
       -0.0971672 -0.12079966 -0.07648024 -0.041931987
0000f0 3e 89 0f 3c c0 1c d4 bc 0d aa 5d bd 2c ec 02 bd
       0.008760748 -0.025892615 -0.05411725 -0.031963512
