torch_model/model_save/cnn1-2023-05-02-21-41-33.pth (torch_old, 542865 bytes, 24 tensors)

layer1.0.weight f4 [64, 1, 7]
0	0x3e89a4db	0.26883587
1	0xbe5973a8	-0.21235526
2	0x3e9bd569	0.30436257
3	0x3cb81ad3	0.022473728
4	0xbd4bff3c	-0.049803957
5	0x3de93aaa	0.113881424
6	0x3eb71a8d	0.35762444
7	0x3e3a595a	0.18198147
8	0x3e853510	0.26017046
9	0x3da827af	0.08210694
10	0xbeba2a2b	-0.36360297
11	0x3d60d978	0.054894894
12	0xbdac4ca0	-0.084130526
13	0x3d9252d8	0.071447074
14	0x3eac623b	0.33668694
15	0x3e734029	0.23754944
16	0xbe1f7bfa	-0.15574637
17	0x3d80055f	0.062510245
18	0xbe793fbd	-0.2434072
19	0xbe812fc8	-0.25231767
20	0x3dba2a89	0.09090144
21	0x3e8cf574	0.27531016
22	0xbdf32040	-0.118713856
23	0x3e058484	0.13038832
24	0xbe7638ea	-0.24045148
25	0x3e0b1475	0.13582022
26	0xbea1dd5d	-0.316142
27	0x3e1b0b6f	0.1514108
28	0x3ecdaddb	0.40171704
29	0x3e1ac238	0.15113151
30	0xbe90899b	-0.28229985
31	0x3e18f2aa	0.14936319
32	0x3e9539cf	0.29145667
33	0x3e65e297	0.22449718
34	0xbe32b8e1	-0.17453338
35	0x3eae9845	0.34100547
36	0xbea19649	-0.3155997
37	0x3974d59c	0.00023349229
38	0xbc5e941e	-0.013585119
39	0x3d38124f	0.044939335
40	0xbe923524	-0.28556168
41	0x3e5ca4ac	0.21547192
42	0x3e6bab30	0.23014522
43	0xbec5bd7e	-0.38621134
44	0xbe85b5a8	-0.26115155
45	0x3ea3d9cd	0.32002106
46	0x3e8b9441	0.27261546
47	0xbde58a4f	-0.11208021
48	0xbe45b75b	-0.19308226
49	0xbe8390c7	-0.25696394
50	0xbeb473d0	-0.35244608
51	0x3e87aab2	0.26497418
52	0xbe0b3fed	-0.13598605
53	0xbe3a6282	-0.1820164
54	0xbe6d6b08	-0.2318536
55	0xbc99a762	-0.018756572
56	0x3e9497dc	0.2902211
57	0xbd1d003c	-0.0383303
58	0x3eab6c69	0.33481148
59	0xbe1f4802	-0.15554813
60	0xbd84a072	-0.06475915
61	0xbe6ea869	-0.23306431
62	0xbe64db02	-0.2234917
63	0xbbe89a78	-0.0070984922
64	0x3e2132e5	0.15742071
65	0x3e8f780c	0.28021276
66	0xbc56af82	-0.013103368
67	0x3e06485b	0.13113539
68	0xbead06f1	-0.33794358
69	0xbdd76d0f	-0.10518848
70	0x3e9a3473	0.3011814
71	0x3ba5f0e5	0.0050641173
72	0xbe688bb4	-0.22709543
73	0x3e894114	0.26807463
74	0x3e255fbf	0.16149805
75	0x3e3b4fc7	0.18292151
76	0x3d4d409e	0.050110452
77	0x3d00a51d	0.031407464
78	0x3e6a1ad1	0.22861792
79	0x3ecac8ad	0.39606228
80	0x3e9c3144	0.30506337
81	0x3e92d041	0.2867451
82	0xbd0d0d9c	-0.034436807
83	0x3e063257	0.1310514
84	0x3e88a858	0.26690936
85	0x3e92c255	0.2866389
86	0xbe47c662	-0.19509271
87	0xbe352f81	-0.17693903
88	0xbeaa7fed	-0.33300725
89	0x3d1b9a63	0.03798903
90	0xbe841deb	-0.25804076
91	0xbddb5771	-0.107100375
92	0x3e639fe4	0.22228962
93	0x3ed479ba	0.4149912
94	0x3e0a4d35	0.13506015
95	0x3eb3978c	0.3507656
96	0x3c88f040	0.016716123
97	0x3d0e0cae	0.03468006
98	0xbe6068bc	-0.21914953
99	0x3eb9ad36	0.36264962
100	0xbec4a428	-0.3840649
101	0xbead9024	-0.33899033
102	0xbea9a94c	-0.33136976
103	0xbe9fb1dc	-0.31190383
104	0x3e8d36af	0.27580783
105	0xbe9691e1	-0.29408172
106	0xbe86993f	-0.26288792
107	0x3eaf1fa5	0.3420383
108	0x3e66c3fa	0.22535697
109	0x3ebbbb15	0.3666617
110	0xbe9d0f4a	-0.30675727
111	0xbe44514b	-0.19171636
112	0x3eb7cfb0	0.3590064
113	0x3e8f14bd	0.2794551
114	0xbde3f768	-0.11131173
115	0xbe54c1da	-0.20777074
116	0x3ea0908f	0.3136029
117	0xbdda5fd6	-0.106628105
118	0xbe8edea0	-0.27904224
119	0xbdcf8e54	-0.10134569
120	0xbdd9a05b	-0.106262885
121	0x3e380e0b	0.17974107
122	0xbea3eeed	-0.32018223
123	0x3d81d49d	0.06339381
124	0x3cc37ddf	0.023863731
125	0x3e513275	0.20429404
126	0xbd903329	-0.07041008
127	0x3e045637	0.12923513
128	0x3e4691c4	0.19391543
129	0xbea30439	-0.3183916
130	0xbde0785d	-0.109604575
131	0xbe882e51	-0.26597837
132	0x3ee81909	0.453316
133	0x3d8c0525	0.06836919
134	0x3e8aaf7c	0.2708701
135	0x3db462e5	0.08807925
136	0xbe4f861b	-0.20266001
137	0x3e2568b7	0.16153227
138	0xbe841f9c	-0.25805366
139	0xbe289088	-0.16461384
140	0x3e6864ca	0.22694698
141	0xbc889312	-0.016671691
142	0xbe832ae0	-0.2561865
143	0x3dd5dd23	0.10442569
144	0x3d8fa94c	0.07014713
145	0xbdcd0728	-0.100111306
146	0xbeafc9e6	-0.34333724
147	0x3d2776d6	0.040884815
148	0x3e30cf81	0.17266656
149	0x3ebe9225	0.37220874
150	0xbdc85232	-0.097813025
151	0x3d2ce56c	0.04221098
152	0x3ead58f0	0.33856916
153	0x3e390120	0.18066835
154	0xbeb8c150	-0.36084986
155	0x3dbb5439	0.091469236
156	0x3dd35452	0.10318817
157	0x3e39b4eb	0.18135421
158	0x3e8c8fa9	0.27453354
159	0xbdc9e3a1	-0.0985787
160	0xbe582647	-0.21108352
161	0x3d362e4a	0.04447774
162	0x3e8f092c	0.27936685
163	0x3e93ffb5	0.28906026
164	0x3e7f3dec	0.24925965
165	0xbe8e2bdc	-0.27767837
166	0x3e33b6fe	0.17550275
167	0xbd1883e2	-0.03723515
168	0xbdab70b9	-0.083711095
169	0x3caf783c	0.021419637
170	0x3dceacbb	0.100915395
171	0xbb94c163	-0.004539655
172	0xbe8a7277	-0.27040455
173	0xbd8bcf56	-0.068266556
174	0x3e88d246	0.26722926
175	0xbe26bf93	-0.16284017
176	0xbe83568c	-0.25651968
177	0xbd6e49ec	-0.058175966
178	0x3d62d4ca	0.055378713
179	0x3e9b9c0c	0.30392492
180	0xbd58df78	-0.05294749
181	0x3e3cf0ed	0.18451281
182	0xbcfc27a5	-0.030780623
183	0xbe7f5c1e	-0.24937484
184	0x3e0cbb43	0.1374331
185	0xbd06d410	-0.032917082
186	0xbdf7a962	-0.12092854
187	0x3c8879ed	0.016659701
188	0x3eb28876	0.34869736
189	0xbbd7d4dd	-0.0065866546
190	0x3ead5efe	0.33861536
191	0xbe128569	-0.14308704
192	0x3dcb3d26	0.099237725
193	0xbca788ad	-0.020450914
194	0xbeb35cff	-0.35031888
195	0x3e823878	0.25433707
196	0xbebec4cc	-0.3725952
197	0x3e9d299e	0.30695814
198	0x3e4c7fd5	0.19970639
199	0x3e4b4dab	0.19853847
200	0xbeba0905	-0.36335006
201	0xbea28a9a	-0.3174637
202	0xbde3566b	-0.11100467
203	0x3e6eccd0	0.23320317
204	0xbebc753e	-0.368082
205	0x3e3481ce	0.17627642
206	0x3ea1eb82	0.3162499
207	0x3e6bc0fb	0.23022835
208	0x3e3c82bf	0.1840925
209	0x3d81fc28	0.06346923
210	0xbea391db	-0.31947216
211	0xbda38fa7	-0.07986384
212	0x3e86897c	0.26276767
213	0xbeb561c9	-0.35426167
214	0x3ec2f3ec	0.38076723
215	0x3e1c0a7a	0.15238371
216	0x3e1333b1	0.14375187
217	0x3e717922	0.23581365
218	0x3de5e6b7	0.11225646
219	0x3d927b0b	0.07152375
220	0xbe8690d7	-0.2628238
221	0xbe7fea1b	-0.24991648
222	0xbe86d238	-0.2633226
223	0xbdeb689e	-0.114945635
224	0xbe8c267d	-0.27373114
225	0xbda711f8	-0.08157724
226	0x3e86d466	0.26333922
227	0xbea48c52	-0.32138306
228	0x3e9f958d	0.31168786
229	0x3b9c41cf	0.004768587
230	0xbe94de6b	-0.2907594
231	0x3e18a0a2	0.14905027
232	0xbeaef592	-0.3417173
233	0x3e8d934c	0.2765144
234	0x3d997f7f	0.07495021
235	0xbd96d0ed	-0.07364068
236	0x3e94385f	0.28949258
237	0x3e3ee545	0.18642147
238	0xbe953af3	-0.29146537
239	0xbe5568cb	-0.20840757
240	0x3e971c63	0.29513845
241	0x3eb44195	0.35206285
242	0x3e6672a8	0.22504675
243	0xbe726d56	-0.23674521
244	0x3e9b398e	0.30317348
245	0xbc6af71f	-0.014341145
246	0x3e8d45f0	0.2759242
247	0x3e75201a	0.23938027
248	0x3ddc95e8	0.1077078
249	0xbdf8c939	-0.12147755
250	0xbe4d5644	-0.20052439
251	0xbe276fc7	-0.16351233
252	0xbd8a1aea	-0.06743415
253	0xba4601ec	-0.0007553387
254	0x3dfd9fd2	0.12383999
255	0x3e21bbd0	0.15794301

layer1.0.bias f4 [64]
0	0x3ebc0503	0.36722574
1	0xbd648d45	-0.055798788
2	0xbdefaac7	-0.11702495
3	0x3e02c343	0.12769799
4	0xbe701039	-0.23443688
5	0x3d8f2d82	0.06991102
6	0xbe5ec810	-0.21756005
7	0xbc3869a5	-0.011255656
8	0x3e4551fc	0.19269556
9	0x3e8ef5a8	0.27921796
10	0x3ecc8b9f	0.39950272
11	0xbd3c226c	-0.045931265
12	0x3e5b9dbd	0.21446891
13	0x3d262569	0.04056302
14	0x3da2d115	0.079500355
15	0x3e9652b3	0.2935997
16	0x3ea8d447	0.32974455
17	0x3e446468	0.19178927
18	0x3df0a9e9	0.11751158
19	0xbeb7c5b7	-0.35893032
20	0x3e3e767f	0.1859989
21	0xba2976dc	-0.000646455
22	0xbe0866cb	-0.13320462
23	0x3eb0d01c	0.34533775
24	0xbd6d2cd2	-0.057904072
25	0x3c65a892	0.014017241
26	0xbe14cda5	-0.14531572
27	0x3e78a5a5	0.24281938
28	0xbe13bb42	-0.14426902
29	0x3eb38722	0.35064036
30	0xbe773380	-0.2414074
31	0xbeae97e8	-0.3410027
32	0xbe34cbe5	-0.17655905
33	0xbe220cfc	-0.15825266
34	0xbde27646	-0.11057715
35	0x3c28309c	0.010265496
36	0x3ea89d04	0.32932293
37	0xbeb1217d	-0.34595862
38	0x3e05ea28	0.13077605
39	0xbd7b1fac	-0.0613095
40	0xbd9a5158	-0.07535046
41	0xbde75bfd	-0.11296842
42	0x3e244056	0.16040167
43	0xbe10a363	-0.14124827
44	0xbda17eec	-0.078855366
45	0x3e6cf2c9	0.2313949
46	0x3e31a654	0.17348605
47	0x3e492098	0.1964134
48	0xbd94f770	-0.072737575
49	0xbeb6cbc5	-0.3570234
50	0x3df6bb48	0.1204744
51	0x3e1a5dde	0.1507487
52	0xbe25a4df	-0.16176175
53	0x3e8cd5b5	0.27506796
54	0xbe8b915e	-0.27259344
55	0xbdb78cd3	-0.08962407
56	0x3e968bb4	0.2940346
57	0x3e10eb7a	0.14152327
58	0xbea295a0	-0.3175478
59	0xbe8d89b1	-0.27644113
60	0x3e06e838	0.13174522
61	0xbebe00d6	-0.37110013
62	0xbe9169c1	-0.28400996
63	0x3e1ee032	0.15515211

layer1.2.weight f4 [64]
0	0x3f686461	0.90778166
1	0x3f8817b5	1.0632235
2	0x3f77f378	0.9685588
3	0x3f85a18b	1.0439924
4	0x3f779f8d	0.9672783
5	0x3f81ef6f	1.0151194
6	0x3f942a61	1.1575433
7	0x3f744fbc	0.95434165
8	0x3f7aca44	0.9796488
9	0x3f8417c5	1.0319754
10	0x3f611a82	0.8793107
11	0x3f747e1e	0.9550494
12	0x3f712802	0.9420167
13	0x3f6940c5	0.91114455
14	0x3f7253e4	0.94659257
15	0x3f7e41dd	0.9931925
16	0x3f807c7f	1.0037993
17	0x3f81266d	1.0089852
18	0x3f8d7888	1.1052408
19	0x3f8073fc	1.0035396
20	0x3f6af70f	0.9178323
21	0x3f726f8f	0.94701475
22	0x3f922675	1.1417986
23	0x3f662840	0.89905167
24	0x3f88e111	1.0693685
25	0x3f87fbd5	1.0623728
26	0x3f89eaf9	1.0774833
27	0x3f676693	0.9039089
28	0x3f764261	0.96195036
29	0x3f68296f	0.9068822
30	0x3f876a98	1.0579405
31	0x3f76199d	0.9613283
32	0x3f8207d2	1.0158637
33	0x3f6fbea6	0.9365028
34	0x3f770294	0.9648831
35	0x3f807342	1.0035174
36	0x3f6e5a86	0.9310688
37	0x3f7aad2f	0.9792051
38	0x3f650eb8	0.89475584
39	0x3f717d47	0.94331783
40	0x3f72cf32	0.94847405
41	0x3f7b4525	0.9815238
42	0x3f7420a1	0.9536229
43	0x3f8364bf	1.026512
44	0x3f796647	0.9742169
45	0x3f8a459f	1.0802497
46	0x3f8549ae	1.041311
47	0x3f8410d1	1.0317632
48	0x3f7a2f92	0.97728837
49	0x3f816dc9	1.0111629
50	0x3f8c0319	1.0938445
51	0x3f77d1cb	0.96804494
52	0x3f8ad7e5	1.0847136
53	0x3f8ee700	1.1164246
54	0x3f839ba9	1.0281879
55	0x3f6ff35a	0.937307
56	0x3f8b641a	1.0889924
57	0x3f67975b	0.90465325
58	0x3f7eddba	0.9955708
59	0x3f7934fb	0.97346467
60	0x3f6887d2	0.90832245
61	0x3f7dcfa2	0.9914495
62	0x3f7f17f1	0.99645907
63	0x3f85e8ec	1.0461707

layer1.2.bias f4 [64]
0	0x3ce6603a	0.028122056
1	0x3d8e68e1	0.06953598
2	0x3d8c9425	0.06864194
3	0x3d74c84a	0.059761323
4	0x3d61b317	0.055102434
5	0x3d7145ba	0.058904387
6	0x3d9740bd	0.07385395
7	0x3baed427	0.005335349
8	0x3d1e508c	0.038651034
9	0x3d8ea84e	0.06965695
10	0x3c533c4e	0.012892796
11	0x3ce534dc	0.027979307
12	0x3d8107bd	0.06300304
13	0x3c5b468a	0.013383517
14	0x3ceb5dc6	0.028731238
15	0x3bb8d7f6	0.005640979
16	0x3d205d52	0.039151497
17	0x3c5728f4	0.013132323
18	0x3d311608	0.0432339
19	0x3da926fe	0.0825939
20	0x3c4a0e3a	0.012332493
21	0xbba6645c	-0.0050778817
22	0x3c857b8e	0.016294267
23	0xbb9dd5dd	-0.0048167543
24	0x3dd3fe14	0.10351196
25	0x3d8b43d8	0.068000495
26	0x3dc1c01c	0.0946047
27	0x3d14f1c6	0.036363386
28	0x3c289a3b	0.010290678
29	0x3c5fae68	0.0136524215
30	0x3d5c74d4	0.053822353
31	0xbc565870	-0.013082609
32	0xbc9e5cce	-0.019331362
33	0x3c64ebb1	0.013972209
34	0x3bd882ec	0.006607404
35	0x3d0e6d10	0.03477198
36	0x3cbe7d0f	0.023252992
37	0xbb99b0f4	-0.004690284
38	0x3ca6dd67	0.020369245
39	0x3d6e7bdf	0.0582236
40	0x3dc2165a	0.094769195
41	0x3b0ee09f	0.0021801365
42	0x3cba2dd6	0.022726934
43	0x3d387ad9	0.04503903
44	0x3c29972f	0.010350986
45	0x3ce1043a	0.027467836
46	0x3d716df5	0.058942754
47	0x3d8dc0f7	0.06921571
48	0x3d5c31e9	0.053758536
49	0xbc21f3ff	-0.009884833
50	0x3d8c3045	0.06845144
51	0x3c56db6e	0.01311384
52	0x3d4566ef	0.04819387
53	0x3d60e0ca	0.054901876
54	0x3cfbe1b5	0.030747274
55	0x3d16cddc	0.036817417
56	0x3cc88e67	0.024481965
57	0xbb920fea	-0.0044574635
58	0x3d3691bc	0.044572577
59	0x3cfcef9a	0.03087597
60	0x3d841a6d	0.06450353
61	0x3c6a8efd	0.014316318
62	0x3b84c054	0.0040512476
63	0xbb9eaa73	-0.0048420965

layer1.2.running_mean f4 [64]
0	0x3ed2f298	0.4120071
1	0x3d2df0ad	0.042465854
2	0x3d4a6bf7	0.04941937
3	0x3e0fb1b1	0.14032628
4	0x3dc90008	0.09814459
5	0x3dab7bb5	0.083732046
6	0x3c086cdd	0.008326736
7	0x3e9402ab	0.28908285
8	0x3e78ec3c	0.24308866
9	0x3e968040	0.29394722
10	0x3edba01f	0.428956
11	0x3e9edbdb	0.3102711
12	0x3e9a6bf4	0.30160487
13	0x3e923d95	0.28562608
14	0x3ebce53c	0.36893642
15	0x3e9d184b	0.30682597
16	0x3eb38903	0.3506547
17	0x3e5d6190	0.21619248
18	0x3e0a739e	0.13520667
19	0x3cbbe219	0.02293496
20	0x3e752cf6	0.23942932
21	0x3e82dc25	0.25558582
22	0x3c71b52c	0.014752667
23	0x3ec77be8	0.3896172
24	0x3c6cb88b	0.014448295
25	0x3da2e214	0.07953277
26	0x3cb8e706	0.022571098
27	0x3e7a1998	0.24423826
28	0x3db1ac5e	0.086754546
29	0x3ed22223	0.4104167
30	0x3cfe6d3c	0.031057946
31	0x3da6b52b	0.08140024
32	0x3d461a87	0.048365142
33	0x3daae096	0.083436176
34	0x3db24ccd	0.08706055
35	0x3da8c348	0.08240372
36	0x3ecab52a	0.39591342
37	0x3d3178e9	0.0433282
38	0x3e8c11e0	0.27357388
39	0x3df7a08e	0.1209117
40	0x3d4ebe70	0.050474584
41	0x3dc17f08	0.094480574
42	0x3e3fc0ee	0.1872594
43	0x3b852a13	0.0040638535
44	0x3e1e7a06	0.15476236
45	0x3e8097ca	0.25115806
46	0x3e77ee98	0.2421211
47	0x3e7fde2a	0.24987093
48	0x3d468bf0	0.0484733
49	0x3d18642c	0.037204906
50	0x3e00525f	0.12531422
51	0x3e518cf5	0.20463927
52	0x3c15637a	0.009117955
53	0x3e97c790	0.29644442
54	0x3c03e9c0	0.008051336
55	0x3e378910	0.17923379
56	0x3ead8622	0.33891398
57	0x3eb1e5ca	0.34745628
58	0x3e12d992	0.14340809
59	0x3e098c7a	0.13432494
60	0x3e57b325	0.21064432
61	0x3d86e4c5	0.06586603
62	0x3e8f7dfb	0.28025803
63	0x3e333898	0.17502058

layer1.2.running_var f4 [64]
0	0x3e31c2b0	0.17359424
1	0x3c57f2dd	0.013180462
2	0x3d1ba2f9	0.03799722
3	0x3c7966f2	0.015222298
4	0x3d4b397e	0.049615376
5	0x3c1f899a	0.009737397
6	0x3b5edffb	0.0034008014
7	0x3e770589	0.24123205
8	0x3dbf42bc	0.093389004
9	0x3d2f3c21	0.042781953
10	0x3e250a9d	0.1611733
11	0x3e838d56	0.25693768
12	0x3e3a092d	0.18167563
13	0x3e431980	0.19052696
14	0x3ec87494	0.39151442
15	0x3cf27520	0.029596865
16	0x3d8e8721	0.069593675
17	0x3cab1124	0.020882197
18	0x3c5edfb7	0.013603142
19	0x3c8b7277	0.017022355
20	0x3da4742b	0.0802997
21	0x3e20c52a	0.15700212
22	0x3bada4be	0.00529918
23	0x3e22b342	0.15888694
24	0x3b861865	0.0040922635
25	0x3d0e8fe9	0.034805212
26	0x3bfddc67	0.0077472213
27	0x3c90f3b4	0.017694332
28	0x3d9d9a72	0.07695474
29	0x3e4aa304	0.19788748
30	0x3c6b7aaa	0.014372507
31	0x3e042428	0.12904418
32	0x3cb6e055	0.022323767
33	0x3d050c1c	0.03248225
34	0x3d0de1be	0.034639113
35	0x3d37d3d0	0.044879735
36	0x3e264aeb	0.16239516
37	0x3d126942	0.035744913
38	0x3e0d86ba	0.13820925
39	0x3da98ab6	0.0827841
40	0x3d3f2bb2	0.04667253
41	0x3d150315	0.036379892
42	0x3d076942	0.033059366
43	0x3a93a2ba	0.0011263706
44	0x3dc2723d	0.094944455
45	0x3cd01f6b	0.025405606
46	0x3e0f32ad	0.13984175
47	0x3dd7737e	0.10520075
48	0x3c5f5df8	0.013633244
49	0x3ca70eb1	0.020392748
50	0x3ba1cabb	0.0049374974
51	0x3db22e9d	0.08700297
52	0x3ad73fba	0.001642219
53	0x3cd7be5a	0.026335884
54	0x3ae7aee8	0.0017676027
55	0x3e2e3b21	0.17014743
56	0x3d8b9bed	0.0681685
57	0x3e6feb98	0.23429716
58	0x3ddddb2b	0.108328186
59	0x3daf5efe	0.0856304
60	0x3e00f20b	0.12592332
61	0x3da032dd	0.078222014
62	0x3eccd524	0.40006363
63	0x3c64a011	0.013954178

layer2.0.weight f4 [128, 64, 7]
0	0xbcaa916a	-0.020821292
1	0x3cf235ae	0.029566612
2	0xbd004f32	-0.031325527
3	0xbc8f9eaf	-0.01753172
4	0xbd014a77	-0.031565156
5	0xbca26a5c	-0.019826107
6	0xbc26b9d0	-0.010176137
7	0x3d73a722	0.059485562
8	0x3b380ff0	0.0028085671
9	0x3d0643a0	0.032779336
10	0x3dc8dae4	0.09807375
11	0xbd145193	-0.036210608
12	0xbce715b1	-0.028208585
13	0x3d2528fb	0.040322285
14	0xbcf387e8	-0.029727891
15	0x3bae005f	0.005310103
16	0xbd1d37ba	-0.038383223
17	0x3c8b740a	0.017023105
18	0xbc2038e9	-0.009779193
19	0xbd23bf09	-0.039977107
20	0x3d4dd0ed	0.050248075
21	0x3d6ee9b7	0.058328357
22	0xbbb18a59	-0.0054181037
23	0x3c80b75d	0.015712434
24	0x3c3c6142	0.011497797
25	0x3d2641db	0.04059015
26	0x3b98c07d	0.0046616183
27	0x3d185fe4	0.037200823
28	0xbc83aee8	-0.016074613
29	0x3cfee79e	0.031116303
30	0xbb840530	-0.0040289387
31	0xbd057f24	-0.032591954
32	0x3cc8c1cc	0.024506472
33	0xbd354d9b	-0.044263463
34	0xbc62f02f	-0.01385121
35	0xbc7585f4	-0.01498555
36	0x3cb5ef34	0.022208788
37	0x3c8fcdd5	0.017554203
38	0x3d7de5b5	0.061986644
39	0x3b9fb51a	0.004873884
40	0xbd2c5af2	-0.04207892
41	0x3d58aa04	0.052896515
42	0xbca7030f	-0.0203872
43	0x3ca05af9	0.01957463
44	0xbcd2c288	-0.025727525
45	0xbd706689	-0.058691535
46	0x3db783e9	0.08960707
47	0x3d2f7c30	0.042843044
48	0xbda10751	-0.078627236
49	0xbda068da	-0.07832499
50	0x3c8f0f62	0.01746339
51	0xbc41364b	-0.01179273
52	0x3cda588a	0.026653547
53	0xbd2bff1e	-0.041991346
54	0x3cb27ec8	0.02178897
55	0x3c553495	0.013013025
56	0xbc11f312	-0.00890805
57	0x3b493cf5	0.00307065
58	0xbd2d46e1	-0.042303924
59	0x3986f1c2	0.00025738595
60	0xbc13134a	-0.008976767
61	0xbd119c76	-0.035549603
62	0xbcfa4e4c	-0.030554913
63	0x3cb9288e	0.022602346
64	0xbc9050a8	-0.017616585
65	0x3ac27aa3	0.0014837574
66	0x3bf461b2	0.0074579353
67	0xbd75860b	-0.059942286
68	0xbc843a46	-0.016141068
69	0xbd87a989	-0.06624133
70	0x3cbf69f7	0.023365958
71	0x3d0bf327	0.034167435
72	0xbc53da2a	-0.012930432
73	0x3c8e5fdd	0.017379696
74	0xbac89081	-0.0015301855
75	0xbbccd53e	-0.0062510064
76	0x3c539b48	0.01291544
77	0xbd1cfc71	-0.038326684
78	0xbd4aaf57	-0.049483623
79	0x3b2a1b44	0.0025956193
80	0xbd5d4871	-0.054024164
81	0xbd6a94bc	-0.05727075
82	0xbd3c3306	-0.045947097
83	0x3bb742c1	0.0055926745
84	0xbccefe31	-0.025267692
85	0xbc0316f3	-0.008001077
86	0xbc93a695	-0.018023768
87	0xbcc63817	-0.024196668
88	0xbd200ca1	-0.039074544
89	0xbc6544fb	-0.013993497
90	0x3d37cdc9	0.044873986
91	0xbc59c269	-0.01329098
92	0xbcf9c7e4	-0.030490823
93	0xbb7d610a	-0.0038662576
94	0x3cd90a73	0.02649424
95	0xbc46afed	-0.012126905
96	0x3c7c56b7	0.015401534
97	0x3d04b541	0.03239942
98	0xbd73d821	-0.05953229
99	0xbd4b249b	-0.049595457
100	0xbd18446e	-0.037174635
101	0x3d1fb686	0.038992427
102	0x3cc10540	0.023562074
103	0x3ce98d45	0.028509745
104	0xbcb99795	-0.022655288
105	0xbd1d5e0f	-0.03841978
106	0x3cba075c	0.022708587
107	0xbd09c85a	-0.033638336
108	0xbcc404c1	-0.023928048
109	0x3d3daca7	0.046307232
110	0x3a909157	0.0011029643
111	0xbd3e7b4d	-0.046504308
112	0x3d0179b8	0.03161022
113	0x3bc5f958	0.006041687
114	0x3c4e4ef7	0.012592069
115	0x3d818d21	0.06325746
116	0x3d0558db	0.032555442
117	0xbd2d9ab2	-0.042383857
118	0xbb92da74	-0.004481608
119	0xbcd46d9e	-0.025931176
120	0xbd8c195f	-0.06840777
121	0xbcf78439	-0.030214416
122	0x3ce67a1b	0.028134396
123	0xbc8e5137	-0.01737271
124	0xbc6a04d4	-0.014283378
125	0x3bc36e29	0.00596406
126	0xbc9975ea	-0.018732984
127	0xbcf4110e	-0.029793289
128	0x3c9b9de0	0.01899618
129	0x3b86957d	0.004107176
130	0xbb2df192	-0.0026541692
131	0x3d9f6a04	0.07783893
132	0x3d417ae5	0.047236342
133	0x3d1cf9e7	0.038324263
134	0xbd07d28f	-0.03315979
135	0xbd895918	-0.067064464
136	0x3ca03f64	0.019561477
137	0x3c1f8781	0.0097368965
138	0x3ccaeb83	0.024770504
139	0x3d5f4dcf	0.054517563
140	0x3c1fda00	0.009756565
141	0x3c025dae	0.007956905
142	0x3c43bcc5	0.011946862
143	0xbcd75581	-0.026285889
144	0x3bdf7b1b	0.0068200952
145	0x3b79293b	0.003801896
146	0x3ba3e3c8	0.005001519
147	0x3cdc58a5	0.026897738
148	0x3cc249aa	0.023716766
149	0x3c2a9035	0.010410358
150	0xbc844fc3	-0.016151315
151	0xbd5cb96e	-0.053887777
152	0xbd41ccf5	-0.047314603
153	0x3d08bbc0	0.033382177
154	0x3ba235a8	0.004950244
155	0xbc8332fc	-0.016015522
156	0xbc967b2f	-0.018369285
157	0xbdecc18f	-0.11560356
158	0x3dba7cf0	0.09105861
159	0x3cfe4722	0.031039778
160	0xbddad512	-0.10685171
161	0x3c8e73b0	0.017389148
162	0x3d2f89af	0.042855915
163	0xbcce4b9a	-0.025182534
164	0xbcdb9c0d	-0.02680781
165	0xbd309bcb	-0.043117326
166	0xbce4d95d	-0.027935678
167	0xbcdf254b	-0.027239462
168	0xbcfd6939	-0.030933963
169	0xbd185808	-0.03719333
170	0x3d0d8953	0.03455479
171	0xbd81e89a	-0.06343193
172	0xbd899a30	-0.06718862
173	0x3cc4ccd9	0.02402346
174	0x3d91d44f	0.07120573
175	0xbcea8369	-0.028627114
176	0x3caf7e84	0.021422632
177	0xbbe1f291	-0.0068953712
178	0xbd303a30	-0.043024242
179	0x3d0f698d	0.03501277
180	0xbd6c73e4	-0.05772771
181	0xbd5eeff9	-0.054428075
182	0x3d79291b	0.060830217
183	0xbb7bcc74	-0.0038421424
184	0x3ce87f89	0.028381126
185	0x3ce3b630	0.027796835
186	0xbd516353	-0.051120114
187	0xbc285ca6	-0.010275995
188	0x3bb925d9	0.0056502637
189	0x3d3c81ef	0.04602235
190	0xbd4e8882	-0.050423153
191	0xbcd6b364	-0.026208587
192	0x3b572985	0.0032831144
193	0xbd973b2f	-0.07384335
194	0x3cf95078	0.030433878
195	0x3c7423a2	0.014901074
196	0x3cf680bc	0.030090682
197	0xbd1c70c9	-0.038193498
198	0xbc9db2fc	-0.019250385
199	0x3b9b6575	0.004742319
200	0xbd44599c	-0.04793702
201	0x3d84ea42	0.06489994
202	0xbcd2d051	-0.025734099
203	0x3bf7783f	0.0075521762
204	0x3cf6fa38	0.03014861
205	0x3d179557	0.037007656
206	0xbc730abb	-0.014834101
207	0xbcc7039a	-0.02429371
208	0x3a913a0a	0.0011079919
209	0xbc498f6c	-0.012302261
210	0x3c638b6b	0.01388822
211	0x3d29bcd6	0.041439854
212	0x3ba3ba60	0.004996583
213	0xbd3774ab	-0.044788998
214	0x3cf85a9d	0.030316645
215	0xbd55fd2a	-0.05224339
216	0xbd5e09bd	-0.054208506
217	0xbcb3c4d6	-0.021944445
218	0xbc5d7a45	-0.013517921
219	0xbd1a89b4	-0.03772898
220	0x3ca9ad71	0.020712586
221	0xbd5ce9a1	-0.053933743
222	0xbc96803b	-0.018371692
223	0xbcb9c2bf	-0.02267587
224	0xbcb8f4aa	-0.022577602
225	0xbd9166df	-0.07099699
226	0xbc6ba4ce	-0.014382554
227	0x3cda5400	0.026651382
228	0xbc6de866	-0.01452074
229	0x3d785ee7	0.06063738
230	0x3c870546	0.016482007
231	0xbd4100f4	-0.04712005
232	0xbd1aaf3f	-0.037764784
233	0xbd8b4d3d	-0.068018414
234	0xbd5ce65d	-0.05393063
235	0x3cd4b247	0.025963916
236	0x3cd332b9	0.025781022
237	0x3c48af65	0.012248849
238	0xbd6d7e4c	-0.057981774
239	0x3cb39bd1	0.021924885
240	0x3cce820f	0.025208501
241	0xbca8658b	-0.020556232
242	0x3cb38929	0.021915989
243	0xbb96a2e2	-0.004597054
244	0xbcb957e6	-0.022624921
245	0x3c889a18	0.01667504
246	0x3c76851c	0.015046384
247	0x3d0a92e1	0.03383148
248	0x3d3c426a	0.045961775
249	0xbd67ba97	-0.05657443
250	0x3d39e1ec	0.04538147
251	0xbc87072e	-0.016482916
252	0x3ca62247	0.020280017
253	0x3d14d44e	0.036335282
254	0xba813c35	-0.0009859862
255	0xbd55c356	-0.05218824

layer2.0.bias f4 [128]
0	0xbbac98f6	-0.005267258
1	0xbd454314	-0.048159674
2	0x39e031de	0.00042761763
3	0x39e9d63a	0.00044600834
4	0xbcc582a4	-0.024110146
5	0xbc953390	-0.018213063
6	0xbca2406b	-0.019806108
7	0x3d4852fc	0.048907265
8	0xbca94cbb	-0.02066647
9	0xbd037d87	-0.032102134
10	0xbd7151aa	-0.05891577
11	0xbd486217	-0.04892167
12	0xbd175640	-0.03694749
13	0x3d1b8245	0.03796603
14	0x3cda12d8	0.026620314
15	0xbcc0958a	-0.023508806
16	0x3ce55a10	0.027997047
17	0x3b599993	0.003320311
18	0x3c9ac067	0.018890573
19	0x3cdc65c1	0.026903989
20	0xbd89c453	-0.06726899
21	0x3c30cb35	0.010790636
22	0xbcc5008c	-0.024048112
23	0x3bcfd087	0.006341997
24	0x3d3cabd2	0.046062298
25	0xbd070004	-0.032959
26	0xbcfece21	-0.03110415
27	0xbd56b5be	-0.052419417
28	0xbc3f8ef3	-0.011691797
29	0x3cca06c9	0.024661439
30	0x3c8365da	0.016039778
31	0xbca5c49b	-0.02023535
32	0xbdbe6b3b	-0.09297796
33	0xbd0d79ca	-0.034539975
34	0xbc7d0aba	-0.015444452
35	0xbbe6567e	-0.0070293536
36	0xbdb786d8	-0.08961266
37	0xbd722978	-0.05912158
38	0xbbb86c5b	-0.0056281514
39	0xbda861b6	-0.08221762
40	0xbc193329	-0.009350576
41	0xb9f38527	-0.00046447778
42	0x3c0b8bf4	0.008517254
43	0xbd167529	-0.036732826
44	0xba050004	-0.00050735497
45	0xbad062fa	-0.0015898638
46	0x3c32e014	0.010917682
47	0x3b05a2bd	0.002039119
48	0xbd4bc100	-0.049744606
49	0x3c135cd2	0.008994298
50	0xbce0950a	-0.027414817
51	0x3cb40483	0.021974808
52	0xbd46ba5a	-0.048517562
53	0xbc063d9b	-0.008193399
54	0xbdf6325f	-0.12021326
55	0xbd338b06	-0.043833755
56	0xbd6ed473	-0.058308076
57	0x3cb52153	0.022110617
58	0xbd306caa	-0.04307238
59	0x3c517843	0.01278502
60	0x3cdccab3	0.026952123
61	0x3b913584	0.0044314284
62	0xbd269511	-0.040669505
63	0xbce6018f	-0.028076915
64	0xbd1d6e2c	-0.038435146
65	0xbb718a92	-0.0036856276
66	0x3c5e904c	0.013584208
67	0x3d387b7a	0.04503963
68	0xbaeb8e49	-0.0017971481
69	0xbc8f946c	-0.017526828
70	0x3d325944	0.04354216
71	0x39b08f49	0.00033676092
72	0xbcbfa199	-0.023392485
73	0xbc99ffe2	-0.018798772
74	0xbcb55ac8	-0.022138014
75	0x3d1a16d3	0.037619423
76	0xbd0a926c	-0.033831045
77	0xbca70695	-0.02038888
78	0xbdbba7b5	-0.09162847
79	0x3c355d88	0.011069663
80	0xbc84d3e5	-0.01621432
81	0xbd87851f	-0.06617188
82	0xbd3fd50a	-0.04683403
83	0xbc373919	-0.011183047
84	0xbc03edef	-0.008052333
85	0xbb5223a4	-0.00320647
86	0x3cae92f3	0.021310305
87	0xbd13f4e9	-0.036122236
88	0x3cf388d3	0.029728329
89	0x3c9c2a34	0.019063093
90	0x3c8119e3	0.015759414
91	0xbccf9f7c	-0.025344603
92	0xbbd50656	-0.0065009994
93	0xbce41661	-0.027842702
94	0xbc366c90	-0.011134282
95	0xbcf50687	-0.029910339
96	0x3c2b7d5e	0.010466902
97	0xbcca5e44	-0.024703152
98	0xbd0937c7	-0.03350046
99	0x3d8407b8	0.06446785
100	0xbb939ce6	-0.0045047877
101	0x3c55d8ec	0.0130522065
102	0x3d213051	0.03935272
103	0x39206f5e	0.00015300277
104	0x3bbd9803	0.0057859435
105	0xbd82e3e6	-0.063911244
106	0xbd438c30	-0.047741115
107	0xbdae3b90	-0.085074544
108	0xbc842f01	-0.016135694
109	0xbc633a8b	-0.013868938
110	0xbcf26b7f	-0.029592274
111	0x3d025d28	0.031827122
112	0x3c88c986	0.016697656
113	0xb8d85c2b	-0.0001031685
114	0xbdc6569c	-0.09684488
115	0xbcc0496e	-0.023472514
116	0xbd169592	-0.036763735
117	0xbd260ba8	-0.04053846
118	0xbc8f8041	-0.01751721
119	0xbc1f64d1	-0.009728626
120	0x3d4b8f6c	0.049697325
121	0x3cab4cd3	0.020910656
122	0x3d0fc6f4	0.035101846
123	0xbd05d2ae	-0.032671623
124	0xbd99965c	-0.07499382
125	0xbcace0fc	-0.021103375
126	0xbd02517b	-0.031815987
127	0xbd40cd08	-0.047070533

layer2.2.weight f4 [128]
0	0x3f826a60	1.0188713
1	0x3f6ff47d	0.93732435
2	0x3f8063b2	1.0030425
3	0x3f775b1e	0.9662341
4	0x3f80db86	1.0066993
5	0x3f7bfd20	0.98433113
6	0x3f84f024	1.0385785
7	0x3f8156ac	1.0104575
8	0x3f753825	0.95788795
9	0x3f844dff	1.0336303
10	0x3f7ee17b	0.99562806
11	0x3f7d4eb1	0.989482
12	0x3f80bc05	1.0057379
13	0x3f802e7b	1.0014185
14	0x3f783efa	0.96971095
15	0x3f7b35eb	0.9812915
16	0x3f78071f	0.96885866
17	0x3f826307	1.0186471
18	0x3f83b54e	1.0289705
19	0x3f73e4e8	0.9527116
20	0x3f7e15d9	0.99252087
21	0x3f7f5bdf	0.9974956
22	0x3f865c76	1.0496967
23	0x3f7aa936	0.97914445
24	0x3f7abf18	0.97947836
25	0x3f74495d	0.95424443
26	0x3f80f351	1.0074254
27	0x3f7ae448	0.9800458
28	0x3f84e8bc	1.0383525
29	0x3f80b85d	1.0056263
30	0x3f810fa9	1.0082904
31	0x3f83c24d	1.0293671
32	0x3f7e4548	0.99324465
33	0x3f7bc6ec	0.98350406
34	0x3f82b465	1.0211302
35	0x3f7e4c1e	0.99334896
36	0x3f86da09	1.0535289
37	0x3f7fdd52	0.99947083
38	0x3f865249	1.0493861
39	0x3f76aae0	0.96354485
40	0x3f848aa0	1.0354805
41	0x3f787098	0.97046804
42	0x3f762e98	0.96164846
43	0x3f7c0b11	0.98454386
44	0x3f8695c7	1.0514458
45	0x3f7634dd	0.9617441
46	0x3f825d88	1.0184793
47	0x3f78c572	0.9717628
48	0x3f77cf2a	0.9680048
49	0x3f859bdb	1.0438188
50	0x3f83639a	1.0264771
51	0x3f7a8a83	0.978676
52	0x3f7d7b3c	0.99016166
53	0x3f7ab8fe	0.97938526
54	0x3f78cd82	0.9718858
55	0x3f867aa7	1.050618
56	0x3f82aada	1.020839
57	0x3f7508aa	0.95716345
58	0x3f83490f	1.0256671
59	0x3f768369	0.96294266
60	0x3f805c11	1.0028096
61	0x3f7ca24d	0.9868515
62	0x3f7c2e24	0.98507905
63	0x3f7748e6	0.9659561
64	0x3f8357d2	1.0261176
65	0x3f7554b2	0.9583236
66	0x3f850651	1.0392553
67	0x3f7f6cc5	0.99775344
68	0x3f7626df	0.9615306
69	0x3f7e22da	0.9927193
70	0x3f7c4964	0.98549485
71	0x3f7b3da1	0.98140913
72	0x3f797436	0.9744295
73	0x3f7d6117	0.9897627
74	0x3f807b68	1.0037661
75	0x3f8011fd	1.000549
76	0x3f7498a7	0.9554543
77	0x3f84b174	1.0366654
78	0x3f839239	1.0278999
79	0x3f83ef8f	1.0307482
80	0x3f7fc75b	0.9991357
81	0x3f741c4c	0.9535568
82	0x3f7c0ab3	0.98453826
83	0x3f76981f	0.9632587
84	0x3f802e6c	1.0014167
85	0x3f881f4f	1.0634555
86	0x3f8056d7	1.0026501
87	0x3f6e68c2	0.931286
88	0x3f850014	1.0390649
89	0x3f846001	1.0341798
90	0x3f803fd5	1.001948
91	0x3f80003c	1.0000072
92	0x3f8038eb	1.001737
93	0x3f7a0031	0.9765654
94	0x3f7ff9e6	0.9999069
95	0x3f82ddb3	1.0223907
96	0x3f7e74ec	0.9939716
97	0x3f7c77de	0.986204
98	0x3f827769	1.0192691
99	0x3f807675	1.003615
100	0x3f825605	1.0182501
101	0x3f71bbbb	0.9442708
102	0x3f784ad7	0.96989197
103	0x3f83108c	1.0239425
104	0x3f6fe2fe	0.9370574
105	0x3f7ddcd9	0.9916511
106	0x3f7b1a4a	0.9808699
107	0x3f7b1fc2	0.98095334
108	0x3f829c38	1.0203924
109	0x3f816a65	1.0110594
110	0x3f80ee82	1.0072787
111	0x3f86e7b7	1.0539464
112	0x3f721421	0.94561964
113	0x3f75c90c	0.960099
114	0x3f889330	1.0669918
115	0x3f7dbafc	0.9911344
116	0x3f7fa9d3	0.99868506
117	0x3f7e7394	0.9939511
118	0x3f81fa4f	1.0154513
119	0x3f73cd8e	0.95235527
120	0x3f81d030	1.0141659
121	0x3f82a369	1.0206119
122	0x3f87df48	1.0615015
123	0x3f80d7fb	1.0065912
124	0x3f80bb1c	1.0057101
125	0x3f846b38	1.034522
126	0x3f7b8136	0.98244035
127	0x3f762560	0.9615078

layer2.2.bias f4 [128]
0	0x3d72a05b	0.05923496
1	0x3d3226e1	0.04349411
2	0x3dbc7286	0.09201531
3	0x3d90d887	0.07072549
4	0x3d4fb768	0.05071202
5	0xbcfef49f	-0.031122504
6	0x3d6d2cae	0.057903938
7	0x3d5a5e26	0.053312443
8	0x3d001f78	0.03128001
9	0x3d19b6df	0.037527915
10	0x3cdaa03d	0.026687736
11	0xbd199193	-0.037492346
12	0x3cf20f26	0.029548239
13	0x3dd76221	0.105167635
14	0xbd1bc842	-0.038032778
15	0x3b19205e	0.002336524
16	0x3da47292	0.08029665
17	0x3d1b45b5	0.037908275
18	0x3dc9d13b	0.09854361
19	0xbb779990	-0.003778074
20	0x3d2c8c4b	0.04212598
21	0x3d3a1df3	0.045438718
22	0x3cfd5cb6	0.030927997
23	0xbcea57da	-0.028606344
24	0x3d96a517	0.07355707
25	0xbc47f1d4	-0.012203652
26	0x3d25285d	0.040321697
27	0x3d681b09	0.056666408
28	0xbd81f24a	-0.06345041
29	0x3d2925de	0.04129588
30	0xbc82070d	-0.015872503
31	0x3de02b58	0.10945767
32	0x3d379abf	0.04482531
33	0x3cab4cdb	0.020910671
34	0x3dcc7c4c	0.09984645
35	0x3d1217a7	0.035667088
36	0x3c2ac806	0.010423666
37	0x3dc13a57	0.094349556
38	0x3d67d4ad	0.056599308
39	0x3d201082	0.039078243
40	0x3d5ade9a	0.053434946
41	0x3d410349	0.047122274
42	0x3bd3737c	0.006452976
43	0x3bd1718c	0.0063917097
44	0xbcb43c22	-0.02200133
45	0x3d842366	0.06452064
46	0x3c917a00	0.01775837
47	0xbb640594	-0.0034793364
48	0x3dd5e12d	0.104433395
49	0x3de701df	0.11279654
50	0x3d0ca44e	0.03433638
51	0x3d30169c	0.042990312
52	0x3c9c3d74	0.019072272
53	0x3d926481	0.07148076
54	0xbbf26214	-0.0073969457
55	0x3d32d909	0.043664012
56	0xbb307fc7	-0.002693163
57	0x3ac2b92a	0.0014856209
58	0x3c8ffeaf	0.017577497
59	0x3d17c8c7	0.03705671
60	0x3d04a608	0.032384902
61	0x3b1df152	0.0024100137
62	0x3d3dcfba	0.04634068
63	0x3d4a9d48	0.0494664
64	0x3c6b2c14	0.014353771
65	0x3d966a65	0.07344512
66	0x3ce70e5d	0.028205091
67	0x3cff58e9	0.031170325
68	0xbac47b3e	-0.0014990342
69	0xbb4483ac	-0.002998571
70	0x3c5d200e	0.013496412
71	0x3ca72501	0.020403387
72	0x3cedc6e8	0.02902551
73	0x3d33ae4f	0.043867406
74	0x3da04585	0.0782576
75	0x3dd2efb5	0.10299627
76	0xbb37a02d	-0.0028019056
77	0x3cf44955	0.029820124
78	0xbd5ded35	-0.054181296
79	0xbc4112f9	-0.011784309
80	0x3d2b93f1	0.041889135
81	0x3dc535b9	0.096293874
82	0x3a48bbba	0.0007657368
83	0x3d15cd66	0.036572836
84	0x3d3ad2f5	0.04561134
85	0x3e0b9a26	0.13633022
86	0x3be8c7df	0.0071039046
87	0x3dc634f2	0.09678067
88	0x3d33b915	0.04387768
89	0x3d95297a	0.07283302
90	0x3d01c85a	0.03168521
91	0xbbb7e692	-0.005612203
92	0xbc2064b8	-0.009789638
93	0x3d0ae53b	0.033910017
94	0x3d460dc0	0.048352957
95	0x3bfa845f	0.0076451744
96	0x3d3da994	0.0463043
97	0xbabc7b49	-0.0014380004
98	0x3c62c83d	0.013841686
99	0x3da99f4b	0.08282336
100	0x3c97377d	0.018459076
101	0x3d01883a	0.031624056
102	0xbc5a3798	-0.013318919
103	0x3d190c13	0.03736503
104	0x3d8c910a	0.068636015
105	0x3d11bf72	0.035582967
106	0x3d6f6dc1	0.05845428
107	0x3cdcb1ee	0.026940312
108	0x3d18b04d	0.03727751
109	0x3d5943a4	0.053043023
110	0x3ce2d245	0.027688155
111	0xbd05036a	-0.03247396
112	0x3d00ea5e	0.03147351
113	0x3d0a651c	0.03378783
114	0xbc1e7274	-0.009670842
115	0x3d73ebef	0.059551176
116	0x3d382aa1	0.04496253
117	0x3d8df73e	0.06931923
118	0x3d70dae9	0.05880252
119	0x3d55b119	0.052170847
120	0xbc0fcf6a	-0.008777479
121	0xbd9a6938	-0.075396
122	0x3cefec20	0.029287398
123	0x3d00ddec	0.03146164
124	0x3dd32dc9	0.10311467
125	0x3ccf9b6e	0.02534267
126	0x3d5543c0	0.052066565
127	0x3d37b788	0.044852763

layer2.2.running_mean f4 [128]
0	0x3ef4f2c3	0.47841462
1	0x3f05bc58	0.52240515
2	0x3edcb83a	0.43109304
3	0x3f9a2b2e	1.2044427
4	0x3ed489b4	0.4151131
5	0x3ed1e4d6	0.409949
6	0x3f771761	0.9652005
7	0x3f727210	0.94705296
8	0x3f30f87d	0.69129163
9	0x3f1c56ae	0.6106976
10	0x3f6a6443	0.9155924
11	0x3f07ed46	0.53096426
12	0x3f3e6fbe	0.74389255
13	0x3f64b9bf	0.89345926
14	0x3f7290c8	0.9475217
15	0x3f13224d	0.57474214
16	0x3f37d7c8	0.7181363
17	0x3efa98ce	0.48944706
18	0x3f57f2cb	0.8435485
19	0x3f6bc1e4	0.9209273
20	0x3edc918f	0.43079802
21	0x3ef8da2a	0.48603946
22	0x3f0a0574	0.5391457
23	0x3f2d3466	0.6765808
24	0x3f67d6f8	0.9056239
25	0x3f37dda4	0.7182257
26	0x3f61f673	0.88266677
27	0x3f47d85d	0.7806452
28	0x3f0da515	0.5533002
29	0x3f4a61dc	0.7905557
30	0x3ef3ad37	0.4759309
31	0x3f36cfd5	0.71410877
32	0x3e9e2369	0.3088639
33	0x3ebf048f	0.37308165
34	0x3f2780c5	0.6543086
35	0x3f1569e1	0.58364683
36	0x3f15974b	0.5843398
37	0x3f0f9311	0.5608378
38	0x3f2b7f9d	0.669916
39	0x3f2fa676	0.68613374
40	0x3f25cd30	0.64766216
41	0x3ee7fca1	0.45309928
42	0x3eec9256	0.46205395
43	0x3ee5abe8	0.44857717
44	0x3f201d6f	0.6254491
45	0x3f5f1bbf	0.8715171
46	0x3f29948e	0.662423
47	0x3f00e175	0.5034402
48	0x3f195d35	0.5990785
49	0x3f338394	0.7012265
50	0x3f161f15	0.5864118
51	0x3f132748	0.57481813
52	0x3ea4bdbd	0.3217601
53	0x3ef21cf9	0.4728773
54	0x3ee4c660	0.44682598
55	0x3f5460d1	0.8296023
56	0x3f513061	0.81714445
57	0x3eedcc54	0.46444952
58	0x3ee842d6	0.45363492
59	0x3f619418	0.881166
60	0x3eed0c0a	0.46298248
61	0x3f191673	0.5979988
62	0x3f459eb6	0.771953
63	0x3f263bcb	0.64934987
64	0x3f282d33	0.6569397
65	0x3f01ca17	0.5069899
66	0x3f0008ca	0.5001341
67	0x3f7f125e	0.996374
68	0x3f82594c	1.0183501
69	0x3eef4c48	0.46737885
70	0x3f8f4d55	1.1195475
71	0x3f40cadf	0.75309557
72	0x3f07a685	0.52988464
73	0x3ef978bb	0.48724923
74	0x3f295310	0.6614237
75	0x3f38851e	0.7207812
76	0x3f1ddc35	0.61664134
77	0x3f5dddbe	0.86666477
78	0x3ed1e529	0.40995148
79	0x3f4c7b3c	0.7987554
80	0x3ef7a44d	0.4836754
81	0x3f415d52	0.7553302
82	0x3f052d1e	0.5202197
83	0x3f99ef8a	1.2026227
84	0x3eefc220	0.46827793
85	0x3f3768be	0.716442
86	0x3f2a4b42	0.66521084
87	0x3f28cf54	0.6594136
88	0x3f2617c3	0.6488001
89	0x3f13ff39	0.57811314
90	0x3f0245d1	0.5088778
91	0x3f558277	0.834022
92	0x3ee84b5c	0.45369995
93	0x3f0c3a6c	0.54776645
94	0x3f202573	0.6255714
95	0x3f0719de	0.52773845
96	0x3ef1b404	0.47207654
97	0x3edf137f	0.43569562
98	0x3f0eb602	0.5574647
99	0x3f2d58a5	0.67713386
100	0x3f48bcdc	0.78413177
101	0x3f1c056c	0.60945773
102	0x3f4d5f1a	0.8022324
103	0x3f36a39c	0.713434
104	0x3f5f0d6d	0.8712986
105	0x3f1d9fbe	0.6157187
106	0x3ec96f9e	0.3934297
107	0x3ef597b2	0.47967297
108	0x3f11033b	0.56645554
109	0x3eea701c	0.45788658
110	0x3f342aee	0.70378006
111	0x3f4208e9	0.75794846
112	0x3f2793c0	0.65459824
113	0x3ed57d6c	0.41697252
114	0x3ef28af3	0.47371635
115	0x3ef76e4a	0.4832633
116	0x3f45dfa1	0.77294356
117	0x3f2d4e2b	0.676974
118	0x3f3dce9c	0.74143386
119	0x3eb87e10	0.36033678
120	0x3f70ff8f	0.9413995
121	0x3f47749e	0.7791232
122	0x3f0dc568	0.55379343
123	0x3f528d00	0.822464
124	0x3f1b8a93	0.6075832
125	0x3f52e731	0.8238402
126	0x3f120607	0.57040447
127	0x3f2da68d	0.6783226

layer2.2.running_var f4 [128]
0	0x3f073cec	0.52827334
1	0x3feafadd	1.8357807
2	0x3f3f2ae6	0.7467483
3	0x40878a7a	4.235654
4	0x3f94458f	1.1583728
5	0x3f69634c	0.9116714
6	0x3fbe8756	1.4885051
7	0x3f4d7e96	0.8027128
8	0x3f0f71e4	0.5603316
9	0x3f6cd6b4	0.9251511
10	0x4041a5b4	3.0257387
11	0x3f2e6eaa	0.6813761
12	0x3f403fdc	0.7509744
13	0x40235599	2.5520995
14	0x3fd4a4e0	1.6612816
15	0x401202b0	2.281414
16	0x3ffe898a	1.9885724
17	0x3ea4dd95	0.32200304
18	0x3f7c0ff3	0.98461837
19	0x3fa9bffc	1.3261714
20	0x3ff7e159	1.9365646
21	0x3fcb23ea	1.5870335
22	0x3f8738dd	1.0564228
23	0x402f7e4b	2.7420833
24	0x3f4dbe54	0.8036854
25	0x3f73a8c5	0.95179397
26	0x3f87ef5a	1.0619919
27	0x400518ea	2.0796456
28	0x3fa399fb	1.2781366
29	0x3f957fdd	1.1679646
30	0x3fad56b0	1.354208
31	0x3f375158	0.71608496
32	0x3f8b531b	1.0884737
33	0x3f3eee9f	0.74582857
34	0x3f7fb5e2	0.99886906
35	0x3fbff12c	1.4995475
36	0x3f713d41	0.9423409
37	0x3ee624ce	0.44949955
38	0x3f13d454	0.5774586
39	0x4073713c	3.8037863
40	0x3f3aba26	0.7294029
41	0x3ec3a27b	0.382099
42	0x3ec6bc2e	0.38815445
43	0x3fad33dc	1.3531451
44	0x3efe9ea6	0.49730414
45	0x40c3ae39	6.1150174
46	0x3f8871df	1.0659751
47	0x3f1d999b	0.6156251
48	0x3ff2fded	1.8983742
49	0x3f13d9e2	0.5775434
50	0x401fe515	2.498357
51	0x3fda53b4	1.7056794
52	0x3f6cbe0b	0.9247748
53	0x3ffb61f1	1.9639264
54	0x3fdf4e4e	1.7445772
55	0x3f95eaab	1.171224
56	0x3f43aa3e	0.76431644
57	0x3f5774de	0.841627
58	0x3ecffec7	0.40624067
59	0x4010c5f9	2.2620833
60	0x3fa2f7ba	1.273185
61	0x3fa23f8f	1.2675647
62	0x3ff4711d	1.909702
63	0x4005728e	2.0851169
64	0x3f61b957	0.8817343
65	0x3fb6e752	1.4289343
66	0x3f91f11c	1.1401706
67	0x3ff276f2	1.8942549
68	0x3fba2c48	1.4544764
69	0x3f1c27f0	0.6099844
70	0x402c0337	2.6876962
71	0x401673e0	2.3508224
72	0x402b8f32	2.680615
73	0x3fe87ca3	1.8163036
74	0x4005bf13	2.0897872
75	0x3fcfce68	1.6234865
76	0x3f17ddd3	0.5932285
77	0x3fee66c6	1.8625114
78	0x3faefd71	1.3671094
79	0x3fed2a3f	1.8528517
80	0x3f85c41b	1.0450472
81	0x3fada1fc	1.3565059
82	0x3ffb4461	1.9630243
83	0x408a310e	4.318488
84	0x3f413f4f	0.75487226
85	0x3f5494ee	0.8303975
86	0x3f1567d3	0.5836155
87	0x403edeb8	2.9823437
88	0x3f0ffd60	0.56245995
89	0x3f1bdbca	0.60882246
90	0x3f4640ef	0.7744283
91	0x4015afd3	2.3388565
92	0x3f7e94ea	0.99445975
93	0x3fe11de6	1.7587249
94	0x3fbb785e	1.4646108
95	0x3f291c82	0.66059124
96	0x3ec39155	0.38196817
97	0x3fcc7ab1	1.5974942
98	0x3fedf8d2	1.8591559
99	0x3fe773f2	1.8082259
100	0x3f6e287a	0.9303051
101	0x3fcbcf91	1.5922719
102	0x3fc45803	1.5339359
103	0x3fb7e646	1.4367149
104	0x40a3b5db	5.115949
105	0x400fb6d8	2.245535
106	0x3fdbc421	1.7169229
107	0x3fff503f	1.9946364
108	0x3f26348b	0.64923924
109	0x3fad442c	1.353643
110	0x3fc5dd40	1.5458145
111	0x3f873594	1.0563226
112	0x406091bd	3.5088952
113	0x3fb4a7f7	1.4113759
114	0x3eb42a24	0.351884
115	0x3f17e4f3	0.59333724
116	0x404c6c53	3.1941116
117	0x3ff690ac	1.92629
118	0x3fc2a62c	1.5206962
119	0x3f1b4e8b	0.6066672
120	0x3f92499b	1.1428713
121	0x3f777335	0.96660167
122	0x3f15eb9d	0.5856264
123	0x3f87384d	1.0564057
124	0x3f835d99	1.0262939
125	0x401f3748	2.487749
126	0x3fa0e6db	1.2570451
127	0x40624f7d	3.5361016

layer3.0.weight f4 [64, 128, 7]
0	0xbd8eff24	-0.06982258
1	0xbcca93a1	-0.024728598
2	0xbcf7de76	-0.030257445
3	0x3d0c0c25	0.03419127
4	0x3cbe3b2c	0.023221575
5	0x3c3b058b	0.011414896
6	0xbd3b1af5	-0.045680005
7	0xbd2bfa6f	-0.04198688
8	0x3c10eef3	0.008846032
9	0x3d258f2a	0.040419735
10	0x3a7e6a5a	0.00097051787
11	0xbc3ca3ce	-0.011513663
12	0x3d3664fe	0.044529907
13	0xbcd0f55a	-0.025507618
14	0x3c0934e4	0.0083744265
15	0x3c5435f5	0.0129523175
16	0x3cead47f	0.02866578
17	0x3c76e344	0.015068833
18	0x3cbd7c58	0.02313058
19	0xbd4e4a61	-0.050363902
20	0xba676891	-0.00088275323
21	0x3ccf196d	0.025280679
22	0x3cbe48ff	0.023228167
23	0x3cf0684d	0.02934661
24	0xbcd037b1	-0.02541718
25	0xbd0deb4d	-0.03464823
26	0xbc424a8a	-0.011858592
27	0xbc29b206	-0.0103573855
28	0x3d235ad2	0.039881535
29	0x3c7c5266	0.015400505
30	0x39909523	0.00027576936
31	0x3d244982	0.040109165
32	0xbc2b3770	-0.010450229
33	0xbd42093f	-0.0473721
34	0xbcb1333e	-0.02163088
35	0xbdaa9ef1	-0.08331097
36	0xbd5c4810	-0.05377966
37	0x3c9d74ee	0.019220795
38	0x3cfe1c80	0.03101945
39	0xbcfbb1b0	-0.030724376
40	0xbd1de8c2	-0.038552053
41	0xbcdcd702	-0.026957992
42	0x3cd6e935	0.026234249
43	0xbbea79db	-0.0071556396
44	0x3c8fe127	0.017563416
45	0x3d2ade94	0.041716173
46	0xbd905392	-0.0704719
47	0xbcf368cf	-0.029713063
48	0xbd7f6361	-0.062350634
49	0x3ce2c681	0.027682545
50	0x3c65cf5b	0.014026488
51	0x3d39d497	0.045368757
52	0x3d6e6ae5	0.05820741
53	0xbcb5e1ce	-0.022202399
54	0xbd038f5d	-0.032119144
55	0xbc767d98	-0.015044592
56	0xbcf50f06	-0.02991439
57	0xbd064563	-0.032781016
58	0x3cc9aea1	0.024619402
59	0x3d2a82bd	0.041628588
60	0x3cd2e703	0.02574492
61	0xbc121bb7	-0.008917741
62	0x3c4e6903	0.012598279
63	0x3d3ddbfe	0.04635238
64	0xbccc4cc0	-0.024938941
65	0xba824a0f	-0.0009940284
66	0x3d2cfa66	0.042230986
67	0x3d24f855	0.04027589
68	0x3c8b6670	0.01701662
69	0x3be01372	0.0068382556
70	0xbc7a2f83	-0.015270117
71	0xbcc466d3	-0.023974812
72	0xba5da33d	-0.00084548054
73	0xbcf9be69	-0.030486302
74	0xbd1350d1	-0.035965744
75	0xba83ef5d	-0.0010065843
76	0xbbd0fbe1	-0.0063776826
77	0xbd3d1809	-0.0461655
78	0x3d8074ef	0.06272303
79	0x3d26eee5	0.04075517
80	0xbcc410ee	-0.023933854
81	0xbbfce832	-0.0077181095
82	0x3cacfe9a	0.021117497
83	0x3c4187e4	0.011812184
84	0x3a9d81ad	0.0012016796
85	0xbb79380e	-0.0038027796
86	0x3d1e390c	0.038628623
87	0x3d063fbe	0.032775633
88	0xbba1525d	-0.0049231485
89	0x3be07485	0.0068498277
90	0x3ca3ab62	0.019979183
91	0x3c9a281f	0.01881796
92	0x3d236098	0.03988704
93	0xbc3b4e9a	-0.011432314
94	0x3c6cb281	0.0144468555
95	0x3d2907fa	0.041267373
96	0xbc5b0679	-0.013368242
97	0xba88eaa9	-0.0010445911
98	0x3c35354d	0.011060071
99	0xbce5d21a	-0.028054286
100	0x3d1db915	0.038506586
101	0x3ccc50d8	0.024940893
102	0x3cfeade5	0.031088779
103	0x3cc9f838	0.024654493
104	0xb928635a	-0.0001605874
105	0x3d5b8d05	0.053601284
106	0xbcaf67f3	-0.021411872
107	0x3adf2470	0.0017024409
108	0x3a36fc71	0.0006980366
109	0x3d09b4da	0.03361974
110	0xbc330d5b	-0.010928477
111	0x3bb0ebe6	0.005399215
112	0x3d37490c	0.044747397
113	0x3d208edb	0.039198738
114	0xbcdfd037	-0.027320964
115	0xbc031e7c	-0.0080028735
116	0x3da6b1ee	0.08139406
117	0x3ae84638	0.0017721122
118	0xbc5c2d9a	-0.013438607
119	0xbb48f883	-0.0030665703
120	0x3d0f4948	0.034981996
121	0x3d27f12a	0.041001476
122	0x3b4b68bb	0.0031037766
123	0xbc88a5ec	-0.01668068
124	0xbd4f89f3	-0.050668668
125	0xbb8b1709	-0.0042446894
126	0x3cafbf46	0.021453511
127	0x3cb4da81	0.022076847
128	0xbbeb274d	-0.007176316
129	0xbd10c5cb	-0.03534488
130	0xbbc04ef9	-0.0058687893
131	0xbcb3fc6b	-0.021970948
132	0xbda97976	-0.0827512
133	0xbc99f19f	-0.018791972
134	0xbbf5730b	-0.007490521
135	0xbce8a38d	-0.0283983
136	0x3c009603	0.007848266
137	0xbbd05f9e	-0.0063590547
138	0x3cd26520	0.025682986
139	0x3a626e06	0.00086376106
140	0x3d4d3980	0.050103664
141	0x3cc699e6	0.024243306
142	0x3af4854d	0.0018655449
143	0xbb7e02a4	-0.0038758898
144	0xbc851f13	-0.016250169
145	0x3cc59afc	0.024121754
146	0xbcd43e8e	-0.025908735
147	0xbcd5deab	-0.026107153
148	0x3c8ce7f6	0.017200451
149	0xbadd3b0f	-0.0016878563
150	0x3bda42cf	0.0066607962
151	0x3cff68ef	0.031177966
152	0x3d31419d	0.043275464
153	0x3b1adc0b	0.002362969
154	0x3c7bd6e9	0.015371063
155	0x3d283ba7	0.041072514
156	0x3d56115a	0.05226264
157	0xbd88cb79	-0.06679434
158	0xbd1b7e23	-0.03796209
159	0x3d4654ad	0.048420597
160	0xbcd314f9	-0.025766836
161	0xbd6d2cc8	-0.057904035
162	0x3c936692	0.017993245
163	0x3cd27daf	0.025694696
164	0xbb46f2e1	-0.003035717
165	0x3cb1ada0	0.021689236
166	0x3cb2d56c	0.021830283
167	0x3cefbf44	0.029266007
168	0x3d19765e	0.0374664
169	0x3ba7efd3	0.005125025
170	0xbbc37df4	-0.0059659425
171	0xbc589591	-0.013219253
172	0x3b412c52	0.002947588
173	0x3b1a2881	0.0023522677
174	0xbd031810	-0.03200537
175	0xbce0b957	-0.027432127
176	0x3c50977a	0.012731427
177	0xbc00fe95	-0.007873197
178	0x3bc255ae	0.005930624
179	0xbcdc1274	-0.026864268
180	0x3cca5e9e	0.02470332
181	0x3d530051	0.051513974
182	0xbcea09ec	-0.028569184
183	0xbbb2d022	-0.0054569403
184	0xbb8af8f2	-0.0042411024
185	0xbcb78cb2	-0.022405956
186	0xbd36703b	-0.044540625
187	0xbc8d9f53	-0.017287886
188	0xbce7f0aa	-0.028313
189	0xbcb708f0	-0.022343129
190	0x3cecd39c	0.028909497
191	0x3c6e9cfe	0.014563797
192	0x3c62bfd9	0.013839685
193	0x3cbef394	0.023309506
194	0x3c9a0fc1	0.01880634
195	0x3cb7fb00	0.022458553
196	0xbc97adc7	-0.01851548
197	0x3d42ae7e	0.04752969
198	0x3c16f4f8	0.009213679
199	0xbcd8bf14	-0.0264583
200	0x3c7dcc72	0.015490638
201	0x3d07d746	0.033164285
202	0xbd069c97	-0.03286418
203	0xbc6b608e	-0.014366282
204	0xbd1334c5	-0.035938997
205	0x3c15c8ce	0.009142114
206	0xbbc836e1	-0.0061100577
207	0xbc18c7cc	-0.009324979
208	0x3d282ead	0.04106014
209	0xbc0fb659	-0.008771502
210	0x3bf72cd3	0.0075431853
211	0xbca4e788	-0.020129934
212	0xbd57ace1	-0.052655105
213	0xbd27f9b3	-0.041009616
214	0x3d300a41	0.04297853
215	0x3d0e963c	0.034811243
216	0x3d1f2814	0.03885658
217	0xbcca0f94	-0.024665631
218	0x3d34ac2c	0.04410951
219	0x3d3ee549	0.046605382
220	0x3d101907	0.035180118
221	0xbc91819f	-0.017762003
222	0x3ce98f7e	0.028510805
223	0x3c419fea	0.011817912
224	0x3d708109	0.058716808
225	0x3d3a206c	0.045441076
226	0xbcf18b61	-0.029485406
227	0x3caba405	0.020952234
228	0x3cafb2c9	0.021447556
229	0x3c3037a2	0.010755451
230	0xbb948700	-0.004532695
231	0x3c80c125	0.015717098
232	0x3d15dbcc	0.036586568
233	0xbc1a2451	-0.009408073
234	0xba8ef1a2	-0.0010905752
235	0x3c54e4ee	0.012994034
236	0xbd093db3	-0.033506107
237	0xbcc40a53	-0.023930704
238	0x3d507c93	0.050900053
239	0xbd1112e3	-0.035418402
240	0x3c39f526	0.011349952
241	0x3ca8060d	0.020510698
242	0x3d4e7204	0.050401703
243	0xbce8cd8c	-0.028418325
244	0xbc9fcb54	-0.019506134
245	0x3ca0a183	0.019608265
246	0xbbd1796f	-0.00639265
247	0xbc8c2576	-0.017107707
248	0x3c810d37	0.015753372
249	0x3c5db81e	0.0135326665
250	0x3c6b1403	0.014348033
251	0xbc8d0e85	-0.017218838
252	0x3d03e8b8	0.03220436
253	0x3d56d440	0.05244851
254	0xbc51326a	-0.012768367
255	0xbd48c6c4	-0.049017683

layer3.0.bias f4 [64]
0	0x3d01b495	0.031666357
1	0xbd368805	-0.044563312
2	0x3cf14b7e	0.029454943
3	0xbd851249	-0.06497628
4	0x3d0863f4	0.033298448
5	0x3c1ca2aa	0.0095602665
6	0xbce73cc3	-0.028227216
7	0xbc027390	-0.007962123
8	0xbc83839a	-0.016053963
9	0xbd19d9d5	-0.037561256
10	0xbdd07557	-0.10178631
11	0xbd074410	-0.033023894
12	0xbdbe8932	-0.09303512
13	0x3c142242	0.009041371
14	0xbca80fcf	-0.02051535
15	0xbcfa98b3	-0.03059039
16	0x3ba6ec1f	0.005094066
17	0xbc72fdf5	-0.014831056
18	0x3b942416	0.0045209033
19	0xbd7b096d	-0.061288286
20	0xbd6497e8	-0.05580893
21	0x3b11dd1e	0.002225704
22	0xbc8569b8	-0.016285762
23	0x3d32cdb8	0.04365322
24	0xbd2ee9ef	-0.042703565
25	0x3d45d1a6	0.04829564
26	0xbc709ccf	-0.014685824
27	0x3cecf524	0.028925486
28	0xbd97aa8e	-0.074055776
29	0xbd1e3d6f	-0.038632806
30	0x3cc8b39c	0.024499707
31	0x3d3313eb	0.043720167
32	0xbc3401a0	-0.010986716
33	0xbc095c18	-0.008383773
34	0xbba13b45	-0.0049203956
35	0xbc15f86d	-0.009153468
36	0xbd45401e	-0.04815685
37	0xbbc9eb38	-0.0061620735
38	0x3cc6428f	0.02420166
39	0x3cce8a86	0.025212537
40	0xbc559f9b	-0.013038541
41	0x3c8bc1ef	0.017060248
42	0xbd0aec28	-0.033916622
43	0xbd366787	-0.044532325
44	0xbda339ae	-0.07969986
45	0xbcfd86d4	-0.03094808
46	0xbcf7dd59	-0.030256914
47	0xbcd40308	-0.025880352
48	0x3cbf93c0	0.023385882
49	0xbd10fb78	-0.03539607
50	0x3b7f5584	0.0038960883
51	0xbcbc67c7	-0.022998704
52	0xbd91ff39	-0.07128758
53	0xbbebeba6	-0.0071997223
54	0xbd5442e1	-0.051821593
55	0xbc747780	-0.014921069
56	0xbb662ef1	-0.0035123194
57	0xbd156f43	-0.03648306
58	0x3a9a77b8	0.0011784947
59	0xbd00b601	-0.031423572
60	0xbd89bae3	-0.06725099
61	0xbd2711da	-0.04078851
62	0x3c608473	0.013703453
63	0xbd0996fb	-0.03359125

layer3.2.weight f4 [64]
0	0x3f84988f	1.0359057
1	0x3f850727	1.0392808
2	0x3f85e6ae	1.0461023
3	0x3f8b2138	1.0869513
4	0x3f802c76	1.0013568
5	0x3f844d99	1.0336181
6	0x3f84a81b	1.0363802
7	0x3f82ad6e	1.0209177
8	0x3f82b074	1.0210099
9	0x3f814c65	1.0101439
10	0x3f84490d	1.0334793
11	0x3f891817	1.0710477
12	0x3f847ab4	1.0349946
13	0x3f81a08a	1.0127118
14	0x3f8b7a02	1.0896609
15	0x3f80b858	1.0056257
16	0x3f85d0bc	1.0454326
17	0x3f813426	1.009404
18	0x3f861f08	1.047822
19	0x3f836aa3	1.0266918
20	0x3f83c8ef	1.0295695
21	0x3f8c067a	1.0939476
22	0x3f816d38	1.0111456
23	0x3f88fb20	1.0701637
24	0x3f81d088	1.0141764
25	0x3f84f4b7	1.0387181
26	0x3f86ab21	1.0520974
27	0x3f847637	1.0348576
28	0x3f8523fb	1.0401605
29	0x3f818c74	1.0120988
30	0x3f87efc5	1.0620047
31	0x3f875826	1.0573776
32	0x3f83e63c	1.0304637
33	0x3f810574	1.0079789
34	0x3f816740	1.0109634
35	0x3f87c95d	1.0608326
36	0x3f8240b0	1.0175991
37	0x3f894e36	1.0726993
38	0x3f864dc1	1.0492479
39	0x3f8867a4	1.0656629
40	0x3f8262f3	1.0186447
41	0x3f85da9d	1.045734
42	0x3f809859	1.0046493
43	0x3f830c18	1.0238066
44	0x3f830c18	1.0238066
45	0x3f88809c	1.0664248
46	0x3f827d31	1.0194455
47	0x3f83058c	1.0236068
48	0x3f8329bc	1.0247111
49	0x3f848dd8	1.0355787
50	0x3f855f36	1.0419681
51	0x3f862abb	1.048179
52	0x3f838705	1.027558
53	0x3f84f7c0	1.0388107
54	0x3f82201c	1.0166049
55	0x3f86fd39	1.0546027
56	0x3f88bf72	1.0683424
57	0x3f8804a7	1.062642
58	0x3f84008a	1.0312665
59	0x3f815877	1.0105122
60	0x3f86d6bb	1.053428
61	0x3f880da3	1.0629162
62	0x3f80a598	1.0050535
63	0x3f8a74f6	1.0816944

layer3.2.bias f4 [64]
0	0xbbe6f14e	-0.0070478087
1	0x3d0c6240	0.034273386
2	0x3aed186e	0.0018088946
3	0xbd044263	-0.032289874
4	0x3c7ec409	0.015549668
5	0x3c854369	0.016267495
6	0x3cb09ae0	0.021558225
7	0xbccf4f71	-0.025306435
8	0xbca53936	-0.020168882
9	0x3c3d4d7b	0.011554117
10	0xba032e06	-0.00050041114
11	0x3ca84d23	0.020544594
12	0xbc9e968a	-0.019358892
13	0x3d0ec368	0.034854323
14	0x3c5b4f60	0.013385624
15	0xbc508e6a	-0.012729267
16	0x3cac7e63	0.02105636
17	0x3c650165	0.013977383
18	0xbbab4300	-0.005226493
19	0xbc533385	-0.012890701
20	0xbc84052f	-0.016115753
21	0x3b2e35b1	0.0026582296
22	0x3d2ae833	0.04172535
23	0xbd0bc73a	-0.034125544
24	0x3ccfdac3	0.025372868
25	0x3c8b8560	0.017031372
26	0x3c03f389	0.008053669
27	0x3c8cb0ce	0.01717415
28	0xbc7299f2	-0.014807211
29	0xbbfc4328	-0.0076984353
30	0xbb0badd5	-0.0021313329
31	0x3b73a591	0.0037177543
32	0x3d2271c0	0.03965926
33	0xbc8a8a49	-0.016911643
34	0xbbf050b3	-0.007333839
35	0xbc1372e9	-0.008999565
36	0xbd00c21a	-0.03143511
37	0xbcfee2f7	-0.031114085
38	0xbcdf8c5b	-0.027288606
39	0xbcb1be03	-0.02169705
40	0x3c473366	0.01215825
41	0xbba0d25e	-0.00490789
42	0x374dddcc	1.2270593e-05
43	0xbc9da583	-0.019243961
44	0xbcd70d86	-0.026251566
45	0x3ce6f981	0.028195145
46	0xbb90f59c	-0.00442381
47	0x3b9bffff	0.0047607417
48	0x3cc60e08	0.024176612
49	0x3d19fdb0	0.03759545
50	0x3c7d9d21	0.015479357
51	0x3cfb75b6	0.030695777
52	0xbc4257f2	-0.011861788
53	0x3c3cc281	0.011520983
54	0xbcfae540	-0.030626893
55	0xbcb5fc37	-0.022214992
56	0x3d296e58	0.041364998
57	0x3cfeb5e1	0.031092586
58	0xbc6e44d9	-0.014542782
59	0x3ca313d4	0.019906916
60	0xbc2c4178	-0.010513656
61	0xbbd2f719	-0.0064381477
62	0x3bd585e5	0.0065162056
63	0xbcacc6e8	-0.02109094
