torch_model/model_save/cnn1-2023-05-01-11-42-07.pth (torch_old, 542865 bytes, 24 tensors)

layer1.0.weight f4 [64, 1, 7]
0	0xbe4c5636	-0.19954762
1	0xbeb7c18e	-0.35889858
2	0x3e36ecb0	0.17863727
3	0x3e755422	0.23957875
4	0x3e5a08f5	0.2129248
5	0x3e353ca7	0.17698918
6	0x3e83926d	0.25697652
7	0xbe381f3a	-0.17980662
8	0x3de59792	0.1121055
9	0x3db82abe	0.089925274
10	0xbe9f42d9	-0.31105688
11	0xbeb7a569	-0.35868385
12	0x3cfe6bec	0.03105732
13	0x3e079c7d	0.1324329
14	0x3e2b5333	0.16730957
15	0xbe95277c	-0.29131687
16	0xbd93ff3d	-0.07226417
17	0x3e7eae76	0.24871239
18	0xbec8dfbc	-0.39233196
19	0xbdc76087	-0.09735208
20	0x3cc36b51	0.023854883
21	0x3ed0a4a0	0.407506
22	0x3eb18143	0.3466893
23	0xbe92459b	-0.2856873
24	0x3e6f858d	0.2339079
25	0x3dfa51d7	0.12222641
26	0xbc052542	-0.008126559
27	0x3dd63c6d	0.10460744
28	0x3d25dcf5	0.040493924
29	0xbb3992d4	-0.0028316276
30	0xbeacd718	-0.33757854
31	0xbe6cf0ff	-0.23138808
32	0xbdca8844	-0.09889272
33	0xbd3086d2	-0.043097325
34	0xbd8d176d	-0.06889234
35	0xbe652f7d	-0.22381397
36	0x3ce49cb2	0.02790675
37	0x3ea336b9	0.31877688
38	0xbe3dc9a0	-0.18533945
39	0x3d577e3f	0.052610632
40	0x3e5033fc	0.2033233
41	0xbe6d59df	-0.23178814
42	0x3dc8cdd2	0.09804882
43	0x3e46cde5	0.1941448
44	0x3e5ae248	0.21375382
45	0x3d32ca44	0.043649927
46	0x3e2fd5bc	0.17171377
47	0x3c3e8903	0.011629346
48	0x3df4442f	0.119270675
49	0x3db24341	0.08704234
50	0x3e8fd84a	0.28094703
51	0x3e9fa29c	0.3117875
52	0xbdbf9410	-0.093544126
53	0xbdb68d19	-0.08913631
54	0xbed057d2	-0.40692002
55	0x3e44f58a	0.1923429
56	0x3b818ba1	0.0039534126
57	0xbe054a8a	-0.13016716
58	0xbe883878	-0.26605582
59	0x3e9d8bb3	0.30770645
60	0x3e9e43a9	0.30910996
61	0xbebe25f4	-0.3713833
62	0xbc521599	-0.012822532
63	0xbdb98aed	-0.09059701
64	0x3e61df79	0.22057904
65	0x3d007200	0.03135872
66	0xbeb7ee07	-0.35923788
67	0xbe8437f2	-0.25823933
68	0x3e109b22	0.14121678
69	0x3ec09bb0	0.3761878
70	0x3eaa9942	0.3332005
71	0xbe2c65b2	-0.16835669
72	0xbe488f44	-0.19585901
73	0x3e916237	0.28395244
74	0xbd8c9f9e	-0.06866382
75	0xbe482e00	-0.19548798
76	0xbc7f842f	-0.01559548
77	0xbe96071c	-0.293023
78	0x3dab9f86	0.08380036
79	0x3d55d849	0.05220822
80	0x3da83c85	0.08214668
81	0xbe8d1134	-0.27552187
82	0xbea46884	-0.3211099
83	0xbdc0da20	-0.09416604
84	0x3ce6ec17	0.028188748
85	0x3d4750e5	0.04866113
86	0xbe0a5fd9	-0.13513125
87	0x3e5368b2	0.20645407
88	0xbeaa56e9	-0.33269432
89	0xbdc94bb0	-0.09828889
90	0xbe46ad02	-0.19401935
91	0x3df0f45e	0.11765359
92	0x3e41126a	0.1885468
93	0x3e2fcef2	0.17168787
94	0x3db8d5a2	0.09025122
95	0xbe9d179a	-0.3068207
96	0x3e44eb4b	0.19230382
97	0xbe8cab47	-0.27474424
98	0x3df89de7	0.121394925
99	0x3eb93486	0.36172885
100	0xbe21ba0c	-0.15793628
101	0x3ab830e2	0.0014052654
102	0x3c44faa9	0.012022653
103	0x3b9ea90f	0.0048419307
104	0x3e6761e5	0.22595938
105	0xbe68dfa4	-0.22741562
106	0xbe9a842d	-0.30178967
107	0xbeae3eea	-0.34032375
108	0x3e6c2b33	0.23063354
109	0x3e2aa47c	0.16664308
110	0x3e2c94ea	0.16853681
111	0x3e9eb507	0.30997488
112	0xbea6dd1c	-0.32590568
113	0x3eac09b3	0.3360115
114	0xbe54aa7b	-0.20768158
115	0xbea31b3a	-0.3185671
116	0x3e368cd4	0.17827159
117	0xbeb1ec07	-0.34750387
118	0xbe3927c6	-0.18081579
119	0x3e8f86af	0.28032443
120	0xbe97b08e	-0.29626888
121	0xbea9a6da	-0.3313511
122	0xbceca9ae	-0.028889503
123	0xbe9d8f84	-0.30773556
124	0xbe1a2aa9	-0.15055336
125	0x3e2fedce	0.17180559
126	0x3c920797	0.017825885
127	0xbeaf8e96	-0.34288472
128	0x3d8ad9e5	0.06779841
129	0x3d8f4103	0.06994822
130	0x3e3321bf	0.17493342
131	0xbe3a00b2	-0.18164328
132	0x3e350c5e	0.17680499
133	0x3e89a021	0.2687998
134	0xbd9304e9	-0.07178671
135	0x3e30440d	0.1721346
136	0xbe1662f2	-0.14686182
137	0x3e89140a	0.267731
138	0x3e8c0cf7	0.2735364
139	0x3eae1cdc	0.34006393
140	0x3b9cf0c3	0.004789443
141	0xbe8abe50	-0.27098322
142	0xbcbf07f6	-0.023319226
143	0x3e88eb87	0.26742193
144	0x3e5afe2b	0.2138602
145	0x3e37737e	0.1791515
146	0xbe63176c	-0.22176903
147	0xbe92bc35	-0.28659216
148	0x3e214915	0.15750535
149	0x3ea2eed5	0.3182284
150	0xbe0eddf8	-0.13951862
151	0xbe1250fd	-0.14288707
152	0x3e992590	0.2991147
153	0xbe8937f3	-0.26800498
154	0xbe73141c	-0.2373814
155	0xbe4ac740	-0.1980257
156	0xbde28b75	-0.110617556
157	0x3eb9d669	0.36296394
158	0x3e51a0d8	0.20471513
159	0x3e4db189	0.20087256
160	0x3e028030	0.12744212
161	0xbe6ca3d4	-0.2310937
162	0xbdb9eb4c	-0.090780824
163	0x3e84b638	0.25920272
164	0xbe336a46	-0.17521009
165	0xbea96fff	-0.3309326
166	0x3ea01934	0.31269228
167	0x3e1de051	0.15417601
168	0x3da24a17	0.07924288
169	0x3e33f07d	0.17572208
170	0x3e9f5312	0.31118065
171	0x3c2bbc96	0.010481974
172	0xbda355e4	-0.07975367
173	0x3e9acdb6	0.3023507
174	0x3d8bfa72	0.06834878
175	0x3da1e12f	0.079042785
176	0xbe7650e8	-0.24054301
177	0xbaf9e894	-0.0019066506
178	0xbce3374e	-0.027736332
179	0x3e72e2ce	0.23719332
180	0xbd8b545b	-0.06803199
181	0xbddb6f9e	-0.10714649
182	0x3df4f7f0	0.11961353
183	0xbdb6f8e4	-0.08934191
184	0xbe8b1c71	-0.27170137
185	0x3e84cdc4	0.25938237
186	0x3e000bcb	0.12504499
187	0xbe0dbf64	-0.13842541
188	0xbc813a5f	-0.015774904
189	0xbeb4fb9a	-0.35348207
190	0x3e1433b5	0.1447285
191	0x3e1c27ad	0.1524951
192	0x3e5a0531	0.21291043
193	0xbea7df70	-0.32787657
194	0x3eaf2452	0.34207398
195	0x3dc2dca7	0.09514742
196	0xbea4d694	-0.3219496
197	0x3ea8f3d9	0.3299854
198	0xbdef04ae	-0.116708145
199	0xbde1b3b2	-0.11020602
200	0x3e8a22ca	0.26979667
201	0xbe9e0d19	-0.30869368
202	0x3d5c2bbb	0.053752642
203	0xbe2477bd	-0.16061302
204	0x3e6db5b4	0.23213845
205	0x3e83cfed	0.25744572
206	0x3e6008a5	0.21878298
207	0x3ea6c8e3	0.3257514
208	0xbea9c065	-0.33154598
209	0xbeb25b9a	-0.3483551
210	0x3c3ee4c0	0.011651218
211	0xbeed08d9	-0.46295813
212	0x3d816152	0.063173905
213	0xbdb9f4e6	-0.09079914
214	0xbd3c891a	-0.046029188
215	0x3da9108a	0.08255108
216	0xbd603518	-0.054738134
217	0x3e7b0fc6	0.24517736
218	0x3ea50b4a	0.32235175
219	0xbe5075ae	-0.20357391
220	0x3eabef57	0.3358104
221	0xbea1efc5	-0.31628242
222	0xbeb67e01	-0.35643008
223	0x3e8bf132	0.27332455
224	0xbe59e5ce	-0.2127907
225	0xbeb537a2	-0.35394007
226	0x3e3299d3	0.17441492
227	0xbc41672d	-0.011804384
228	0xbe24c3e5	-0.16090353
229	0x3ecd2aa2	0.4007159
230	0xbd3a78f8	-0.04552552
231	0xbd978dff	-0.074001305
232	0x3ec43763	0.38323507
233	0x3dbbc84e	0.091690645
234	0xbd9520e3	-0.07281663
235	0x3ebe431d	0.37160578
236	0x3eb50e4b	0.35362467
237	0x3ea52d00	0.32260895
238	0xbcf839cb	-0.030300995
239	0xbde12ff6	-0.10995476
240	0xbe22693b	-0.15860455
241	0x3e59d990	0.212744
242	0xbd59469b	-0.05304585
243	0xbc8155de	-0.015788015
244	0xbddc9e21	-0.10772348
245	0xbea2ec02	-0.31820685
246	0x3e98d7ef	0.29852244
247	0xbdd31103	-0.10305979
248	0x3e50f595	0.20406182
249	0x3cb7bbaf	0.022428362
250	0xbe2c1da2	-0.16808179
251	0xbebef0c7	-0.37293074
252	0xbd067e12	-0.032835074
253	0x3ece9f35	0.4035584
254	0x3dec0e57	0.115261726
255	0xbeaf2b7b	-0.3421286

layer1.0.bias f4 [64]
0	0x3db74cf4	0.089502245
1	0xbdf7dc27	-0.121025376
2	0xbe500f02	-0.20318225
3	0xbe9c95ad	-0.30582944
4	0x3ebb3f28	0.36571622
5	0x3e2adbe3	0.16685443
6	0xbe74b3d3	-0.23896722
7	0x3eae6fbc	0.34069622
8	0xbd35b75b	-0.044364315
9	0x3e15545a	0.14582959
10	0x3da2dbc5	0.07952074
11	0x3e44779a	0.1918625
12	0x3e77c160	0.2419486
13	0xbeaa9376	-0.3331563
14	0x3dd44e59	0.10366506
15	0x3e3bdc6f	0.18345807
16	0xbecae93b	-0.39631066
17	0x3eb34d22	0.35019785
18	0x3eb82d26	0.35971946
19	0xbe5faeac	-0.21843976
20	0x3dc44a5b	0.09584495
21	0x3e981f6b	0.2971147
22	0xbdba5c08	-0.09099585
23	0xbdb1bf6a	-0.086790875
24	0x3e717bb3	0.23582344
25	0xbe6db438	-0.23213279
26	0x3e737dd9	0.23778476
27	0xbebd68cc	-0.36994016
28	0xbe8f6fda	-0.28015023
29	0x3e22af9e	0.15887305
30	0x3d199613	0.037496638
31	0x3cfa6be5	0.030569026
32	0xbe671dc1	-0.22569944
33	0xbe761646	-0.24031934
34	0xbec82cda	-0.3909672
35	0x3e653f01	0.22387315
36	0x3dafbfa5	0.08581475
37	0xbd8e6e1f	-0.06954598
38	0x3e88aff4	0.26696742
39	0x3de8c65c	0.11365959
40	0x3e883adf	0.26607415
41	0xbeb11219	-0.3458412
42	0x3d35b199	0.044358823
43	0xbe722215	-0.23645814
44	0xbe7f5741	-0.24935628
45	0xbda3cf12	-0.0799848
46	0xbe7dbe3b	-0.24779598
47	0x3ed31d4c	0.4123329
48	0xbd77623d	-0.06039642
49	0x3e079068	0.1323868
50	0x3e293cf0	0.16527152
51	0x3e987061	0.29773238
52	0xbe2d8e9f	-0.16948937
53	0xbe084034	-0.13305742
54	0xbe002f82	-0.12518123
55	0xbe9fdc58	-0.31222796
56	0xbe631ef5	-0.22179778
57	0x3e9465ec	0.2898401
58	0xbe0a1c51	-0.13487364
59	0xbecd08d8	-0.4004581
60	0xbe159ee1	-0.14611389
61	0x3e921ce7	0.28537676
62	0x3eb986ac	0.3623556
63	0xbdabb33d	-0.08383796

layer1.2.weight f4 [64]
0	0x3f81b1c7	1.0132378
1	0x3f6b379c	0.9188173
2	0x3f6d7c66	0.9276794
3	0x3f7ddb4f	0.99162763
4	0x3f61d913	0.88221854
5	0x3f9331d7	1.1499585
6	0x3f763b2e	0.9618405
7	0x3f7a8674	0.9786141
8	0x3f6ceb4b	0.9254653
9	0x3f8fd8a3	1.1237987
10	0x3f880b7e	1.0628507
11	0x3f4ee05f	0.80811113
12	0x3f60b419	0.8777481
13	0x3f8450dc	1.0337176
14	0x3f691966	0.9105438
15	0x3f926563	1.1437191
16	0x3f6de350	0.92924976
17	0x3f664040	0.8994179
18	0x3f6a84e0	0.91609
19	0x3f73cf9a	0.9523865
20	0x3f793522	0.973467
21	0x3f9181a5	1.1367689
22	0x3f897e73	1.0741714
23	0x3f733168	0.9499726
24	0x3f7290ef	0.947524
25	0x3f891fa7	1.0712785
26	0x3f8b09fd	1.0862423
27	0x3f87aee8	1.0600252
28	0x3f8331b6	1.0249546
29	0x3f896161	1.0732843
30	0x3f66a20f	0.9009103
31	0x3f84cfa6	1.0375869
32	0x3f7c1a81	0.9847794
33	0x3f6f0db4	0.93380284
34	0x3f8b3fcc	1.0878844
35	0x3f632a58	0.88736486
36	0x3f8950fc	1.072784
37	0x3f72a9ac	0.9479015
38	0x3f816176	1.0107868
39	0x3f8fc1d9	1.1231033
40	0x3f87deba	1.0614846
41	0x3f67502f	0.90356725
42	0x3f630f59	0.88695294
43	0x3f843328	1.0328112
44	0x3f76e375	0.9644082
45	0x3f6888fc	0.9083402
46	0x3f87f729	1.0622302
47	0x3f638dac	0.8888805
48	0x3f6527a3	0.89513606
49	0x3f7b4e87	0.981667
50	0x3f81ec0f	1.0150164
51	0x3f7111c1	0.94167715
52	0x3f772104	0.9653475
53	0x3f787123	0.9704763
54	0x3f831454	1.0240579
55	0x3f8d5da1	1.1044198
56	0x3f8882e2	1.0664942
57	0x3f89aeb5	1.0756441
58	0x3f7d121a	0.98855746
59	0x3f869ad0	1.0515995
60	0x3f6742f7	0.90336555
61	0x3f88d883	1.0691074
62	0x3f699c7e	0.91254413
63	0x3f890453	1.0704445

layer1.2.bias f4 [64]
0	0x3c438f4f	0.011936023
1	0x3ce84238	0.028351888
2	0x3cdae110	0.026718646
3	0x3ab8e7f3	0.0014107212
4	0x3c47a64d	0.012185645
5	0xbbceef52	-0.0063151503
6	0x3ccf35f1	0.025294276
7	0xbbd7433c	-0.0065692943
8	0xbc3a686a	-0.011377433
9	0xbd38ecc3	-0.04514767
10	0x3daf69cd	0.08565102
11	0x3d0c989f	0.03432524
12	0x3caba57b	0.02095293
13	0xbc8ec18f	-0.01742628
14	0xbb577788	-0.0032877643
15	0xbd40b6a2	-0.047049172
16	0x3ca60587	0.020266308
17	0x3c315d8b	0.010825525
18	0xbd7be944	-0.061501756
19	0x3b0e014a	0.0021668249
20	0xbbd38c1c	-0.0064559113
21	0x3bdaad44	0.006673487
22	0xbcfac63a	-0.0306121
23	0x3b6d3516	0.0036194972
24	0xb9dcc012	-0.00042104773
25	0xbcfab18b	-0.030602237
26	0xbb7ff0c2	-0.0039053415
27	0xbd12ec12	-0.035869665
28	0xbc76b581	-0.015057922
29	0x3d601168	0.0547041
30	0x3ce47490	0.027887613
31	0x3d276c30	0.04087466
32	0x3c705c35	0.014670421
33	0x3a7b74c7	0.00095922913
34	0xbd12ae14	-0.035810545
35	0x3ca71cd1	0.020399483
36	0x3d3ca6cd	0.04605751
37	0x3c27e87f	0.0102483025
38	0xbd8d1860	-0.06889415
39	0x3d78119d	0.060563672
40	0xbd3e06cd	-0.046393204
41	0x3d4f8134	0.050660327
42	0x3b2490a3	0.0025110624
43	0xbcbb1501	-0.022837164
44	0xbcabd9b4	-0.020977832
45	0x3d2bab8a	0.04191164
46	0xbcfb2504	-0.030657299
47	0xbbc229dd	-0.0059254006
48	0x3c981c91	0.018568309
49	0xbc9c0227	-0.019043995
50	0xbd4d1686	-0.05007031
51	0xbcb68d13	-0.022284066
52	0x3b90ec9a	0.0044227364
53	0x3d4a3567	0.049367335
54	0x3cdaa0ae	0.026687946
55	0xbd40d119	-0.04707441
56	0xbd2418d0	-0.040062726
57	0xbd3f23b7	-0.04666492
58	0x3b8395dc	0.0040156674
59	0xbbe5e461	-0.0070157503
60	0x3d678395	0.05652197
61	0xbd11937a	-0.035541035
62	0xbb00db3d	-0.0019661926
63	0xbc55fad0	-0.013060287

layer1.2.running_mean f4 [64]
0	0x3e0d1fad	0.13781615
1	0x3da8b958	0.082384765
2	0x3d0e4450	0.034733117
3	0x3d8d8776	0.06910603
4	0x3f04b328	0.5183587
5	0x3e3315bd	0.17488761
6	0x3d98cfa0	0.07461476
7	0x3ea40f2b	0.32042822
8	0x3caf6222	0.021409098
9	0x3e1b61c2	0.1517401
10	0x3dcb08de	0.09913801
11	0x3ec0a797	0.3762786
12	0x3eaf33d2	0.34219223
13	0x3c4c81ac	0.012482088
14	0x3dfd36f5	0.12363998
15	0x3e6ad2d8	0.22931993
16	0x3d850e5c	0.064968795
17	0x3efb5e38	0.4909532
18	0x3eb9ea8d	0.3631176
19	0x3de9314e	0.11386357
20	0x3db9cda6	0.090724275
21	0x3e9c3287	0.305073
22	0x3d79a282	0.060945995
23	0x3cc32c06	0.023824703
24	0x3e663768	0.22482073
25	0x3b2a7910	0.00260121
26	0x3e756570	0.23964477
27	0x3bc694fb	0.0060602403
28	0x3b97f624	0.0046374965
29	0x3e25116c	0.16119927
30	0x3e380b0d	0.17972966
31	0x3d909ce8	0.070611775
32	0x3cae9684	0.021312006
33	0x3e1eb1ae	0.15497467
34	0x3b955378	0.0045570694
35	0x3e9d89fa	0.3076933
36	0x3dde72bf	0.1086173
37	0x3d8092eb	0.062780224
38	0x3e89e64f	0.26933524
39	0x3e17b8c8	0.14816582
40	0x3e898585	0.2685968
41	0x3dc6e3c5	0.09711412
42	0x3ed309c4	0.41218388
43	0x3b26479c	0.0025372272
44	0x3cd42991	0.025898727
45	0x3d630cd0	0.05543214
46	0x3bcccf92	0.0062503302
47	0x3f132c0c	0.57489085
48	0x3e2520be	0.16125771
49	0x3e1d0986	0.15335664
50	0x3e480cb7	0.195361
51	0x3e9da10e	0.30786937
52	0x3e420293	0.18946294
53	0x3d3add00	0.04562092
54	0x3d61c42d	0.05511873
55	0x3c55d621	0.013051541
56	0x3bc85e1e	0.0061147353
57	0x3e98cb2e	0.29842514
58	0x3d24c3c8	0.040225774
59	0x3c452683	0.012033108
60	0x3d0e0ced	0.034680296
61	0x3e8f5df6	0.28001374
62	0x3f131603	0.5745546
63	0x3bd0d22c	0.0063727107

layer1.2.running_var f4 [64]
0	0x3d9021a4	0.070376664
1	0x3d364843	0.044502508
2	0x3cd6c968	0.026219085
3	0x3d23a332	0.039950557
4	0x3e288a2c	0.16458958
5	0x3b5d8444	0.003380076
6	0x3d27c5b6	0.040960036
7	0x3d2ac137	0.04168817
8	0x3b9a8102	0.004715086
9	0x3c4e0a52	0.012575703
10	0x3c1f62d0	0.009728149
11	0x3e011e34	0.12609178
12	0x3d9a5ada	0.0753686
13	0x3bc46399	0.0059933183
14	0x3d3aab3a	0.04557345
15	0x3d910961	0.07081867
16	0x3d9ce1c9	0.076602526
17	0x3e218dba	0.1577672
18	0x3c324afb	0.010882135
19	0x3da14724	0.07874897
20	0x3c466488	0.012108929
21	0x3bbb9efc	0.0057257395
22	0x3cef518f	0.029213695
23	0x3c3f4a31	0.011675403
24	0x3e074283	0.13208966
25	0x3a288ef3	0.00064299925
26	0x3ae9f8af	0.0017850603
27	0x3ac182d4	0.0014763721
28	0x3aae922f	0.0013318713
29	0x3d348f4f	0.044081982
30	0x3d5a2109	0.05325416
31	0x3ccbd445	0.024881491
32	0x3c9722a5	0.018449137
33	0x3e10a494	0.14125282
34	0x3aaa202e	0.0012979561
35	0x3d62bc96	0.05535563
36	0x3ca364eb	0.019945582
37	0x3d25eb3c	0.04050754
38	0x3bd497b7	0.0064878124
39	0x3cfa8b62	0.030584041
40	0x3ca440aa	0.020050365
41	0x3e0ccfdb	0.13751166
42	0x3e9428a4	0.28937256
43	0x3a5b42ea	0.0008364158
44	0x3c13d9e9	0.009024122
45	0x3ccb8e08	0.024848
46	0x3b8ecf98	0.004358243
47	0x3e4747bf	0.19460963
48	0x3d8fc39b	0.07019731
49	0x3c3883f5	0.01126193
50	0x3d0697e2	0.03285969
51	0x3cb28c60	0.021795452
52	0x3e3aa72e	0.18227836
53	0x3d39089d	0.04517423
54	0x3cd0fb3e	0.025510427
55	0x3be82d1d	0.007085456
56	0x3b0c8517	0.0021441632
57	0x3cd0fb0f	0.025510339
58	0x3c5a1296	0.013310095
59	0x3c12bb66	0.008955812
60	0x3cf1699e	0.029469308
61	0x3cb0dac2	0.021588687
62	0x3e7d197a	0.2471675
63	0x3afea1d4	0.0019426891

layer2.0.weight f4 [128, 64, 7]
0	0x3d9e1c26	0.07720213
1	0x3ab63d88	0.0013903836
2	0x3ccc8061	0.02496356
3	0x3bcacdc7	0.0061890814
4	0x3b5ce827	0.003370771
5	0x3c4f44e2	0.0126507
6	0xbd38a4a1	-0.045078877
7	0x3c3777cb	0.011197994
8	0x3cb1af9e	0.021690186
9	0xbc6f17de	-0.014593093
10	0xbcd60721	-0.026126446
11	0xbd1cad16	-0.038251005
12	0xbc3e5ba0	-0.011618525
13	0x3cee64cb	0.029100796
14	0x3d4136fa	0.04717157
15	0x3cbb38b6	0.02285419
16	0xbcc3e493	-0.023912704
17	0x3b4d7688	0.0031351168
18	0xbbf991fb	-0.007616279
19	0x3c4fd6f3	0.012685525
20	0x3da33095	0.07968251
21	0x3ca6701f	0.020317135
22	0x3da44206	0.080204055
23	0x3da55e00	0.0807457
24	0x3d96d819	0.07365436
25	0x3942325d	0.00018520044
26	0x3cdebb16	0.027188819
27	0x3d0aaeef	0.033858236
28	0x3d50b27e	0.050951473
29	0x3d0a6d24	0.03379549
30	0x3c19a5cf	0.009377911
31	0x3d2901a3	0.041261327
32	0x3d15f5a4	0.036611214
33	0x3d1e9ea4	0.03872551
34	0x3c80df65	0.015731523
35	0x3a69a4fd	0.000891283
36	0xbcedfa2b	-0.029049953
37	0x3da3faf6	0.080068514
38	0xbd49846e	-0.04919856
39	0xbd26c4f3	-0.04071517
40	0x3d036743	0.0320809
41	0xbd8d57aa	-0.06901486
42	0x3d9e0746	0.07716231
43	0x3c30374c	0.010755371
44	0x3cd4a027	0.025955273
45	0x3d1baaba	0.038004614
46	0x3d470580	0.04858923
47	0x3d39e553	0.045384716
48	0x3d6346cb	0.055487435
49	0x3d160113	0.03662212
50	0x3bb050df	0.0053807343
51	0x3da16d74	0.07882205
52	0x3be9ff7d	0.0071410523
53	0x3c9ebbb1	0.019376608
54	0x3cee7afe	0.029111382
55	0xbcba798a	-0.022763032
56	0x3ccd86f3	0.025088763
57	0x3caa8c28	0.020818785
58	0x3c830e53	0.015998041
59	0x3ba034d8	0.004889112
60	0xbced2549	-0.028948443
61	0x3c61027b	0.013733502
62	0xbce41b33	-0.027845
63	0x3d4009eb	0.04688446
64	0x3bfa71de	0.0076429686
65	0xbd925a0f	-0.071460836
66	0xbb943ffe	-0.00452423
67	0xbd86eccb	-0.065881334
68	0xbd78b74c	-0.06072168
69	0xbd16f493	-0.036854338
70	0xbddb04cb	-0.106942736
71	0xbd2d3bdc	-0.042293414
72	0x3cddf235	0.027093032
73	0xbc0a1262	-0.008427234
74	0xbbc5b996	-0.0060340865
75	0x3ad7c2c3	0.0016461242
76	0xbca116c5	-0.019664178
77	0xbbc5702e	-0.0060253358
78	0xbd409266	-0.047014616
79	0xbd59ecee	-0.05320447
80	0xbd11c2af	-0.035586055
81	0x3d1aea83	0.037821304
82	0x3d21ace0	0.039471507
83	0x3b04c881	0.0020261111
84	0xbca13f14	-0.019683398
85	0xbd244e09	-0.040113483
86	0xbc0af8d9	-0.0084821815
87	0x3c8e23a6	0.017350983
88	0xbcc96037	-0.024582012
89	0x3caef8d4	0.021358885
90	0x3d1ab260	0.037767768
91	0xbd0a1cee	-0.033718996
92	0x3c6dbd68	0.01451049
93	0xbc7292f3	-0.014805543
94	0x3d37e436	0.044895373
95	0x3cfceb9b	0.030874064
96	0x3ca3076e	0.019901004
97	0xbd067b5a	-0.03283248
98	0x3d34909b	0.04408322
99	0x3d5974c3	0.05308987
100	0x3b887caf	0.004165254
101	0x3ca910f5	0.020637969
102	0x3bfd0d59	0.0077225384
103	0x3b92cdc3	0.004480095
104	0xbb870fde	-0.0041217646
105	0x3c617e72	0.013763057
106	0xbb5c40b0	-0.0033607893
107	0xbc99a013	-0.018753087
108	0xbc2a5d6d	-0.010398251
109	0xbc91bb86	-0.017789613
110	0xbd5b9f15	-0.05361851
111	0xbcaea192	-0.021317277
112	0x3c808627	0.015688969
113	0xbceb9e9d	-0.028762156
114	0xbc6b25b9	-0.0143522555
115	0xbc88adab	-0.016684374
116	0x3c806f7c	0.01567816
117	0x3d2e2eb8	0.042525023
118	0x3d21c964	0.0394987
119	0x3c7b5c8f	0.015341892
120	0xbb012d97	-0.0019711012
121	0xbd60cf40	-0.05488515
122	0xbcfcb2ee	-0.03084704
123	0xbd03e8a0	-0.03220427
124	0x3d2a0cc6	0.041516088
125	0x3c8f1c6e	0.017469611
126	0xbd0dbfe4	-0.03460683
127	0xbc47c65f	-0.012193291
128	0xbbdec6ce	-0.0067986017
129	0xbc422321	-0.011849196
130	0xbd4d8c9d	-0.050182927
131	0xbd626a56	-0.05527719
132	0x390d9688	0.00013502885
133	0x3d228e2b	0.039686363
134	0x3d40f186	0.047105335
135	0x3d4aa971	0.049478
136	0x3d3ce6af	0.046118435
137	0x3c8b1910	0.016979724
138	0x3d84e311	0.06488622
139	0x3c6f3dbb	0.01460212
140	0x3a9af5f7	0.0011822571
141	0x3d07bc45	0.033138532
142	0x3c979bbe	0.01850688
143	0x3c5cf2eb	0.0134856505
144	0x3cdbb57f	0.026819943
145	0xbcacb68b	-0.021083137
146	0xbd448549	-0.047978673
147	0xbca9a922	-0.020710532
148	0x3cd49279	0.02594875
149	0x3d2f3865	0.04277839
150	0xbca5cba3	-0.020238703
151	0xbc480327	-0.012207783
152	0xbb865f66	-0.004100728
153	0x3caa9790	0.020824224
154	0x3d13d592	0.03609235
155	0x3d8a814e	0.06762944
156	0x3c1b51f1	0.009479986
157	0xbccb4566	-0.024813365
158	0xbbd55353	-0.006510177
159	0xbd0a98fd	-0.033837307
160	0x3aee8744	0.0018198271
161	0xbbb4ed52	-0.005521455
162	0x3d4ecb0c	0.05048661
163	0x3c2f36f6	0.010694256
164	0xbd3a7c3e	-0.045528643
165	0xbae9fd1e	-0.0017851924
166	0x3cabfaef	0.020993678
167	0xbb964e7c	-0.004586993
168	0x3b96bb00	0.004599929
169	0x3b8ec125	0.0043565207
170	0x3c235d1c	0.0099709295
171	0x3ccb41cd	0.02481165
172	0x3d83a247	0.06427436
173	0x3d29be6e	0.041441374
174	0xbca11653	-0.019663965
175	0xb959411d	-0.00020718989
176	0x3cd51ace	0.026013758
177	0x3d181ab1	0.03713483
178	0x3cbc4ffb	0.022987356
179	0xb9ece2c0	-0.0004518237
180	0xbc45abde	-0.012064902
181	0x3d05a2f4	0.032626107
182	0xbbd5b968	-0.0065223463
183	0x3d10f003	0.035385143
184	0xbc2e194d	-0.010626149
185	0x3c9a908a	0.01886775
186	0xbc9744cd	-0.018465424
187	0xbc8ba5f0	-0.017046899
188	0xbc414e62	-0.011798473
189	0xbcfad0ba	-0.030617107
190	0x3d052d34	0.032513812
191	0x3cf6b875	0.030117253
192	0x3c960605	0.018313417
193	0x3d825e48	0.06365639
194	0x3d2ea6fe	0.042639725
195	0x3d68282d	0.05667894
196	0xbd24dcbc	-0.04024957
197	0xbcbd84ba	-0.023134578
198	0x3d8bc32c	0.068243355
199	0x3d9a7cb4	0.075433165
200	0x3d036d79	0.032086823
201	0x3d71b438	0.05900976
202	0x3d4bf66f	0.049795564
203	0x3cb9c019	0.022674607
204	0x3d32abf6	0.043621026
205	0x3c5f22de	0.013619153
206	0x3d212ad9	0.039347503
207	0x3d3588ff	0.044320103
208	0x3af8b0c7	0.0018973582
209	0x3d02df5c	0.031951293
210	0xbc069956	-0.008215269
211	0x3cb5c16f	0.022186963
212	0x3c9f1f4a	0.0194241
213	0xbcc4c2ac	-0.024018608
214	0x3ce2e3b7	0.027696474
215	0x3c4cc06d	0.01249705
216	0x3cf94871	0.03043005
217	0x3cc3d73c	0.023906343
218	0xbc910f84	-0.017707594
219	0x3d024803	0.031806957
220	0x3c605700	0.013692617
221	0x3d424601	0.047430042
222	0xbc9dc59e	-0.01925927
223	0x3d13a40c	0.03604512
224	0x3d373278	0.044725865
225	0x3d8d80ba	0.06909318
226	0x3cf8a881	0.030353786
227	0xbc73558c	-0.014851939
228	0x3cbfc241	0.023408057
229	0xbc410c84	-0.011782769
230	0xbb26322d	-0.0025359497
231	0x3d938634	0.072033316
232	0x3d61b821	0.05510724
233	0x3d1adf49	0.037810598
234	0xbc23270e	-0.009958042
235	0x3c5aab5d	0.01334652
236	0x3d947f73	0.072508715
237	0x3cd17486	0.025568258
238	0xbc4ae4c5	-0.0123836445
239	0x3d54e152	0.051972695
240	0x3c50783c	0.012723979
241	0x3d51a843	0.051185858
242	0x3d3264c4	0.04355313
243	0x3dc34631	0.09534872
244	0x3c0ddb6a	0.008658269
245	0x3ce3502b	0.027748188
246	0x3cf1f9ac	0.029537998
247	0x3d238548	0.03992203
248	0x3c81b759	0.015834497
249	0x3c8dbb0f	0.01730111
250	0x3d712577	0.05887362
251	0x3cfbf1b6	0.030754905
252	0xbd2ed96e	-0.042687826
253	0xbcd07ab7	-0.02544914
254	0xbd065397	-0.03279456
255	0x3d701d68	0.058621794

layer2.0.bias f4 [128]
0	0xbdc84e2d	-0.09780536
1	0xbc192a08	-0.0093484
2	0x3c6a5547	0.014302558
3	0xbccd5797	-0.02506618
4	0x3d5b80f7	0.053589787
5	0xbccfb10e	-0.025352981
6	0x3cf215b6	0.029551368
7	0x3bee88ea	0.007279505
8	0xbd1b5cd9	-0.037930343
9	0x3ce74c21	0.028234543
10	0xbcaecb8e	-0.021337297
11	0x3cc0cc7e	0.02353501
12	0xbcb54b00	-0.02213049
13	0xbd572088	-0.05252126
14	0x3b994efa	0.004678604
15	0xbde93420	-0.11386895
16	0xbd60ec7e	-0.054913037
17	0x3d8f410e	0.0699483
18	0xbcb96307	-0.022630228
19	0xbc67f8ea	-0.014158467
20	0xbda10013	-0.07861342
21	0xbd492897	-0.049110975
22	0x3d00b8cf	0.031426247
23	0x3b8ca83a	0.004292515
24	0x3a8f9326	0.0010953888
25	0x3d5964d4	0.053074673
26	0x3cd592e2	0.026071016
27	0xbbfc0ccd	-0.0076919557
28	0xbd711346	-0.05885627
29	0x3cb011a3	0.021492785
30	0x3d31c9da	0.04340539
31	0xbd0dfd1e	-0.03466522
32	0x3cd88aff	0.026433466
33	0xbce17483	-0.027521377
34	0xbc800ad1	-0.015630158
35	0xbd33b095	-0.043869574
36	0xbc9d176f	-0.019176213
37	0xbd9e0bd6	-0.07717101
38	0xbcd3d884	-0.025860079
39	0xbce9b4f1	-0.028528662
40	0xbbfd4cff	-0.007730126
41	0xbc599646	-0.013280457
42	0xbd120661	-0.035650615
43	0xbd17877f	-0.036994454
44	0x3bd36dda	0.0064523043
45	0xbd19ee63	-0.03758086
46	0x3adcc860	0.0016844384
47	0x3db8b34f	0.090185754
48	0x3d61a79f	0.055091497
49	0xbce8fdbf	-0.028441308
50	0xbd6de864	-0.058082953
51	0xbd7d9e42	-0.061918505
52	0xbcd1c689	-0.025607364
53	0xbc926e43	-0.017874843
54	0xbb39c9ab	-0.0028348963
55	0xbc786142	-0.015159907
56	0xbd15a5be	-0.036535017
57	0xbd184fa9	-0.037185345
58	0x39ea219c	0.00044657
59	0xbae8f0f2	-0.0017772003
60	0x3d3ba88c	0.045815036
61	0x3d0012e9	0.031268034
62	0x3ab41dd4	0.00137418
63	0xbbf955cd	-0.007609105
64	0x3d23cefb	0.039992314
65	0x3c9dc3aa	0.019258339
66	0xb90cfef9	-0.00013446425
67	0x3b1aea5c	0.0023638224
68	0xbc5d526b	-0.0135084195
69	0xbd258534	-0.040410236
70	0x3d04f4fb	0.032460194
71	0x3c63aaac	0.013895672
72	0xbd2df668	-0.04247132
73	0x3ccf284e	0.025287773
74	0x3d785511	0.060628
75	0x3a9e3595	0.0012070412
76	0xbd6725d2	-0.056432553
77	0x3ba090eb	0.004900088
78	0x3d20b071	0.039230768
79	0x3d49a924	0.04923357
80	0x3dea3ebc	0.11437747
81	0x3c7f3d49	0.015578576
82	0x3be74fdf	0.007059082
83	0xbc44c2f3	-0.01200937
84	0xbca8ce77	-0.020606263
85	0xbd2b2900	-0.041787148
86	0xbd93f46c	-0.07224354
87	0xbb4015d8	-0.0029309895
88	0xbdabd9af	-0.08391129
89	0x3cdfd9d1	0.027325543
90	0x3c154b4f	0.009112193
91	0xbc351a15	-0.011053582
92	0x3d103ff5	0.035217244
93	0x3d939720	0.07206559
94	0x3c99d719	0.018779324
95	0xbd6e1508	-0.058125526
96	0xbd0dc8f5	-0.034615476
97	0x3cd36e3b	0.025809398
98	0xbd02b8a3	-0.031914365
99	0xbcb78de1	-0.02240652
100	0x3dedc639	0.116100736
101	0x3be73f6b	0.0070571206
102	0x3baeace4	0.0053306688
103	0x3d7ee96c	0.062234327
104	0x3d420d4b	0.04737596
105	0xbb01a4f7	-0.0019782165
106	0x3cc7677f	0.024341343
107	0xbd1e4ae6	-0.038645647
108	0xbc77a45a	-0.015114868
109	0x3d229df3	0.039701413
110	0xbd927b39	-0.07152409
111	0xbd8fc773	-0.07020464
112	0xbd6a6687	-0.057226684
113	0x3d26f4f5	0.040760953
114	0x3d4e59a7	0.050378468
115	0xbd8d4ee8	-0.06899816
116	0xbd3b95b7	-0.045797076
117	0xbb2f3646	-0.002673523
118	0x3d52f22e	0.05150049
119	0xbd06b55d	-0.032887805
120	0xbd020b59	-0.031749103
121	0xbd6f05e9	-0.058355246
122	0x3c53e755	0.012933572
123	0x3c8ce8c1	0.01720083
124	0xbd5d7acd	-0.05407219
125	0xbd19562b	-0.03743569
126	0xbdfea86b	-0.12434467
127	0x3d2d9db7	0.042386737

layer2.2.weight f4 [128]
0	0x3f81774c	1.0114532
1	0x3f80397c	1.0017543
2	0x3f8350ef	1.0259074
3	0x3f8853c4	1.0650563
4	0x3f7db458	0.9910331
5	0x3f709230	0.93973064
6	0x3f83dd98	1.0302
7	0x3f8055e9	1.0026218
8	0x3f7ac112	0.9795085
9	0x3f814d78	1.0101767
10	0x3f7838b7	0.9696154
11	0x3f7ea5ed	0.9947193
12	0x3f7103fa	0.9414669
13	0x3f7de114	0.99171567
14	0x3f75e7f8	0.9605708
15	0x3f773938	0.96571684
16	0x3f7efabc	0.9960134
17	0x3f736249	0.95071846
18	0x3f7e7691	0.9939967
19	0x3f6ecaf1	0.93278414
20	0x3f82b1dc	1.0210528
21	0x3f75781f	0.95886415
22	0x3f8203fa	1.0157464
23	0x3f790974	0.9728005
24	0x3f8cab16	1.0989711
25	0x3f8857f6	1.0651844
26	0x3f82f4c9	1.0230953
27	0x3f80539f	1.0025519
28	0x3f8056a3	1.002644
29	0x3f808789	1.0041362
30	0x3f7d5956	0.9896444
31	0x3f72015e	0.94533336
32	0x3f83a557	1.0284833
33	0x3f7e4ff2	0.99340737
34	0x3f826a16	1.0188625
35	0x3f82b491	1.0211354
36	0x3f715de6	0.942839
37	0x3f75a1cf	0.95950025
38	0x3f879924	1.059361
39	0x3f8088c1	1.0041734
40	0x3f7682ff	0.96293634
41	0x3f8a6c4f	1.0814303
42	0x3f7a2483	0.9771196
43	0x3f7f3c9f	0.99701875
44	0x3f7b0e70	0.98068905
45	0x3f777106	0.96656835
46	0x3f6df0ba	0.92945445
47	0x3f83bd8f	1.0292224
48	0x3f899622	1.0748942
49	0x3f7f339a	0.9968811
50	0x3f7777ce	0.9666718
51	0x3f7cde7a	0.9877697
52	0x3f751abc	0.9574392
53	0x3f8839e9	1.0642673
54	0x3f87d8f1	1.061308
55	0x3f6b2497	0.91852707
56	0x3f80a7ac	1.0051169
57	0x3f7cfe16	0.98825204
58	0x3f80a1e4	1.0049405
59	0x3f80164d	1.0006806
60	0x3f81f4a9	1.0152789
61	0x3f8600c3	1.0468982
62	0x3f74e86d	0.95667154
63	0x3f810b4c	1.0081573
64	0x3f831d9d	1.0243412
65	0x3f7d2bf8	0.98895216
66	0x3f6e501b	0.9309098
67	0x3f888dba	1.0668252
68	0x3f723097	0.9460539
69	0x3f66ee90	0.9020777
70	0x3f857720	1.0426979
71	0x3f85e729	1.046117
72	0x3f80e85b	1.0070909
73	0x3f6e7e48	0.9316144
74	0x3f7be60d	0.98397905
75	0x3f880111	1.0625325
76	0x3f81faa8	1.0154619
77	0x3f71f58b	0.94515294
78	0x3f83d448	1.0299158
79	0x3f774d79	0.9660259
80	0x3f7f9b0e	0.9984597
81	0x3f87b2f0	1.0601482
82	0x3f799702	0.97496045
83	0x3f81ce1d	1.0141026
84	0x3f837358	1.0269575
85	0x3f6c45c1	0.92293936
86	0x3f817cfb	1.0116266
87	0x3f7c7889	0.9862142
88	0x3f7b98e5	0.98280174
89	0x3f7af3f1	0.98028475
90	0x3f80a1b3	1.0049347
91	0x3f7efdfb	0.99606293
92	0x3f81708e	1.0112474
93	0x3f80dea0	1.006794
94	0x3f8664ea	1.0499547
95	0x3f7c8759	0.98644024
96	0x3f803e3d	1.0018994
97	0x3f7bbacb	0.983319
98	0x3f89b09b	1.0757021
99	0x3f78bb73	0.97161025
100	0x3f7c4294	0.9853909
101	0x3f74ff91	0.95702463
102	0x3f89247b	1.0714258
103	0x3f856f3a	1.0424569
104	0x3f8633be	1.048454
105	0x3f78ca27	0.9718346
106	0x3f8643a3	1.0489391
107	0x3f729288	0.9475484
108	0x3f7bcac5	0.98356277
109	0x3f8773bd	1.0582196
110	0x3f710303	0.9414522
111	0x3f84b2ed	1.0367104
112	0x3f831d58	1.024333
113	0x3f6a9e4b	0.91647786
114	0x3f845093	1.0337089
115	0x3f7fed72	0.9997169
116	0x3f7a3fd1	0.97753626
117	0x3f78060b	0.9688422
118	0x3f6eed07	0.93330425
119	0x3f778c40	0.9669838
120	0x3f8647c3	1.049065
121	0x3f897cdd	1.074123
122	0x3f83ddcd	1.0302063
123	0x3f749534	0.95540166
124	0x3f7af522	0.98030293
125	0x3f80be2a	1.0058033
126	0x3f7abdbb	0.97945756
127	0x3f80e9ab	1.007131

layer2.2.bias f4 [128]
0	0x3cded8d7	0.027203007
1	0x3c548ff3	0.012973773
2	0x3d289cf8	0.041165322
3	0xbd3a4bb3	-0.04548235
4	0x3d344fc0	0.044021368
5	0x3b28e9d7	0.0025774145
6	0xbd671cfd	-0.05642413
7	0x3d701d5f	0.05862176
8	0x3d300e4a	0.042982377
9	0xbbfd0ee9	-0.0077227247
10	0x3d146723	0.03623117
11	0x3d8104cb	0.06299742
12	0x3cf2f4ee	0.029657807
13	0xbc7a9536	-0.015294364
14	0x3dcbb2ef	0.09946238
15	0xbd7e0b4e	-0.0620225
16	0x3db5cdaf	0.08877122
17	0x3d9f2511	0.07770742
18	0x3d9412e8	0.072301686
19	0x3d355615	0.044271547
20	0xbb2a4e06	-0.0025986447
21	0x3dab6600	0.08369064
22	0x3d9757ec	0.07389817
23	0x3d4cd007	0.050003078
24	0xbd1ab06e	-0.037765913
25	0x3da08557	0.078379326
26	0xbd8a7c50	-0.06761992
27	0x3d0fea62	0.035135634
28	0x3cf42f7c	0.029807799
29	0xbbc1b46b	-0.0059114
30	0x3cfbbc94	0.03072957
31	0x3cd3c5e3	0.025851196
32	0xbcbf2462	-0.023332778
33	0x3e04033f	0.12891863
34	0x3ca58d6a	0.020209033
35	0x3d92476a	0.071425274
36	0x3d1a9dd6	0.03774818
37	0xbb5e8fcb	-0.003396022
38	0xbd68b8be	-0.05681681
39	0x3daca944	0.08430722
40	0x3da80263	0.0820358
41	0x3b91dadb	0.0044511384
42	0x3db31a46	0.08745246
43	0xbc7e408a	-0.015518317
44	0x3c8e7292	0.017388616
45	0x3d3f315c	0.046677932
46	0xbd90a9f5	-0.07063667
47	0xbbae54b6	-0.005320157
48	0xbc4d7188	-0.012539275
49	0x3d1f7a21	0.03893483
50	0x3cb13db3	0.021635866
51	0x3d682aba	0.056681372
52	0x3d0238ac	0.031792328
53	0xbd824dba	-0.063624814
54	0x3d8e524b	0.0694929
55	0xbbf32002	-0.007419587
56	0x3c3e7b52	0.011626082
57	0x3d68fb6c	0.0568804
58	0x3d56e362	0.052462943
59	0xbba291c8	-0.004961226
60	0x3d49f231	0.049303237
61	0xbb83f514	-0.0040270183
62	0x3da6b123	0.08139255
63	0x3d85352a	0.06504281
64	0x3d0496a0	0.03237021
65	0x3b97343d	0.0046143816
66	0x3d80dbbb	0.0629191
67	0x3e08e834	0.13369828
68	0x3d579235	0.05262967
69	0x3db5490a	0.08851822
70	0x3da60caa	0.08107884
71	0xbc721401	-0.014775277
72	0xbd0f11eb	-0.034929197
73	0x3d116e47	0.03550556
74	0x3d84f1a6	0.06491403
75	0xbd3fb73a	-0.046805598
76	0x3d30ef2e	0.04319685
77	0x3c9ac24e	0.01889148
78	0x3d5f226c	0.054476187
79	0x3d6b916f	0.057511743
80	0x3db652e9	0.089025326
81	0xbc68279c	-0.0141696
82	0x3d6db622	0.058035024
83	0x3d4748ce	0.048653416
84	0xbba8eb86	-0.0051550297
85	0x3dfe20ee	0.124086246
86	0x3cee2042	0.029068116
87	0x3d0a1cfd	0.03371905
88	0x3d8e1410	0.0693742
89	0x3d52b30f	0.051440295
90	0xbbb95d04	-0.0056568403
91	0x3d60aa52	0.05484993
92	0x3d5e66c1	0.054297213
93	0x3d3307e4	0.043708697
94	0x3ddd43aa	0.108039215
95	0x3d87cea5	0.06631211
96	0x3d79e56d	0.061009813
97	0x3da260e5	0.079286374
98	0x3d22ec9d	0.039776433
99	0xbc1a3924	-0.009413037
100	0xbd6a383f	-0.057182547
101	0x3d154723	0.036444794
102	0xbb5c5053	-0.0033617213
103	0x3d05552a	0.032551922
104	0x3d7b0e5f	0.061293002
105	0x3d8695f0	0.06571567
106	0x3d05d6d8	0.032675594
107	0x3d3bb4a5	0.045826573
108	0x3d5c1b0f	0.053736743
109	0x3c1a3abf	0.00941342
110	0xbb8bb6dd	-0.0042637424
111	0x3d992542	0.074778095
112	0x3d2067de	0.039161555
113	0x3ce3cdae	0.027808037
114	0x3d969eab	0.07354482
115	0x3c80bcca	0.015715022
116	0x3d3c24d2	0.045933552
117	0xbd0dc646	-0.034612916
118	0x3db581f7	0.088626795
119	0x3d654fd8	0.055984348
120	0x3cd8830b	0.026429674
121	0xbcc3001d	-0.023803765
122	0x3d4d8a1b	0.050180536
123	0x3dd2b1be	0.10287808
124	0x3ccef029	0.025261002
125	0x3c9c7f7a	0.019103754
126	0x3c7592e6	0.014988637
127	0x3cb20bfa	0.021734226

layer2.2.running_mean f4 [128]
0	0x3f7743c8	0.965878
1	0x3f0decb8	0.5543933
2	0x3f52bb1a	0.82316744
3	0x3f666240	0.8999367
4	0x3f4a4cb4	0.7902329
5	0x3f3803bf	0.71880716
6	0x3f653b39	0.8954349
7	0x3f5352d6	0.8254827
8	0x3f0805ed	0.5313404
9	0x3f812a8a	1.0091107
10	0x3f55a0e5	0.8344863
11	0x3f72e368	0.94878244
12	0x3f568d89	0.83809716
13	0x3f337547	0.70100826
14	0x3f5a4900	0.8526764
15	0x3f2504c0	0.6446037
16	0x3f73b3a0	0.9519596
17	0x3f5e7474	0.86896443
18	0x3f2ec970	0.6827612
19	0x3f370cd1	0.7150393
20	0x3f004f72	0.50121224
21	0x3f0d04a2	0.55085194
22	0x3f873cac	1.056539
23	0x3f2e17d4	0.6800511
24	0x3f8c42d3	1.0957893
25	0x3f99861b	1.1994051
26	0x3f7cff21	0.98826796
27	0x3f7a4601	0.9776307
28	0x3f52e263	0.8237669
29	0x3f26f058	0.65210485
30	0x3f67da3e	0.90567386
31	0x3f7ac2f7	0.9795374
32	0x3f8a49fc	1.0803828
33	0x3f63f803	0.8905031
34	0x3f4e9d24	0.8070853
35	0x3ee8e83f	0.4548969
36	0x3f19305a	0.59839404
37	0x3f1281a1	0.5722905
38	0x3f756e80	0.95871735
39	0x3f14c06b	0.58106107
40	0x3f883990	1.0642567
41	0x3f2e7bbe	0.68157566
42	0x3f65e4df	0.89802355
43	0x3f6e610b	0.93116826
44	0x3f2dab46	0.6783947
45	0x3f6f1ce2	0.93403447
46	0x3f5b8e6e	0.85764205
47	0x3f942058	1.157237
48	0x3f30ffb7	0.6914019
49	0x3f9002fb	1.125091
50	0x3f1e8d39	0.6193424
51	0x3f2ebd30	0.6825743
52	0x3f1b890c	0.6075599
53	0x3f804ab4	1.0022798
54	0x3f4de967	0.8043427
55	0x3f07463c	0.52841544
56	0x3f9209f4	1.1409287
57	0x3f03b77e	0.5145186
58	0x3f5463bb	0.82964677
59	0x3f5818d6	0.84412897
60	0x3f82ecba	1.0228493
61	0x3eb657c8	0.35613847
62	0x3f62c23f	0.88577646
63	0x3f62a16f	0.8852758
64	0x3f483d39	0.7821842
65	0x3f85b287	1.0445107
66	0x3f3f4d0e	0.7472695
67	0x3f439e0c	0.76413035
68	0x3f6f865d	0.935644
69	0x3eba9c78	0.364475
70	0x3f2b6b15	0.6696027
71	0x3f3c200e	0.7348641
72	0x3f38f6aa	0.7225138
73	0x3f018fbb	0.5060994
74	0x3f5878ce	0.84559333
75	0x3f73423a	0.9502293
76	0x3ee3c942	0.44489485
77	0x3f7a4e31	0.9777556
78	0x3f8601ea	1.0469334
79	0x3f39b08e	0.72535026
80	0x3f962df6	1.1732776
81	0x3f6ea10a	0.93214476
82	0x3f6105ad	0.87899286
83	0x3f43fa9e	0.76554286
84	0x3f4fb8b9	0.8114124
85	0x3f349b59	0.7054954
86	0x3ef6b58f	0.48185393
87	0x3f9b84c7	1.2149895
88	0x3ee6a5b4	0.45048296
89	0x3f878d93	1.059008
90	0x3f6b9fc8	0.9204068
91	0x3f2d5984	0.67714715
92	0x3f54b4f6	0.83088624
93	0x3f753670	0.9578619
94	0x3f54bc6e	0.8310002
95	0x3f93f0fc	1.1557918
96	0x3f51ae27	0.8190636
97	0x3f75e51a	0.96052706
98	0x3f2ca0d8	0.6743293
99	0x3f34a313	0.7056133
100	0x3f96ceae	1.1781824
101	0x3f4d3274	0.8015511
102	0x3f855514	1.0416589
103	0x3f36565c	0.71225524
104	0x3f6a5c32	0.9154693
105	0x3ef45f48	0.47728944
106	0x3fabfeb1	1.3437101
107	0x3f4815c5	0.7815822
108	0x3f56c4b9	0.83893925
109	0x3f468ff3	0.775634
110	0x3f7086d1	0.93955714
111	0x3f5de65c	0.86679626
112	0x3f0a2d0b	0.5397498
113	0x3f5642d0	0.836957
114	0x3f5a7464	0.8533385
115	0x3f1c6816	0.6109632
116	0x3f75e371	0.96050173
117	0x3f74358d	0.9539421
118	0x3f62b764	0.8856108
119	0x3f25158f	0.6448602
120	0x3f0345ee	0.5127858
121	0x3f30d821	0.69079787
122	0x3f63e889	0.89026695
123	0x3f4c7c11	0.7987681
124	0x3ea0d7b2	0.31414562
125	0x3f5fc31e	0.874071
126	0x3ebfad29	0.37436798
127	0x3fb1e7d0	1.3898869

layer2.2.running_var f4 [128]
0	0x40c9c4d8	6.305279
1	0x400af5df	2.1712568
2	0x3fc10f83	1.5082859
3	0x3f5066fc	0.8140714
4	0x3feb62d1	1.8389531
5	0x3f1e82d1	0.6191836
6	0x3f5d4267	0.86429447
7	0x40039782	2.0561223
8	0x404d08c1	3.2036593
9	0x3f1ea77c	0.6197431
10	0x3f457c38	0.7714267
11	0x3f79b4fb	0.9754178
12	0x40396d7f	2.897308
13	0x3f7898de	0.97108257
14	0x40bebd70	5.9606247
15	0x40fd2565	7.910815
16	0x3fa1b7e8	1.2634249
17	0x405cacc9	3.448046
18	0x406fca3c	3.7467184
19	0x3f0b51dc	0.5442178
20	0x4014020b	2.3126247
21	0x40580621	3.375374
22	0x3fff623e	1.9951856
23	0x404811ee	3.1260943
24	0x3f837349	1.0269557
25	0x3f7983e1	0.97466856
26	0x3f2a189d	0.66443807
27	0x40fa2ac2	7.8177195
28	0x40b40d68	5.6266365
29	0x3f7b9556	0.98274744
30	0x400e8e4e	2.2274356
31	0x40ca02e0	6.312851
32	0x4029fe87	2.65616
33	0x40348d6c	2.8211317
34	0x3f997fa3	1.1992077
35	0x3fff1297	1.9927548
36	0x4043630d	3.0529206
37	0x40b5c818	5.6806755
38	0x3fe6f15e	1.804241
39	0x3fdaf712	1.710665
40	0x3fca7283	1.5816196
41	0x3fbcecdb	1.4759783
42	0x40070be4	2.1101007
43	0x3fccc893	1.599871
44	0x40a8234e	5.2543097
45	0x4099563f	4.791778
46	0x3f45498f	0.77065367
47	0x3f8541a2	1.0410655
48	0x3f379f30	0.71727276
49	0x40bc117e	5.8771353
50	0x40cdf9dd	6.436751
51	0x40733718	3.8002377
52	0x4080ce6c	4.025198
53	0x3f5d6002	0.8647462
54	0x3f83907a	1.0278466
55	0x3fcce847	1.6008385
56	0x40f7da16	7.745372
57	0x3fcfacba	1.6224587
58	0x4049d34b	3.1535213
59	0x3fa105f4	1.2579942
60	0x409594b7	4.6744037
61	0x3ed26dbf	0.41099355
62	0x3ff6ffb0	1.929678
63	0x40ba5a87	5.8235507
64	0x40065cd5	2.099416
65	0x4008c487	2.136995
66	0x4053efa3	3.3115013
67	0x40016c70	2.0222435
68	0x4108648f	8.52455
69	0x3fa4e143	1.2881244
70	0x3fb907cb	1.4455503
71	0x4014f4e6	2.3274474
72	0x401837ff	2.3784177
73	0x4007720f	2.1163366
74	0x3fc39cbb	1.5282205
75	0x3f843d1e	1.0331151
76	0x4037d075	2.8720982
77	0x40ba869b	5.8289313
78	0x3f4f662e	0.8101529
79	0x3f82d0bb	1.021995
80	0x3fc80b8a	1.5628521
81	0x3f2e046d	0.67975503
82	0x3fb6be31	1.4276792
83	0x408ea4f7	4.4576373
84	0x4005d2a8	2.0909824
85	0x406389ac	3.5552778
86	0x3fad7b1e	1.3553197
87	0x400da179	2.2129805
88	0x4036609d	2.8496468
89	0x4032b75e	2.7924418
90	0x404d746f	3.2102315
91	0x40018223	2.023568
92	0x3fa878d6	1.3161876
93	0x400aa2b9	2.1661818
94	0x3f142db2	0.57882226
95	0x40fc045b	7.8755317
96	0x40453551	3.0813792
97	0x3fc66a03	1.5501102
98	0x3f329035	0.6975129
99	0x3fb881a5	1.4414564
100	0x3f740d48	0.95332766
101	0x4078eaa6	3.8893218
102	0x3f340f66	0.70335996
103	0x3f31d4a5	0.69465095
104	0x3f3d5cc2	0.7396966
105	0x3f9c61eb	1.2217382
106	0x3f9bc062	1.2168086
107	0x40f33233	7.599878
108	0x40caff3b	6.343656
109	0x3ecf7696	0.4052016
110	0x4112b0a1	9.168122
111	0x3f0e4e95	0.55588657
112	0x4085ff5a	4.187421
113	0x4094c901	4.6495366
114	0x3fc32b35	1.5247561
115	0x3f8d4d7d	1.1039273
116	0x40bb772e	5.8582983
117	0x3f21989f	0.63123506
118	0x4022ba9f	2.5426404
119	0x40281b58	2.626669
120	0x3f02fd55	0.51167804
121	0x3fcd16a5	1.6022536
122	0x3f9d7e0a	1.2304089
123	0x4018a4f9	2.3850691
124	0x3fb285ca	1.3947079
125	0x3edaddd2	0.4274736
126	0x406407a2	3.5629659
127	0x3fcf1bc2	1.6180346

layer3.0.weight f4 [64, 128, 7]
0	0xbd43a7d6	-0.047767483
1	0xb9b02bae	-0.0003360188
2	0xbc693edc	-0.014236178
3	0x3d213d35	0.039365012
4	0x3cf21fca	0.029556174
5	0x3c80c721	0.015719952
6	0x3c59f553	0.013303119
7	0xbd365c7c	-0.044521794
8	0xbbe92730	-0.007115267
9	0xbcca99e7	-0.02473159
10	0xbd121403	-0.035663616
11	0xba941f6b	-0.0011300867
12	0xbcf81a6e	-0.03028604
13	0xbd5078fe	-0.050896637
14	0xbbac0b81	-0.005250395
15	0x3ce7434c	0.028230332
16	0x3b21d445	0.0024693173
17	0x3cf1220d	0.029435182
18	0xbd7ec5a0	-0.06220019
19	0xbcd0c194	-0.02548293
20	0xbbd8471a	-0.006600273
21	0x3bf9d019	0.007623684
22	0xb99e17ac	-0.00030153745
23	0xbd5d2497	-0.053989973
24	0xbd07bbbb	-0.033138018
25	0x3d737b32	0.05944366
26	0x3bf99aa9	0.007617314
27	0xb97a1166	-0.0002384834
28	0x3c1205dd	0.008912531
29	0x3b4f2e5e	0.003161333
30	0xbd4a304f	-0.049362477
31	0xbd8548e9	-0.06508047
32	0xbca81d6a	-0.020521838
33	0xbc9fcb41	-0.019506099
34	0x3da32842	0.07966663
35	0x3d7cb5dd	0.061696876
36	0x3d1bc764	0.03803195
37	0x3cab18e6	0.020885896
38	0xbbb1fc47	-0.005431685
39	0xbd5a1408	-0.05324176
40	0xbcb53bfb	-0.022123327
41	0x3c571350	0.013127163
42	0x3cb27236	0.021782976
43	0x3cf6fec2	0.030150775
44	0x3cd2d18d	0.025734687
45	0xbbb54de2	-0.005532966
46	0x3d0b983d	0.034080733
47	0x3d79adf1	0.0609569
48	0x3d0ad2f2	0.03389258
49	0xbd2c5b5e	-0.042079322
50	0x3d6a2232	0.057161517
51	0x3c8bcf15	0.017066518
52	0xbd15895a	-0.03650794
53	0xbd8726ce	-0.06599198
54	0xbd8af2c4	-0.06784585
55	0xbd2ec49e	-0.042667978
56	0x3d059cc8	0.03262022
57	0x3c8cdb14	0.017194308
58	0x3d1a9dd8	0.037748188
59	0x3c8245af	0.015902368
60	0xbb6708f1	-0.0035253132
61	0xbcadc821	-0.021213593
62	0x3d9344da	0.07190867
63	0x3b160c21	0.0022895413
64	0x3d53fc9d	0.051754583
65	0xb90d3e72	-0.0001347007
66	0xbcaa376f	-0.020778386
67	0xbd917543	-0.07102444
68	0xbdafc56c	-0.08582577
69	0xbca94684	-0.020663507
70	0x3bc6c086	0.006065431
71	0x3bc1cb42	0.005914123
72	0x3cb9f8e9	0.022701697
73	0x3c997dd3	0.018736755
74	0x3c575328	0.013142385
75	0xbc69ed4d	-0.014277768
76	0xbcab88db	-0.020939281
77	0x3cb3b792	0.02193812
78	0xbd8c5308	-0.068517745
79	0xbd0f5fcb	-0.035003465
80	0x3cb514dc	0.022104673
81	0x3d3474b7	0.04405662
82	0xbb76dfab	-0.0037669938
83	0x3c4173b4	0.011807371
84	0xbcabbab2	-0.020963047
85	0x3b9f8a78	0.0048688017
86	0xba45eb32	-0.00075500004
87	0xbc2b0f1f	-0.010440617
88	0x3cc7848a	0.024355192
89	0x3cdf58ec	0.027264081
90	0x3d3e9a3c	0.046533808
91	0x3d437654	0.04772027
92	0x3b4d72eb	0.0031349014
93	0x3d1d16a8	0.038351685
94	0xbce1f6e2	-0.027583543
95	0xbbd024c9	-0.0063520414
96	0xbc5201e2	-0.012817832
97	0xbbd52bbc	-0.0065054577
98	0xbdb8a594	-0.090159565
99	0x3d07148b	0.032978576
100	0x3cd4a417	0.02595715
101	0xbd9d6306	-0.07684903
102	0xbc756167	-0.014976836
103	0xbc8f470c	-0.017489932
104	0xbc6efe9e	-0.014587073
105	0xbc01c0e8	-0.007919528
106	0x3d062928	0.032754093
107	0xbc2a3b6c	-0.010390144
108	0x3c688b6b	0.014193396
109	0xbbd6f279	-0.0065596667
110	0x3b37465a	0.0027965517
111	0xbbd0108a	-0.006349628
112	0x3bdf6524	0.006817477
113	0x3cce2f69	0.025169091
114	0x3bb2d5b3	0.005457604
115	0xbc9aba1d	-0.018887574
116	0xbc653bf5	-0.013991346
117	0xbd37bc4e	-0.044857316
118	0xbce7b610	-0.028285056
119	0xbb9bf90e	-0.0047599142
120	0x3cd08017	0.025451703
121	0xbbe8222a	-0.007084151
122	0xbd8c0507	-0.068368964
123	0xbcc79a40	-0.024365544
124	0x3b2850cc	0.0025682924
125	0x3d1d6981	0.038430694
126	0xbc74477b	-0.01490962
127	0xbd272ec8	-0.0408161
128	0xbd4ccd62	-0.050000556
129	0xbc7861d6	-0.015160045
130	0xbd43818b	-0.047730964
131	0x3d43b8cb	0.047783654
132	0x3db41816	0.087936565
133	0x3c91b32a	0.017785627
134	0xbc83017a	-0.015991915
135	0x3c6d909d	0.0144998105
136	0xbc7aa401	-0.015297891
137	0x3c529efa	0.012855286
138	0xbd48a367	-0.048983958
139	0xbd1b2b5c	-0.037883148
140	0xbd0d9279	-0.034563515
141	0x3d165932	0.036706157
142	0x3d22db73	0.039760064
143	0x3cf2938e	0.029611375
144	0x3c4efdb3	0.012633729
145	0xbd312fe8	-0.043258578
146	0x3cd6577e	0.026164766
147	0x3d5809db	0.052743774
148	0x3a1c8a72	0.00059715577
149	0x3c498ee3	0.012302133
150	0x3bb2a7c5	0.0054521286
151	0x3c6f00a9	0.01458756
152	0x3d08af0a	0.033370055
153	0xbcd7fc9a	-0.026365567
154	0xbc7eb974	-0.015547145
155	0x3d3d20fa	0.046174027
156	0xbcc44f72	-0.023963664
157	0xbd006a3d	-0.031351317
158	0xbd04f949	-0.0324643
159	0xbd5fd5f1	-0.05464739
160	0xbd5a124a	-0.053240098
161	0x3a9fb4c2	0.0012184607
162	0x3cb5d24a	0.022195
163	0xbd621967	-0.055200007
164	0xbb9a8dea	-0.0047166245
165	0x3c7a64c7	0.015282816
166	0x3c1966a9	0.009362855
167	0x3c3d0b51	0.011538343
168	0xbba7e1e8	-0.0051233657
169	0xbd0c6cf5	-0.034283597
170	0xbd2a401f	-0.041565057
171	0xbd3cb6fa	-0.046072938
172	0x3d848fb4	0.06472722
173	0x3d247aa5	0.040156025
174	0xbb1fd78b	-0.0024389948
175	0x3cdf6821	0.027271332
176	0x3d138a18	0.03602037
177	0x3d117e62	0.03552092
178	0xbd9ebed8	-0.07751244
179	0xbd975169	-0.07388575
180	0xbcf0211f	-0.029312668
181	0xbcaac2cc	-0.02084484
182	0xbc9f9434	-0.019479848
183	0xbb69039a	-0.0035555125
184	0xbc820f8b	-0.015876552
185	0x3cfd137b	0.030893078
186	0xbc2163e7	-0.009850479
187	0x3a387355	0.0007036229
188	0xbd213ac0	-0.03936267
189	0xbcd9b133	-0.026573753
190	0x3c346cbd	0.011012253
191	0x3c1c6941	0.009546579
192	0x3c81a181	0.015824081
193	0xbcca786c	-0.024715625
194	0x3d241f14	0.0400687
195	0xbb229b7e	-0.002481192
196	0xbcdcd19c	-0.026955418
197	0xbd21d7e5	-0.039512534
198	0x3ceea24a	0.02913012
199	0x3d3bed96	0.045880876
200	0x3c749da7	0.014930165
201	0xbbcd5df4	-0.0062673036
202	0x3c886231	0.016648384
203	0x3c86b2c6	0.016442668
204	0x3ceb7025	0.028739998
205	0x39f58028	0.00046825525
206	0x3c8c2583	0.01710773
207	0xbb6c2756	-0.0036034188
208	0xbd53f3fd	-0.051746357
209	0xbb8840af	-0.0041581015
210	0xbc444787	-0.011979944
211	0x3c4c4a06	0.01246882
212	0xbc9db4c2	-0.019251231
213	0x3c3d7a42	0.011564793
214	0x3cc24853	0.023716127
215	0x3d69a1f2	0.05703921
216	0x3c6622a8	0.014046349
217	0xbd23a29d	-0.039950002
218	0x3cb3d50f	0.02195218
219	0xbd47bf17	-0.04876622
220	0xbc617ae2	-0.013762208
221	0x3d6a7f94	0.057250574
222	0x3d426c48	0.047466546
223	0x3c15d3a1	0.009144695
224	0x3d0171cb	0.031602662
225	0xbba0d787	-0.0049085054
226	0x3da00d01	0.0781498
227	0xbcfe2db0	-0.031027645
228	0xbda7d968	-0.08195764
229	0xbdb1b41f	-0.086769335
230	0xbc9d5901	-0.01920748
231	0xbbfb9e9a	-0.007678819
232	0xbc286d0c	-0.010279905
233	0xbcdb3980	-0.026760817
234	0x3c093551	0.008374528
235	0xbd10ad95	-0.03532179
236	0xbd272216	-0.04080399
237	0x3cf457c5	0.029827008
238	0x3c41c086	0.011825686
239	0x3d894fec	0.06704697
240	0xbd2194a7	-0.039448407
241	0x3ca49fae	0.020095672
242	0xbcf705b8	-0.030154094
243	0xbd6abbce	-0.05730801
244	0xbd860c4b	-0.065453134
245	0x3ca47ec5	0.02007998
246	0xbc9ef3d5	-0.019403378
247	0x3b8253d2	0.0039772773
248	0xb98b0205	-0.0002651365
249	0x3d64a82b	0.05582444
250	0x3d253461	0.040333156
251	0x3cb9e163	0.02269048
252	0xbcd523a3	-0.02601797
253	0x3d1f158a	0.0388389
254	0x3c837d41	0.016050937
255	0x3c35cf61	0.011096806

layer3.0.bias f4 [64]
0	0xbd223ae7	-0.039606955
1	0x3cb7743b	0.02239429
2	0x3c830b7e	0.01599669
3	0xbd205c9b	-0.039150815
4	0xbcba73ec	-0.022760354
5	0xbd91898f	-0.07106315
6	0xbde12729	-0.10993797
7	0xbcda7bd1	-0.026670368
8	0x3bf7c447	0.00756124
9	0xbd8d92e3	-0.06912782
10	0xbd4e3177	-0.050340142
11	0xbc3294ec	-0.010899764
12	0xbb45c3c9	-0.0030176512
13	0xbd4d5319	-0.050128076
14	0x3d2dd252	0.042436905
15	0xbc516a2b	-0.01278166
16	0xbd281a5d	-0.041040767
17	0xbd57ad73	-0.05265565
18	0xbda641a8	-0.08117992
19	0xbc2340f3	-0.009964216
20	0xbd4827b5	-0.048865993
21	0xbd1b3297	-0.037890043
22	0xbda33971	-0.079699405
23	0xbbd05bd3	-0.0063586025
24	0xbdc3b905	-0.09556774
25	0xbd48179c	-0.04885064
26	0x3c97018c	0.018433355
27	0xbd6e0437	-0.05810949
28	0xbd2e5397	-0.042560186
29	0xbc9e97ef	-0.019359557
30	0x3cdf23d2	0.02723876
31	0x3cca6ef8	0.024711117
32	0x3d183b7f	0.037166115
33	0xbcc3c47d	-0.023897404
34	0x3d0d746a	0.03453485
35	0xbd43cdaa	-0.04780356
36	0xbd1c7b8c	-0.03820376
37	0xbd357b84	-0.044307247
38	0xbb7a0338	-0.0038148891
39	0xbb1355fd	-0.0022481673
40	0x3c386201	0.011253835
41	0xbd8152b2	-0.06314601
42	0xbd853146	-0.06503539
43	0xbd0ba9ec	-0.034097597
44	0x3c3af0dd	0.011409965
45	0xbd046987	-0.0323272
46	0xbc5e8d0c	-0.013583433
47	0xbcf64cb0	-0.030065864
48	0xbcfb73fb	-0.030694952
49	0xbd8b9cf3	-0.06817045
50	0xb9b0f4a4	-0.00033751607
51	0xbc892b2b	-0.016744217
52	0xbe1f1c45	-0.15538128
53	0x3c39c674	0.011338819
54	0xbd838a84	-0.06422904
55	0xbd122113	-0.035676073
56	0x3baba093	0.005237648
57	0x3ca22424	0.019792624
58	0xbc56657a	-0.013085717
59	0xbc90aaaf	-0.017659513
60	0xbd785a9f	-0.060633298
61	0x3c4dd76c	0.012563568
62	0xbd8ffb44	-0.07030347
63	0xbcbf4025	-0.023346016

layer3.2.weight f4 [64]
0	0x3f829f00	1.0204773
1	0x3f853cce	1.0409181
2	0x3f821d96	1.0165279
3	0x3f7ddfa6	0.99169385
4	0x3f807075	1.0034319
5	0x3f81a6f6	1.0129077
6	0x3f829de1	1.0204431
7	0x3f874110	1.056673
8	0x3f7894d3	0.9710209
9	0x3f853896	1.0407894
10	0x3f871943	1.0554584
11	0x3f850f84	1.039536
12	0x3f7db07b	0.9909741
13	0x3f7c67b0	0.98595715
14	0x3f7d2bca	0.9889494
15	0x3f84af15	1.0365931
16	0x3f774b78	0.9659953
17	0x3f817e36	1.0116642
18	0x3f7e4ce0	0.9933605
19	0x3f82519b	1.0181154
20	0x3f833a72	1.0252211
21	0x3f7e7d96	0.9941038
22	0x3f82a701	1.0207216
23	0x3f82b1ef	1.0210551
24	0x3f817baf	1.011587
25	0x3f7cf8aa	0.9881693
26	0x3f8418b0	1.0320034
27	0x3f8390db	1.0278581
28	0x3f8324f0	1.0245647
29	0x3f8700ed	1.0547158
30	0x3f8422d8	1.0323133
31	0x3f896b0f	1.0735797
32	0x3f77f551	0.968587
33	0x3f82569d	1.0182682
34	0x3f83994f	1.0281161
35	0x3f7e7de9	0.99410874
36	0x3f82c328	1.0215807
37	0x3f8421f1	1.0322858
38	0x3f7c70a0	0.9860935
39	0x3f8571fa	1.0425408
40	0x3f81986d	1.0124642
41	0x3f8ac6e9	1.0841953
42	0x3f88ada2	1.0677989
43	0x3f7ce597	0.98787826
44	0x3f8388e1	1.0276147
45	0x3f840b28	1.0315905
46	0x3f826a62	1.0188715
47	0x3f86cd10	1.053133
48	0x3f7e31d5	0.9929479
49	0x3f84bf8d	1.0370957
50	0x3f831389	1.0240337
51	0x3f73a9b5	0.9518083
52	0x3f82d6f9	1.0221854
53	0x3f801f93	1.0009636
54	0x3f83b10a	1.0288403
55	0x3f844f2f	1.0336665
56	0x3f87312b	1.056188
57	0x3f7f46b6	0.9971727
58	0x3f86c537	1.0528935
59	0x3f7fdc22	0.9994527
60	0x3f8363aa	1.026479
61	0x3f761ce5	0.9613784
62	0x3f8ad30c	1.0845656
63	0x3f81b9cd	1.0134827

layer3.2.bias f4 [64]
0	0xbcef193b	-0.029186836
1	0x3bc11113	0.005891928
2	0xbc264e62	-0.010150524
3	0xbd15d19e	-0.03657686
4	0xbc8ecd48	-0.01743187
5	0xbc9779a7	-0.018490626
6	0xbc97a484	-0.018511064
7	0x3cbb6dab	0.022879442
8	0x3db279cf	0.087146394
9	0x3c6d0582	0.014466645
10	0xbd50d1e9	-0.050981436
11	0xbbfd52e6	-0.0077308295
12	0xbc960b95	-0.01831607
13	0x3d2ed49a	0.04268322
14	0x3d6c2593	0.05765302
15	0xbbdaf7fe	-0.006682395
16	0xbbd85c2f	-0.006602786
17	0xbcf52d97	-0.029928965
18	0xbccb3b53	-0.024808561
19	0xbcaaf7c9	-0.020870106
20	0x3d23a9b5	0.039956767
21	0xbd12d5f0	-0.035848558
22	0xbd10cfd8	-0.035354465
23	0xbcc058b6	-0.0234798
24	0xbd3d8bea	-0.04627601
25	0xbc01e412	-0.007927911
26	0x3c2a3a91	0.01038994
27	0xbb79bfb8	-0.0038108658
28	0x3d09e114	0.033661917
29	0xbc24f1f3	-0.010067451
30	0x3d48ab84	0.048991695
31	0xbcba6394	-0.02275256
32	0x3c1620ef	0.009163125
33	0x3cad4474	0.021150805
34	0xbb5f85d5	-0.003410687
35	0xbd09dd8e	-0.033658557
36	0xbc065959	-0.008200013
37	0xbbdd3880	-0.00675112
38	0xbb91e287	-0.004452053
39	0xbc83fe8d	-0.01611259
40	0x3c2f074a	0.01068289
41	0xbcc7b610	-0.024378806
42	0xbc5f9708	-0.0136468485
43	0x3b67b923	0.0035358153
44	0xbca59600	-0.020213127
45	0x3cec8a53	0.028874552
46	0x3b8a2f25	0.004217046
47	0x3c5638c0	0.013075054
48	0x3c226a6e	0.00991307
49	0x3d4ffbfb	0.050777417
50	0xbcaee9ed	-0.021351779
51	0x3dcaa6ac	0.098950714
52	0xbc998ec2	-0.01874483
53	0x3c5633dc	0.013073888
54	0x3bb95b6f	0.0056566517
55	0xbd3a8da6	-0.045545243
56	0xbcd2a05b	-0.02571123
57	0x3d377401	0.044788364
58	0x3d277944	0.040887132
59	0xbcc248c9	-0.023716347
60	0xbbe03614	-0.006842384
61	0x3d1c92e7	0.038226034
62	0xbbb3f6b7	-0.005492057
63	0x3beb5293	0.0071814745
